humun/assets/lstm_model.tflite (tflite, 33440 bytes, 7 tensors)

model_1/dense_3/MatMul f4 [16, 32]
00000000: 8e30 96be ae22 89bf fa25 2fbe fb19 4d3e
00000010: 3dd1 ffbe 3583 133e 2bda 5f3f 67d3 883f
00000020: 3853 af3f 42b6 97bd 98c6 89bc ca4f 4d3f
00000030: b466 efbd 5ea2 463e 371f b7be e1df 82bf
00000040: c053 973d 4084 6f3f 129e 6bbf 83b5 7b3e
00000050: de19 82bf ae73 0dbe a59c b6be 65f7 50bf
00000060: 4b8d c43f f14d 713d 11d4 a83e dba9 8fbf
00000070: 89c3 5c3f 8840 e23e 0581 a83f dcbf a73d
00000080: d209 213f eb45 55bf b006 083f 0ade 913f
00000090: efb2 463f d858 a4bc 1132 103e 71f0 98bf
000000a0: 2dd9 8c3e 52b4 34bf c74e e73e 9fd8 903f
000000b0: 2a60 3fbd 7682 53bf 7317 8a3e 79ee b93e
000000c0: 1f81 393d 4f0d 2b3f 0db6 633f 3305 c7be
000000d0: 5010 a63f ad1e 193e ad83 9bbf 0382 c03e
000000e0: bb65 573e c0fe 2a3f a797 9d3e 6782 8fbe
000000f0: f2d2 ac3e 91cf 94bf 9d94 6bbf 76c7 b5bc
00000100: a529 dcbe 14ec 973f e1ef ae3f b754 833e
00000110: d5fb 423f b08f e13e e0a5 a2be 5525 8d3e
00000120: e00f 84bf 3425 fabe 2d2e 1abe 7646 a43e
00000130: 549a a3bc 12a2 233f 1703 173f 23fb d6be
00000140: ee5b ccbd 1605 f7be 9759 7fbe 4f9e a4bf
00000150: d444 95bf cbdd 413f 65d5 15bf b0ab cc3f
00000160: bcb5 943d 5b2a 863f 9fac 093b db3a a13e
00000170: 586f aebe 95ab 1a3f 7a55 debe 2005 19bd
00000180: e2b5 1f3e 9a7d 803f fe79 1b3e 78a5 ec3e
00000190: 66cf 20bf b878 883f 8af7 ba3e 40f3 033f
000001a0: 86c8 b23f 6acb a03e 3e15 103f 69b9 893f
000001b0: e87f 123e 9cea 453f 686b 34bf 3dbe 20bf
000001c0: b1e5 0a3d 3b17 21bf 18fb 72bc 19fb 793f
000001d0: 60d4 223f ea9c e8bd 823d efbe 31e4 58bf
000001e0: 1d64 88bf 373c 61bf 303b 853f 4580 833f
000001f0: eb0d 03be 4d09 63bf 7cf4 59bf b9ab 16be
00000200: c30a 67be 2996 51be 0c35 e8bf 75fb b5be
00000210: 98f6 a4bf bcf9 51bf 3c1e 093f f313 cebf
00000220: 302f 023f bf38 9bbf ca6f a73e b0f9 ed3e
00000230: 8520 3fbe 6739 77bd 4c94 2dbf 9e6e 0e3f
00000240: 35ce 2dbc 804b 2abf b64f 5dbe 1653 9cbf
00000250: e4ed 5bbe dc65 7f3e d4e1 913f f9db 003e
00000260: fe45 823f 04d5 7dbf dade 593f 1e30 4dbf
00000270: 88e5 acbe 7d0e 1dbf 1d13 34bf 1961 c53d
00000280: 6ed9 46bf aad6 79bf db5f 0fbf 5de2 a7bf
00000290: 6f5f 9e3e 052e 903f 2a25 bd3f 4858 523f
000002a0: 4835 84be 10f8 8abf ea95 593f 0291 1fbf
000002b0: d929 c9bd 724a 4f3d c613 da3e bc70 90bf
000002c0: a8ad 793d 6422 e7be 71cd 243f 8e3f 33be
000002d0: 4327 443f 9bc9 073f ef4d 1f3e 7806 b2bb
000002e0: d7f7 0d3f 8c6f 173e 3285 a1be 69d3 303f
000002f0: 5660 64bf 6b20 0dbe be20 603e 0c2a 253c
00000300: f6df 92be c531 3ebf a3bc 0a3f a922 d83e
00000310: 537a 53bf 9e22 e43e e925 6fbf a79f 86bf
00000320: 775c afbf 683d dd3e f880 acbf d016 e93f
00000330: 267d a53d 5d6e 163f 28c5 c7be b07c 8ebe
00000340: 845a 8f3e 63eb 9a3f a507 48be 03b9 a33f
00000350: 6099 3f3e 293d cfbf 1e82 a5be 78f0 103f
00000360: 3f82 3c3e d5f5 5ebf ab05 4ebf aeef 043f
00000370: 5da2 4fbf bc3b 383f 1da6 67bf 5e01 45bc
00000380: 52b6 f2be 33e3 febd 8345 32bf 86db b63f
00000390: 9aba 013e 459e b4be 100f 40bf 5b2f ef3e
000003a0: 297c a0bd e9c2 91bf d6da 8cbe 0f41 323f
000003b0: 8e5c 50bc 739d 14be 6b10 9dbe 4e94 86be
000003c0: 5a94 033e e01a e9be 9333 de3e 1895 b4bf
000003d0: ff1d e5be 3125 68bf a3dc d43e bbdf aabe
000003e0: 4e2c bebf 81a0 34bf abf0 983d 2a84 7f3f
000003f0: 975a 2d3f 6233 2b3f e203 d53f 10ef d53d
-0.2933392 -1.0713708 -0.1710433 0.20029442 -0.49964324 0.1440552 0.8744227 1.0689515
1.3697271 -0.0740781 -0.01681833 0.80199873 -0.11689511 0.19397876 -0.35766003 -1.0224572
0.07389021 0.9356117 -0.9203807 0.2458096 -1.0164144 -0.1381366 -0.35666385 -0.81627494
1.5355619 0.05891222 0.32974294 -1.1223711 0.8623586 0.44189858 1.3164374 0.08190891
0.6290561 -0.8330981 0.53135204 1.1395886 0.7761678 -0.020061895 0.14081599 -1.1948377
0.27509442 -0.70587647 0.4517729 1.1316108 -0.04672257 -0.8262094 0.26971015 0.36314753
0.045289155 0.6681718 0.8894966 -0.38871154 1.2973728 0.14953108 -1.2149559 0.3759919
0.21034901 0.6679497 0.30779764 -0.28029177 0.33754689 -1.1625844 -0.9202364 -0.022189837
-0.43000522 1.186892 1.3666955 0.2565057 0.76165515 0.44054937 -0.31767178 0.27567545
-1.0317345 -0.4885651 -0.15056677 0.32085007 -0.01997105 0.63919175 0.5898909 -0.41988477
-0.09978472 -0.48246068 -0.2493652 -1.2860812 -1.166163 0.75729054 -0.5852874 1.5989895
0.072612256 1.0481676 0.0021007431 0.31490216 -0.34069324 0.60418063 -0.43424588 -0.037358403
0.15596727 1.003833 0.15183255 0.46219993 -0.62816465 1.066184 0.36516982 0.51543045
1.3967445 0.31405193 0.56282413 1.0759708 0.14306605 0.7731111 -0.7047639 -0.6279028
0.033910457 -0.6292607 -0.014830373 0.9764877 0.6360531 -0.11358054 -0.46726614 -0.8472319
-1.0655552 -0.87982506 1.0408688 1.027352 -0.12798278 -0.88686067 -0.8513868 -0.14713944
-0.22562699 -0.20467438 -1.8141189 -0.3554341 -1.2887754 -0.8202169 0.5356176 -1.6099838
0.5085325 -1.2126693 0.32702476 0.4647956 -0.18664749 -0.060357478 -0.6780441 0.5563754
-0.010608246 -0.66521454 -0.21612439 -1.2212856 -0.21477467 0.249412 1.1397042 0.12583913
1.017761 -0.9915316 0.8510567 -0.80151546 -0.33768868 -0.6135023 -0.70341665 0.096376605
-0.7767552 -0.97593176 -0.5600564 -1.3115956 0.30932185 1.1264044 1.4776967 0.82165956
-0.258219 -1.0856953 0.84994376 -0.6233064 -0.09822435 0.050608106 0.4259321 -1.1284404
0.060956627 -0.45143425 0.6437598 -0.17504713 0.7662241 0.53042 0.15557073 -0.0054329
0.554563 0.14788646 -0.31546932 0.69072586 -0.89209497 -0.13781898 0.2188749 0.010080826
-0.28686494 -0.7429469 0.54194087 0.42213944 -0.82608527 0.4455766 -0.9341722 -1.0517472
-1.3700093 0.43210912 -1.3476858 1.8210087 0.08080511 0.5876215 -0.39017606 -0.27829504
0.27998745 1.2103084 -0.19534166 1.2790836 0.18710852 -1.619054 -0.32325834 0.56616926
0.1840906 -0.8709386 -0.804774 0.5192822 -0.8110712 0.7196615 -0.90487844 -0.012024252
-0.47404724 -0.124456786 -0.69637316 1.4285743 0.12668839 -0.35277 -0.75022984 0.46715817
-0.07836182 -1.1387607 -0.2751071 0.6963052 -0.012717379 -0.14513187 -0.30676588 -0.26285022
0.1284956 -0.45528316 0.43398723 -1.4108 -0.44749448 -0.9068175 0.41574582 -0.33373818
-1.4857271 -0.7055741 0.07467779 0.9981104 0.67716354 0.6687528 1.664181 0.10445988

model_1/dense_3/MatMul;model_1/dense_3/BiasAdd f4 [16]
00000000: f889 223f e584 103f 6406 4e3e 2d2e d13e
00000010: 6193 423d 1bc9 7bbe 2aa4 d4be 3428 753e
00000020: 9c32 45bf 029e 383f 6f4b df3e b361 04bf
00000030: c889 f53e ac37 64bf 765a e23e bb40 afbf
0.63491774 0.5645278 0.20119625 0.40855542 0.047503833 -0.24588434 -0.41531497 0.23941118
-0.7703035 0.721161 0.4361224 -0.5171158 0.4795668 -0.8914745 0.4420964 -1.3691629

model_1/lstm_1/Read_2/ReadVariableOp f4 [256]
00000000: ea0c 6abf 6176 edbf e36a 42c0 ae42 0fc0
00000010: 3ef1 62c0 1541 a3bf 2708 92bf e7b9 0fc0
00000020: 7b52 32c0 4b8a 1ec0 6f6a b0bf de56 06c0
00000030: 261b ffbf 7258 87bf 101e 4dc0 48ce 09c0
00000040: 762e 97bf 2f3c f5bf 3976 f4bf d9d5 c7bf
00000050: 8473 14c0 bd23 35c0 c685 67bf 7c7d 43c0
00000060: f0c2 25c0 c6b6 0cc0 9c81 ddbf be94 50c0
00000070: 4c21 b4bf 3f60 0ac0 3752 22c0 f1aa 1dc0
00000080: 6a07 2bc0 07af f9bf 1749 0fc0 2702 4cbe
00000090: 4a7a c9bf ae84 fdbf b7e9 d8bf fe25 b8bf
000000a0: 9cd2 0fc0 c930 ebbf 8f07 74bf 04b0 21c0
000000b0: 4f4f 19c0 51be f1bf 3751 28bf 2cf2 24c0
000000c0: 9296 01c0 e96e 77bf 5582 a7bf 43db bfbf
000000d0: ea1c 34c0 6bea ebbf 9c60 f3be de0b 01c0
000000e0: cfc8 64c0 3f66 cfbf e9f7 2ec0 d11f 06c0
000000f0: f101 ddbf 2bb5 09c0 93ab 1bc0 a400 1bc0
00000100: 60fd 823e 50b7 b23f 2c44 6540 0bbb 2140
00000110: 2b37 4f40 ccb6 b63f 8852 273f 0124 c93f
00000120: 0698 3040 bfe1 2740 186e 933f e0f0 873f
00000130: c57f 5b3f d5fe 0e3f f7cb 8140 9820 b13f
00000140: a1e1 1f3f 5d4d a63f cd2a c93f e64c b13f
00000150: 7dd0 0540 e23a 1840 c674 123f 9342 6240
00000160: 5efd 1140 7591 0140 1233 f53f 7ce3 4840
00000170: 1244 603e 6589 e33f 1a76 4240 15dd 1440
00000180: 3a91 4040 c773 8f3f 46f1 463f 6422 41c0
00000190: 76ca d73f b26f f33f c508 c83f f789 c33f
000001a0: f838 f73f 42f3 c93f 7ef9 953e 6eb7 2b40
000001b0: 7b1d 1240 7b7f b73f d23b 183f fb6a 5040
000001c0: f4cb 1840 15b9 f13d c7ad a33f e9c4 943f
000001d0: 2119 4040 1cb4 d43f 3a47 7e3e dccd b83f
000001e0: 26ab 8e40 647a 5c3f e16b 0740 8c8e 0340
000001f0: d171 f03e 37ea 1440 5295 3e3f d15a f73f
00000200: f295 dc3e 8fb6 03bf 5ef7 3ebe b3ec 333e
00000210: c203 743e 2e77 52bf 3e1d ca3e 330d 433f
00000220: 575c af3e 7c64 6dbe dfc1 81bd abf5 893e
00000230: 9333 763e a2de c3be 8a29 4bbe ff54 28be
00000240: 06aa 423f 9799 7abd 5aed cf3c d9ce b73e
00000250: 0fbb dabe 6c6c fd3e 6728 6f3e 2e57 093c
00000260: 6d5e b63e f3c4 293f 712a a6be 33cb 7bbe
00000270: 0b1b 443f 371e 2abe 02e5 fcbd 5e7f b33b
00000280: 3853 a63e 509a 65be 3250 bc3e d63e ac3e
00000290: b373 643e 9d95 f0bd 4e35 85be 48a2 ec3d
000002a0: 0665 77be c743 903e 5264 ef3e 3934 5d3d
000002b0: 3749 a5be 2148 afbe 0ede 16bf 146a 433c
000002c0: e35d 993d 4c19 9abe 1d4e 3ebf 4460 7abe
000002d0: 8c5e 413e b226 e33e 4104 003f acab c5be
000002e0: 023d 08be c9a0 abbe b5da c93c b51b 9ebe
000002f0: e4db efbd 6c5f 81be a265 d5bd 4360 c23e
00000300: f616 e2bf 9871 b8bf fa29 68bf ab48 c3bf
00000310: b26d 19bf 9270 aebf 09e6 c6bf 53c9 e6bf
00000320: dc05 9cbf bed1 9fbf 6337 8abf 1d01 cebf
00000330: d723 04c0 4319 eabf 688d e2bf df73 85bf
00000340: 046b 40bf 74d6 a6bf 543e dfbf 0c85 82bf
00000350: 7176 00c0 4004 d2bf fd83 c4bf fcc2 a8bf
00000360: 551a 6bbf 7492 99bf 566b fabf 6569 bcbf
00000370: 8b10 86bf bfb0 aebf 9ef6 9dbf b937 a7bf
00000380: c35d 6ebf 3d1c 04c0 5b1b 12c0 7d3a 41bf
00000390: bc13 0ac0 b1ee cebf ac5e c3bf 82e5 6bbf
000003a0: 3731 adbf 34b8 97bf dd7f ccbf 406a dbbf
000003b0: 49a1 c9bf 2ade 00c0 6710 a5bf ba57 c1bf
000003c0: dd53 05c0 d6f4 08c0 3d09 a9bf b5eb f2bf
000003d0: 5122 b8bf 795e 9bbf 08c9 d7be 9853 d6bf
000003e0: bee3 aabf 8ec7 4abf fda6 aabf d715 0dc0
000003f0: fbcf 38bf 2a04 febf 703c c6bf 320c a1bf
-0.91425955 -1.8551751 -3.0377738 -2.2384448 -3.5459743 -1.2754236 -1.1408738 -2.2457216
-2.7862842 -2.4771907 -1.3782481 -2.099052 -1.993016 -1.0573866 -3.2049599 -2.1532154
-1.1811054 -1.9158992 -1.9098579 -1.5612136 -2.3195505 -2.8303063 -0.904385 -3.054534
-2.590023 -2.1986556 -1.7305179 -3.2590785 -1.4072661 -2.1621244 -2.536268 -2.4635584
-2.6723275 -1.9506539 -2.238836 -0.19922696 -1.5740445 -1.9806116 -1.6946324 -1.4386594
-2.2472296 -1.8374263 -0.95324033 -2.5263681 -2.3954656 -1.8886205 -0.65748924 -2.577281
-2.024815 -0.9665361 -1.3086649 -1.4988788 -2.8142648 -1.8430914 -0.47534645 -2.0163493
-3.5747564 -1.6203078 -2.7338812 -2.095692 -1.7266217 -2.1516826 -2.432347 -2.421914
0.25583935 1.3962193 3.582286 2.5270412 3.2377422 1.4274535 0.6536031 1.5714113
2.7592788 2.6231534 1.1517973 1.0620384 0.85741836 0.5585759 4.056148 1.3838072
0.6245366 1.2992359 1.5716187 1.3851593 2.09085 2.378594 0.5720943 3.5353134
2.2810893 2.024503 1.915621 3.1388845 0.21900967 1.7776304 3.0384583 2.3259938
3.008864 1.1207207 0.77711904 -3.017724 1.6858661 1.9018462 1.5627676 1.5276479
1.931426 1.5777361 0.2929191 2.6830707 2.2830493 1.4335779 0.5946628 3.2565296
2.3874483 0.1180288 1.2787408 1.1622592 3.0015337 1.6617465 0.24831858 1.4437823
4.458392 0.86124253 2.1159594 2.0555754 0.46961835 2.3267953 0.74446595 1.932459
0.4308315 -0.5145044 -0.1864905 0.17570762 0.23829558 -0.82213104 0.39475435 0.76192015
0.34250137 -0.23182863 -0.06335806 0.26945242 0.24043112 -0.38255793 -0.19840065 -0.16438673
0.76040685 -0.06118163 0.025381733 0.359 -0.4272084 0.49496782 0.23355256 0.008382602
0.35618916 0.66316146 -0.32454255 -0.24589233 0.76603764 -0.16613089 -0.12348367 0.00547783
0.32485366 -0.22422147 0.36779934 0.3364169 0.22309761 -0.117472865 -0.2601723 0.1155439
-0.24159631 0.2817671 0.46756226 0.05400488 -0.3228242 -0.34234717 -0.5893258 0.011927146
0.074886106 -0.30097425 -0.7433794 -0.24450785 0.18883723 0.4436546 0.5000649 -0.38607538
-0.13304523 -0.33521107 0.02464042 -0.30880514 -0.11711863 -0.25268114 -0.104197755 0.37964067
-1.7663257 -1.4409666 -0.9068905 -1.5256552 -0.59933007 -1.3628104 -1.5538951 -1.8030189
-1.2189288 -1.2485883 -1.0798153 -1.609409 -2.0646875 -1.8288959 -1.7699404 -1.0425986
-0.7516329 -1.3034196 -1.7440896 -1.0196853 -2.007229 -1.6407547 -1.535278 -1.3184505
-0.91837054 -1.1997819 -1.9564006 -1.4719664 -1.0473799 -1.3647689 -1.2340887 -1.306388
-0.9311182 -2.0642235 -2.2829196 -0.7547987 -2.1574545 -1.6166593 -1.5263267 -0.92147076
-1.3530644 -1.1853089 -1.5976521 -1.71418 -1.5752345 -2.0135598 -1.2895631 -1.5104897
-2.0832436 -2.1399436 -1.3205944 -1.8978182 -1.4385473 -1.2138206 -0.42145562 -1.6744261
-1.3350751 -0.79210746 -1.3332211 -2.204458 -0.72192353 -1.9845021 -1.5487194 -1.2581847

model_1/dense_2/MatMul1 i1 [32, 64] scale=0.042786494 zero_point=0
00000000: faf3 ffbd ff05 0be2 06ff 01fd c0fc 0fc5
00000010: 0adb f4d0 f91a 285e f30b 0213 10f3 2104
00000020: 1b30 fef8 0729 f615 eaf4 d8c9 d4ee 1237
00000030: 100f dbe5 2e19 fa2a 15db fb26 f3f3 ece7
00000040: 0dde d214 0503 e661 fde0 1306 ce0b d432
00000050: f61a c306 152c e1f5 f4ee f6e1 0326 e2ff
00000060: f3b8 f60a c9df fa02 2e2b d5d1 1f06 ef0a
00000070: 2e0f 0413 1703 09da f1fe 1ce2 efea c42c
00000080: fde9 0e93 f90a e02d 27d5 f8f0 0939 67f1
00000090: e7ff e9d2 d0c6 26fb 01f0 e5d4 f532 eb0c
000000a0: dfed 1702 2acf bbdd f90a 0fa7 09ce 02fc
000000b0: 2000 0018 15f3 fdec 06e0 edd1 ff1d 0d1d
000000c0: f4bc 1229 150a 0006 b0fa 0c49 c522 5120
000000d0: 1ec6 23f1 1ed0 20dd dcfe 3417 261a 2606
000000e0: ed23 ea00 0008 01ed 1502 fc2b 1edb 08d7
000000f0: f4f1 d8fa 25da f1ea eae3 f211 2128 f3e8
-0.25671896 -0.5562244 -0.042786494 -2.8666952 -0.042786494 0.21393247 0.47065145 -1.2835948
0.25671896 -0.042786494 0.042786494 -0.12835948 -2.7383356 -0.17114598 0.6417974 -2.524403
0.42786494 -1.5831003 -0.5134379 -2.0537517 -0.29950547 1.1124488 1.7114598 4.02193
-0.5562244 0.47065145 0.08557299 0.8129434 0.6845839 -0.5562244 1.4119543 0.17114598
1.1552353 2.0537517 -0.08557299 -0.34229195 0.29950547 1.7542462 -0.42786494 0.89851636
-0.9413029 -0.5134379 -1.7114598 -2.3532572 -1.8826058 -0.77015686 0.77015686 2.3532572
0.6845839 0.6417974 -1.5831003 -1.1552353 1.9681787 1.0696623 -0.25671896 1.7970327
0.89851636 -1.5831003 -0.21393247 1.6258868 -0.5562244 -0.5562244 -0.8557299 -1.0696623
0.5562244 -1.4547408 -1.9681787 0.8557299 0.21393247 0.12835948 -1.1124488 4.15029
-0.12835948 -1.3691678 0.8129434 0.25671896 -2.1393247 0.47065145 -1.8826058 2.1393247
-0.42786494 1.1124488 -2.609976 0.25671896 0.89851636 1.8826058 -1.3263813 -0.47065145
-0.5134379 -0.77015686 -0.42786494 -1.3263813 0.12835948 1.6258868 -1.2835948 -0.042786494
-0.5562244 -3.0806274 -0.42786494 0.42786494 -2.3532572 -1.4119543 -0.25671896 0.08557299
1.9681787 1.8398192 -1.8398192 -2.010965 1.3263813 0.25671896 -0.7273704 0.42786494
1.9681787 0.6417974 0.17114598 0.8129434 0.9840894 0.12835948 0.38507843 -1.6258868
-0.6417974 -0.08557299 1.1980219 -1.2835948 -0.7273704 -0.9413029 -2.5671897 1.8826058
-0.12835948 -0.9840894 0.59901094 -4.6637278 -0.29950547 0.42786494 -1.3691678 1.9253923
1.6686733 -1.8398192 -0.34229195 -0.6845839 0.38507843 2.4388301 4.4070086 -0.6417974
-1.0696623 -0.042786494 -0.9840894 -1.9681787 -2.0537517 -2.4816167 1.6258868 -0.21393247
0.042786494 -0.6845839 -1.1552353 -1.8826058 -0.47065145 2.1393247 -0.89851636 0.5134379
-1.4119543 -0.8129434 0.9840894 0.08557299 1.7970327 -2.0965383 -2.9522681 -1.4975272
-0.29950547 0.42786494 0.6417974 -3.807998 0.38507843 -2.1393247 0.08557299 -0.17114598
1.3691678 0.0 0.0 1.0268759 0.89851636 -0.5562244 -0.12835948 -0.8557299
0.25671896 -1.3691678 -0.8129434 -2.010965 -0.042786494 1.2408084 0.5562244 1.2408084
-0.5134379 -2.9094815 0.77015686 1.7542462 0.89851636 0.42786494 0.0 0.25671896
-3.4229195 -0.25671896 0.5134379 3.123414 -2.524403 1.4547408 3.465706 1.3691678
1.2835948 -2.4816167 1.4975272 -0.6417974 1.2835948 -2.0537517 1.3691678 -1.4975272
-1.5403137 -0.08557299 2.2248976 0.9840894 1.6258868 1.1124488 1.6258868 0.25671896
-0.8129434 1.4975272 -0.9413029 0.0 0.0 0.34229195 0.042786494 -0.8129434
0.89851636 0.08557299 -0.17114598 1.8398192 1.2835948 -1.5831003 0.34229195 -1.7542462
-0.5134379 -0.6417974 -1.7114598 -0.25671896 1.5831003 -1.6258868 -0.6417974 -0.9413029
-0.9413029 -1.2408084 -0.59901094 0.7273704 1.4119543 1.7114598 -0.5562244 -1.0268759

model_1/lstm_1/Read_2/ReadVariableOp1 f4 [256]
00000000: ea0c 6abf 6176 edbf e36a 42c0 ae42 0fc0
00000010: 3ef1 62c0 1541 a3bf 2708 92bf e7b9 0fc0
00000020: 7b52 32c0 4b8a 1ec0 6f6a b0bf de56 06c0
00000030: 261b ffbf 7258 87bf 101e 4dc0 48ce 09c0
00000040: 762e 97bf 2f3c f5bf 3976 f4bf d9d5 c7bf
00000050: 8473 14c0 bd23 35c0 c685 67bf 7c7d 43c0
00000060: f0c2 25c0 c6b6 0cc0 9c81 ddbf be94 50c0
00000070: 4c21 b4bf 3f60 0ac0 3752 22c0 f1aa 1dc0
00000080: 6a07 2bc0 07af f9bf 1749 0fc0 2702 4cbe
00000090: 4a7a c9bf ae84 fdbf b7e9 d8bf fe25 b8bf
000000a0: 9cd2 0fc0 c930 ebbf 8f07 74bf 04b0 21c0
000000b0: 4f4f 19c0 51be f1bf 3751 28bf 2cf2 24c0
000000c0: 9296 01c0 e96e 77bf 5582 a7bf 43db bfbf
000000d0: ea1c 34c0 6bea ebbf 9c60 f3be de0b 01c0
000000e0: cfc8 64c0 3f66 cfbf e9f7 2ec0 d11f 06c0
000000f0: f101 ddbf 2bb5 09c0 93ab 1bc0 a400 1bc0
00000100: 60fd 823e 50b7 b23f 2c44 6540 0bbb 2140
00000110: 2b37 4f40 ccb6 b63f 8852 273f 0124 c93f
00000120: 0698 3040 bfe1 2740 186e 933f e0f0 873f
00000130: c57f 5b3f d5fe 0e3f f7cb 8140 9820 b13f
00000140: a1e1 1f3f 5d4d a63f cd2a c93f e64c b13f
00000150: 7dd0 0540 e23a 1840 c674 123f 9342 6240
00000160: 5efd 1140 7591 0140 1233 f53f 7ce3 4840
00000170: 1244 603e 6589 e33f 1a76 4240 15dd 1440
00000180: 3a91 4040 c773 8f3f 46f1 463f 6422 41c0
00000190: 76ca d73f b26f f33f c508 c83f f789 c33f
000001a0: f838 f73f 42f3 c93f 7ef9 953e 6eb7 2b40
000001b0: 7b1d 1240 7b7f b73f d23b 183f fb6a 5040
000001c0: f4cb 1840 15b9 f13d c7ad a33f e9c4 943f
000001d0: 2119 4040 1cb4 d43f 3a47 7e3e dccd b83f
000001e0: 26ab 8e40 647a 5c3f e16b 0740 8c8e 0340
000001f0: d171 f03e 37ea 1440 5295 3e3f d15a f73f
00000200: f295 dc3e 8fb6 03bf 5ef7 3ebe b3ec 333e
00000210: c203 743e 2e77 52bf 3e1d ca3e 330d 433f
00000220: 575c af3e 7c64 6dbe dfc1 81bd abf5 893e
00000230: 9333 763e a2de c3be 8a29 4bbe ff54 28be
00000240: 06aa 423f 9799 7abd 5aed cf3c d9ce b73e
00000250: 0fbb dabe 6c6c fd3e 6728 6f3e 2e57 093c
00000260: 6d5e b63e f3c4 293f 712a a6be 33cb 7bbe
00000270: 0b1b 443f 371e 2abe 02e5 fcbd 5e7f b33b
00000280: 3853 a63e 509a 65be 3250 bc3e d63e ac3e
00000290: b373 643e 9d95 f0bd 4e35 85be 48a2 ec3d
000002a0: 0665 77be c743 903e 5264 ef3e 3934 5d3d
000002b0: 3749 a5be 2148 afbe 0ede 16bf 146a 433c
000002c0: e35d 993d 4c19 9abe 1d4e 3ebf 4460 7abe
000002d0: 8c5e 413e b226 e33e 4104 003f acab c5be
000002e0: 023d 08be c9a0 abbe b5da c93c b51b 9ebe
000002f0: e4db efbd 6c5f 81be a265 d5bd 4360 c23e
00000300: f616 e2bf 9871 b8bf fa29 68bf ab48 c3bf
00000310: b26d 19bf 9270 aebf 09e6 c6bf 53c9 e6bf
00000320: dc05 9cbf bed1 9fbf 6337 8abf 1d01 cebf
00000330: d723 04c0 4319 eabf 688d e2bf df73 85bf
00000340: 046b 40bf 74d6 a6bf 543e dfbf 0c85 82bf
00000350: 7176 00c0 4004 d2bf fd83 c4bf fcc2 a8bf
00000360: 551a 6bbf 7492 99bf 566b fabf 6569 bcbf
00000370: 8b10 86bf bfb0 aebf 9ef6 9dbf b937 a7bf
00000380: c35d 6ebf 3d1c 04c0 5b1b 12c0 7d3a 41bf
00000390: bc13 0ac0 b1ee cebf ac5e c3bf 82e5 6bbf
000003a0: 3731 adbf 34b8 97bf dd7f ccbf 406a dbbf
000003b0: 49a1 c9bf 2ade 00c0 6710 a5bf ba57 c1bf
000003c0: dd53 05c0 d6f4 08c0 3d09 a9bf b5eb f2bf
000003d0: 5122 b8bf 795e 9bbf 08c9 d7be 9853 d6bf
000003e0: bee3 aabf 8ec7 4abf fda6 aabf d715 0dc0
000003f0: fbcf 38bf 2a04 febf 703c c6bf 320c a1bf
-0.91425955 -1.8551751 -3.0377738 -2.2384448 -3.5459743 -1.2754236 -1.1408738 -2.2457216
-2.7862842 -2.4771907 -1.3782481 -2.099052 -1.993016 -1.0573866 -3.2049599 -2.1532154
-1.1811054 -1.9158992 -1.9098579 -1.5612136 -2.3195505 -2.8303063 -0.904385 -3.054534
-2.590023 -2.1986556 -1.7305179 -3.2590785 -1.4072661 -2.1621244 -2.536268 -2.4635584
-2.6723275 -1.9506539 -2.238836 -0.19922696 -1.5740445 -1.9806116 -1.6946324 -1.4386594
-2.2472296 -1.8374263 -0.95324033 -2.5263681 -2.3954656 -1.8886205 -0.65748924 -2.577281
-2.024815 -0.9665361 -1.3086649 -1.4988788 -2.8142648 -1.8430914 -0.47534645 -2.0163493
-3.5747564 -1.6203078 -2.7338812 -2.095692 -1.7266217 -2.1516826 -2.432347 -2.421914
0.25583935 1.3962193 3.582286 2.5270412 3.2377422 1.4274535 0.6536031 1.5714113
2.7592788 2.6231534 1.1517973 1.0620384 0.85741836 0.5585759 4.056148 1.3838072
0.6245366 1.2992359 1.5716187 1.3851593 2.09085 2.378594 0.5720943 3.5353134
2.2810893 2.024503 1.915621 3.1388845 0.21900967 1.7776304 3.0384583 2.3259938
3.008864 1.1207207 0.77711904 -3.017724 1.6858661 1.9018462 1.5627676 1.5276479
1.931426 1.5777361 0.2929191 2.6830707 2.2830493 1.4335779 0.5946628 3.2565296
2.3874483 0.1180288 1.2787408 1.1622592 3.0015337 1.6617465 0.24831858 1.4437823
4.458392 0.86124253 2.1159594 2.0555754 0.46961835 2.3267953 0.74446595 1.932459
0.4308315 -0.5145044 -0.1864905 0.17570762 0.23829558 -0.82213104 0.39475435 0.76192015
0.34250137 -0.23182863 -0.06335806 0.26945242 0.24043112 -0.38255793 -0.19840065 -0.16438673
0.76040685 -0.06118163 0.025381733 0.359 -0.4272084 0.49496782 0.23355256 0.008382602
0.35618916 0.66316146 -0.32454255 -0.24589233 0.76603764 -0.16613089 -0.12348367 0.00547783
0.32485366 -0.22422147 0.36779934 0.3364169 0.22309761 -0.117472865 -0.2601723 0.1155439
-0.24159631 0.2817671 0.46756226 0.05400488 -0.3228242 -0.34234717 -0.5893258 0.011927146
0.074886106 -0.30097425 -0.7433794 -0.24450785 0.18883723 0.4436546 0.5000649 -0.38607538
-0.13304523 -0.33521107 0.02464042 -0.30880514 -0.11711863 -0.25268114 -0.104197755 0.37964067
-1.7663257 -1.4409666 -0.9068905 -1.5256552 -0.59933007 -1.3628104 -1.5538951 -1.8030189
-1.2189288 -1.2485883 -1.0798153 -1.609409 -2.0646875 -1.8288959 -1.7699404 -1.0425986
-0.7516329 -1.3034196 -1.7440896 -1.0196853 -2.007229 -1.6407547 -1.535278 -1.3184505
-0.91837054 -1.1997819 -1.9564006 -1.4719664 -1.0473799 -1.3647689 -1.2340887 -1.306388
-0.9311182 -2.0642235 -2.2829196 -0.7547987 -2.1574545 -1.6166593 -1.5263267 -0.92147076
-1.3530644 -1.1853089 -1.5976521 -1.71418 -1.5752345 -2.0135598 -1.2895631 -1.5104897
-2.0832436 -2.1399436 -1.3205944 -1.8978182 -1.4385473 -1.2138206 -0.42145562 -1.6744261
-1.3350751 -0.79210746 -1.3332211 -2.204458 -0.72192353 -1.9845021 -1.5487194 -1.2581847

while/MatMul f4 [256, 1]
00000000: 3ad5 cabc 4487 79bd 36dd dbbd 2fb7 273c
00000010: f250 58be 57b2 123d f384 98be 2a12 963e
00000020: a162 b1bd 76b4 3abe 7b8f 7cbe 9877 f03d
00000030: 5acd 25bf e584 3cbd d078 ddbd 3e20 34bd
00000040: 9cdc 9c3e 4666 8c3e e5b0 b0be 898f 13be
00000050: f876 f53c 685f 643d 6869 0bbf 4c92 86bc
00000060: aa95 903d d67d 2d3d e255 79bf 416f 993d
00000070: 40a2 9ebd e114 afbc b93f 6c3d 83d6 e43d
00000080: 4ecd d3bd 900a a73c c747 c2bd 1bcd 2abe
00000090: 8ce9 e4bd 7a3c 573e 0e2a 02be 28e1 083e
000000a0: 9119 4b3e 0412 7dbd d90e 26bd 2a11 fa3d
000000b0: 3fdd 8b3e c874 9d3e 77ca 45be 650d 68bc
000000c0: 7909 3bbe 72f7 2dbf 4e46 083e 1c5f 4fbe
000000d0: 770b 283e 5913 753e 4084 b73d 0395 4cbd
000000e0: 13a1 003c 208b 913e f0d2 40bc ce98 ef3e
000000f0: fb83 7c3e d014 92be 9096 783e 5dfd 253e
00000100: 48b3 043f ee98 55be 541a 26be 6b4e 56bc
00000110: 6544 1abe d11f b83e 2be5 1b3f e076 b93e
00000120: 4513 403f 051e d73e 7986 8abe 4cb2 21bf
00000130: bc59 503f 352f 883f a862 48bd 79d4 2dbe
00000140: 303e 4dbf 16b7 5ebf cc05 703e 517e a3be
00000150: 1696 7ebe 9f4f e53d 6bdd 97bf 92ed ec3c
00000160: 66a0 a1bd a77b 49be 5d3e 2d3e 75a4 223e
00000170: ed67 56bd 0d41 f7be 9495 20be 37c3 323e
00000180: 6c84 143d 778b be3e 8d69 aebf 623a 91bf
00000190: 318f 093f a337 ecbe 931c f93e 6527 a93e
000001a0: ab9f f83d fd0b 573f 2e67 6cbf 59ab 08bf
000001b0: b5ce dabe 9ed7 493f 112f 493f 46f2 853e
000001c0: f3d2 27bf bf5a da3e 484b 973f ce56 05bf
000001d0: 0b89 1dbc 509b ddbb 65e5 d9be 2c6a 0cbd
000001e0: e860 00bf f317 c3be 259b 8e3e bad3 53bf
000001f0: 94d2 3bbf 7390 15bf 1625 37bf 5a44 56bf
00000200: f092 0f3d c747 bb3e c3ee 063d 352d 1ebf
00000210: b5d1 b8be ed89 8a3d 51ae a0be e5f1 57be
00000220: 71bc b2bd 4190 763e 0c6c 0dbe fd1f 1b3f
00000230: d246 503f a7ec 843e e0ff 13bf 8eb1 de3e
00000240: 034c 33bd 00fc 84bd c531 79be 5f29 1b3e
00000250: 50b1 093e 9b22 c73e 3b15 b3be 4afd aabe
00000260: 8720 0fbe fa99 0fbe dcb5 11be 0131 64be
00000270: 7926 27bf 1cd1 3c3e c46d df3d 688e 813e
00000280: 7a5a 673e cea6 153f 22fd 44bf e70b debe
00000290: 3f22 493f 0ecd 463e 6767 6f3e cec9 463d
000002a0: e20c d13e 46e6 9d3e bf1e b1be 7746 0a3f
000002b0: b27e 49be a8dc 303f eb23 ebbd dcee 9f3e
000002c0: 9104 1fbf a948 813f 362d 43bc cd3e 33bf
000002d0: ea8a e63e 73fe 47be 7489 703e 912f c83d
000002e0: 3805 16bf 0648 463e 0f56 a13e b73a 413f
000002f0: f39c 093e 7853 56bc da8b 183f 3a6a 0b3b
00000300: 7757 1abe 9a83 443e cda1 933e 9b52 debb
00000310: 2daa 403d b560 dfbe 43d7 173e f943 eabe
00000320: e9c3 a43e e773 873e 9118 323f 6837 163e
00000330: 62d9 6b3e 500b 6d3e 0407 d83b a777 ddbe
00000340: b673 26bf 454f c6be fb84 df3e 6b2c 513d
00000350: 1a6d c8bd d07c 94bc 8beb 8a3d 2367 013e
00000360: 96e4 81be 3f22 f63e 99ac d53e a6f4 bfbd
00000370: 734a 383f 01ab 6ebe f6e5 1dbe 74d2 58bf
00000380: e6ef 2c3e b747 f0bd 8456 143e 0a19 d53e
00000390: a161 be3e 8894 12bf 5fb7 b63e b293 86be
000003a0: 1f04 65bd 0ebd 2a3e 5b7b 923e 3d3c 943d
000003b0: dba9 e8be ad21 053e ad2f 8f3e a9cb 01be
000003c0: c591 183e 3261 e4be 4330 0f3e d38b 193e
000003d0: ea7c 4fbe 0f4d 08bf 4091 85bc 534b a63e
000003e0: 440a a23e 02ff 86be 95e9 f1ba c631 c4bc
000003f0: a506 c1be 03c8 c5bc 129e 22bf f510 5fbe
-0.024759877 -0.060920015 -0.10735552 0.0102365455 -0.21124628 0.03581461 -0.29788932 0.29310733
-0.0866139 -0.18232903 -0.24664108 0.11741561 -0.64766467 -0.046025176 -0.10814059 -0.04397606
0.30637062 0.27421778 -0.3450996 -0.14410223 0.029963955 0.05575505 -0.5445771 -0.016427182
0.07059796 0.042356335 -0.9739667 0.07491923 -0.077457905 -0.02137226 0.05767796 0.11173727
-0.10341893 0.020390779 -0.09486347 -0.16679804 -0.11177358 0.21019164 -0.12711355 0.1336714
0.19833972 -0.06178476 -0.040541504 0.12210305 0.27317235 0.3075316 -0.19315515 -0.01416335
-0.18265332 -0.67955697 0.13308069 -0.20251125 0.16410623 0.23933162 0.089607716 -0.049946796
0.007850903 0.28426456 -0.011769041 0.46796268 0.24659722 -0.28531504 0.24276185 0.16209932
0.5183606 -0.2085912 -0.16220981 -0.01308022 -0.15065153 0.35961774 0.6089656 0.36223507
0.750294 0.4201509 -0.2705572 -0.63162684 0.81386924 1.0639406 -0.04892221 -0.16975583
-0.80173016 -0.86998117 0.23439711 -0.3193231 -0.2486194 0.11196827 -1.1864446 0.028921876
-0.07891922 -0.19676076 0.16918321 0.15883048 -0.052345205 -0.48291817 -0.1568206 0.17457281
0.0362591 0.37215778 -1.3625962 -1.1345942 0.5373412 -0.46136197 0.48654613 0.33037868
0.12139829 0.8400267 -0.9234494 -0.53386456 -0.4273583 0.7884463 0.7858744 0.26161402
-0.6555626 0.4264736 1.1819849 -0.5208558 -0.009615193 -0.0067628995 -0.42557827 -0.03428094
-0.5014787 -0.3810421 0.2785274 -0.82744944 -0.7336819 -0.58423537 -0.71540964 -0.83698046
0.03505224 0.365782 0.032942545 -0.6178773 -0.36097494 0.067645885 -0.31382993 -0.21088369
-0.087273486 0.24078466 -0.13810748 0.60595685 0.81358063 0.259618 -0.5781231 0.43494838
-0.043773662 -0.06493378 -0.24335392 0.151525 0.13446546 0.3889359 -0.34977135 -0.3339637
-0.13977252 -0.14023581 -0.1422953 -0.22284319 -0.6529308 0.18439144 0.10909608 0.2530396
0.22593108 0.5845765 -0.7694875 -0.43368456 0.7856788 0.1941416 0.23379289 0.0485323
0.4083014 0.30839747 -0.3459377 0.5401377 -0.19677237 0.69086695 -0.1148146 0.31236923
-0.6211634 1.0100299 -0.011912635 -0.700177 0.45027858 -0.19530658 0.23489934 0.097746976
-0.58601713 0.19363412 0.3151097 0.75480217 0.13438778 -0.013081424 0.59588397 0.0021273033
-0.15072428 0.19190827 0.28834382 -0.0067847497 0.047037292 -0.4362847 0.1482821 -0.45754984
0.32180718 0.26455614 0.69568735 0.14669573 0.23032144 0.23148847 0.006592633 -0.4325535
-0.6502031 -0.38732353 0.43656144 0.05106775 -0.097864345 -0.018125921 0.067832075 0.12637
-0.2536971 0.48073003 0.41733244 -0.09372835 0.719886 -0.2330742 -0.15419754 -0.84696126
0.16888389 -0.117324285 0.14486128 0.41620666 0.3718386 -0.5725789 0.35686776 -0.26284558
-0.055912133 0.16673681 0.28609738 0.07238052 -0.4544209 0.13001128 0.2796606 -0.12675346
0.14899357 -0.44605404 0.13983254 0.14994745 -0.20262495 -0.5324258 -0.016304612 0.32479343
0.31648457 -0.2636643 -0.0018456454 -0.023949515 -0.37700382 -0.024143225 -0.63522446 -0.21783812

while/MatMul_1 i1 [256, 64] scale=0.060401604 zero_point=0
00000000: f803 040f 11f1 04f4 eef6 b713 0aee 10fc
00000010: 32d2 ec05 061a 041e fb26 10f9 1414 090b
00000020: f0f6 e02c 1834 e018 10dd 08f7 1a15 d5f7
00000030: 20f8 d324 f507 fe2d fce7 f506 1911 10e0
00000040: 16d7 e0f4 0c23 ece0 f7fc e807 14f5 050f
00000050: 1bfb 09e4 04f4 cc14 1ed0 cc08 ecf2 ce01
00000060: dc03 e525 0df0 02e6 fc1a 0811 e5fa 1c00
00000070: f9e8 0f17 fd14 001d 03fd ee11 0d15 20c2
00000080: fdcd 02ec f920 0708 fa1a 1422 00ea f0f0
00000090: f313 fdfb f7ed eef8 ecca e70d 2712 f9e5
000000a0: f3e3 ecf9 0316 fb13 fc0a 2801 ec15 f7df
000000b0: f6f8 db11 4416 f809 e8fc 1002 fdf4 07f7
000000c0: fa1d efee 0c1c fd12 0b09 fe04 09df fce9
000000d0: 0e18 e313 140a 06e5 fb02 efde f816 02ed
000000e0: ffe8 fd0d 370f 04fc 00ff 07fe ee14 fff1
000000f0: daf5 f5f3 14fb ec32 fa10 f618 d109 f5ea
-0.48321283 0.18120481 0.24160641 0.90602404 1.0268272 -0.90602404 0.24160641 -0.72481924
-1.0872289 -0.60401607 -4.409317 1.1476305 0.60401607 -1.0872289 0.96642566 -0.24160641
3.02008 -2.7784739 -1.2080321 0.30200803 0.36240962 1.5704417 0.24160641 1.8120481
-0.30200803 2.295261 0.96642566 -0.4228112 1.2080321 1.2080321 0.54361445 0.6644176
-0.96642566 -0.60401607 -1.9328513 2.6576705 1.4496385 3.1408834 -1.9328513 1.4496385
0.96642566 -2.114056 0.48321283 -0.54361445 1.5704417 1.2684337 -2.597269 -0.54361445
1.9328513 -0.48321283 -2.7180722 2.1744578 -0.6644176 0.4228112 -0.12080321 2.7180722
-0.24160641 -1.51004 -0.6644176 0.36240962 1.51004 1.0268272 0.96642566 -1.9328513
1.3288352 -2.4764657 -1.9328513 -0.72481924 0.72481924 2.114056 -1.2080321 -1.9328513
-0.54361445 -0.24160641 -1.4496385 0.4228112 1.2080321 -0.6644176 0.30200803 0.90602404
1.6308433 -0.30200803 0.54361445 -1.6912448 0.24160641 -0.72481924 -3.1408834 1.2080321
1.8120481 -2.899277 -3.1408834 0.48321283 -1.2080321 -0.8456224 -3.02008 0.060401604
-2.1744578 0.18120481 -1.6308433 2.2348592 0.78522086 -0.96642566 0.12080321 -1.5704417
-0.24160641 1.5704417 0.48321283 1.0268272 -1.6308433 -0.36240962 1.6912448 0.0
-0.4228112 -1.4496385 0.90602404 1.3892369 -0.18120481 1.2080321 0.0 1.7516465
0.18120481 -0.18120481 -1.0872289 1.0268272 0.78522086 1.2684337 1.9328513 -3.7448995
-0.18120481 -3.0804818 0.12080321 -1.2080321 -0.4228112 1.9328513 0.4228112 0.48321283
-0.36240962 1.5704417 1.2080321 2.0536544 0.0 -1.3288352 -0.96642566 -0.96642566
-0.78522086 1.1476305 -0.18120481 -0.30200803 -0.54361445 -1.1476305 -1.0872289 -0.48321283
-1.2080321 -3.2616866 -1.51004 0.78522086 2.3556626 1.0872289 -0.4228112 -1.6308433
-0.78522086 -1.7516465 -1.2080321 -0.4228112 0.18120481 1.3288352 -0.30200803 1.1476305
-0.24160641 0.60401607 2.4160643 0.060401604 -1.2080321 1.2684337 -0.54361445 -1.9932529
-0.60401607 -0.48321283 -2.2348592 1.0268272 4.107309 1.3288352 -0.48321283 0.54361445
-1.4496385 -0.24160641 0.96642566 0.12080321 -0.18120481 -0.72481924 0.4228112 -0.54361445
-0.36240962 1.7516465 -1.0268272 -1.0872289 0.72481924 1.6912448 -0.18120481 1.0872289
0.6644176 0.54361445 -0.12080321 0.24160641 0.54361445 -1.9932529 -0.24160641 -1.3892369
0.8456224 1.4496385 -1.7516465 1.1476305 1.2080321 0.60401607 0.36240962 -1.6308433
-0.30200803 0.12080321 -1.0268272 -2.0536544 -0.48321283 1.3288352 0.12080321 -1.1476305
-0.060401604 -1.4496385 -0.18120481 0.78522086 3.3220882 0.90602404 0.24160641 -0.24160641
0.0 -0.060401604 0.4228112 -0.12080321 -1.0872289 1.2080321 -0.060401604 -0.90602404
-2.295261 -0.6644176 -0.6644176 -0.78522086 1.2080321 -0.30200803 -1.2080321 3.02008
-0.36240962 0.96642566 -0.60401607 1.4496385 -2.8388753 0.54361445 -0.6644176 -1.3288352
