humun/assets/model.tflite (tflite, 88612 bytes, 7 tensors)

model_2/dense_7/MatMul;model_2/dense_7/BiasAdd f4 [16]
0.7635329 1.2573977 -0.70703983 -1.078922 -0.6077809 -0.59011674 -0.095378116 0.46871862
-0.92160475 0.48916683 -0.35912287 0.5978725 -0.5289728 -0.40734798 0.8043004 0.66770697
00000000: e476 433f 68f2 a03f 9000 35bf 1e1a 8abf
00000010: 8797 1bbf e411 17bf 9a55 c3bd e3fb ef3e
00000020: 4aee 6bbf 1374 fa3e f4de b7be 2c0e 193f
00000030: c36a 07bf ea8f d0be a2e6 4d3f d8ee 2a3f

model_2/lstm_4/Read_2/ReadVariableOp f4 [256]
-2.228435 -1.0005041 -1.3295648 -2.7499645 -1.9084566 -2.1535592 -2.041932 -2.5036204
-2.2496066 -1.9300759 -2.9137712 -1.7576494 -2.3948393 -1.8636765 -2.0897303 -2.382883
-0.8593887 -2.3965907 -2.7494643 -0.9991621 -0.99709547 -3.0586588 -0.82946265 -0.8525579
-1.2765831 -1.382342 -2.4709642 -3.1913986 -2.9787197 -2.387101 -2.1499043 -2.9369557
-2.5785096 -1.9966382 -2.7199996 -2.117683 -0.9059332 -3.1448114 -3.363059 -1.2325298
-3.3538997 -2.7436922 -2.136843 -1.2196821 -1.7648568 -1.1875516 -2.292648 -1.7411264
-1.4584188 -2.4813054 0.28687212 -2.892939 -1.7489628 -2.3306878 -0.65836805 -1.9514705
-1.3510464 -1.5724676 -2.1754355 -1.8210989 -1.869889 -1.5773638 -2.555593 -3.4873295
2.026987 0.8993844 1.3804098 2.0415378 1.7203362 1.449152 1.8851854 3.181344
2.507257 2.22784 2.916173 1.5795816 2.170564 1.7262678 -0.42498773 2.9463286
0.1642389 1.7108878 1.7781961 0.71006584 0.5990343 3.0202615 1.109104 0.7304285
1.1440916 1.169779 2.3899202 3.29221 4.105683 2.0366416 1.6393143 3.338955
1.2118478 1.1866245 3.9216561 2.560842 0.52478087 3.4593632 4.025432 0.3891319
3.6007068 2.2643619 1.5433238 1.116016 0.82845616 0.64834565 0.9423977 1.8183838
0.971525 2.5195394 -1.2416252 3.4188092 1.2890397 1.55304 -0.2553084 2.2827396
0.9810343 1.6134305 1.569749 1.195652 1.1084523 0.9288578 2.3298507 3.578791
0.005415212 0.3767516 -0.6354032 0.6355477 0.15007609 0.08544337 0.31747067 0.20809227
-0.15242426 -0.43334422 -0.08933815 -0.14388332 0.11419829 0.108175114 0.36412534 0.2544354
0.61654526 0.15128358 -0.08140493 0.2414767 0.3660279 -0.20556849 -0.68084735 -0.996116
-0.19579211 -0.14057964 -0.62517625 0.20058468 0.14404498 -0.23412992 0.11742813 0.281892
0.27227733 -0.04821084 0.2664504 -0.23808524 0.16703606 0.021346496 0.11929687 0.61416274
-0.120739 -0.11361987 0.43260112 -0.36117038 -0.36373654 0.8268193 -0.53687114 -0.23175342
-0.08247293 -0.01691127 -0.5249944 0.04790399 -0.377219 -0.035171747 -0.3061285 -0.39571422
-0.20012052 -0.04461889 -0.08903901 -0.13943604 -0.5223306 -0.074012935 -0.22937572 -0.20917726
-1.9624262 -1.8654808 -1.3828973 -0.9055801 -1.6828464 -1.7035669 -1.4125932 -2.490085
-1.0958637 -1.7670188 -1.1470319 -1.7141266 -1.15788 -1.6153815 -0.93875504 -1.6852992
-0.53996754 -1.059968 -1.1103997 -1.109883 -0.81802833 -1.0210832 -0.9905925 -0.9463499
-1.7563268 -1.5728105 -0.8833998 -0.84998554 -2.049475 -0.7364963 -1.9053651 -1.9511571
-1.4317045 -1.1363409 -1.772382 -1.4799281 -2.0646932 -1.2035935 -1.3080537 -1.1961943
-1.3132058 -1.5693607 -0.74672943 -2.0559146 -1.8407202 -1.0649792 -0.9457675 -1.7525165
-1.1478373 -1.5859782 0.07459126 -2.014735 -1.3859518 -1.774745 -1.4428817 -1.8236555
-1.1459653 -1.5892122 -1.7667664 -1.6648669 -1.483387 -1.3458154 -0.9674564 -1.1588748
00000000: ae9e 0ec0 8510 80bf 2e2f aabf 6bff 2fc0
00000010: 4e48 f4bf ead3 09c0 04af 02c0 513b 20c0
00000020: 8ef9 0fc0 ba0c f7bf 3a7b 3ac0 a8fa e0bf
00000030: 0c45 19c0 f48c eebf 24be 05c0 2881 18c0
00000040: e600 5cbf be61 19c0 39f7 2fc0 16c9 7fbf
00000050: a641 7fbf 11c1 43c0 aa57 54bf 3c41 5abf
00000060: 1367 a3bf 95f0 b0bf 4724 1ec0 e03f 4cc0
00000070: 58a3 3ec0 43c6 18c0 0898 09c0 15f7 3bc0
00000080: 4d06 25c0 d791 ffbf 7914 2ec0 1e88 07c0
00000090: 3deb 67bf 9744 49c0 5c3c 57c0 89c3 9dbf
000000a0: 4ba6 56c0 a798 2fc0 09c2 08c0 8b1e 9cbf
000000b0: d4e6 e1bf b101 98bf bfba 12c0 3bdd debf
000000c0: 78ad babf b5cd 1ec0 e7e0 923e ea25 39c0
000000d0: 03de dfbf fd29 15c0 cf8a 28bf c9c9 f9bf
000000e0: 17ef acbf 9e46 c9bf 563a 0bc0 c519 e9bf
000000f0: 8658 efbf 0fe7 c9bf d68e 23c0 6830 5fc0
00000100: 28ba 0140 0e3e 663f 45b1 b03f 8ea8 0240
00000110: fa33 dc3f d07d b93f c14d f13f 249b 4b40
00000120: e676 2040 ee94 0e40 94a2 3a40 bb2f ca3f
00000130: 85ea 0a40 58f6 dc3f fe97 d9be a690 3c40
00000140: 3e2e 283e 5ffe da3f ee9b e33f e0c6 353f
00000150: 505a 193f f74b 4140 1ff7 8d3f 5dfd 3a3f
00000160: 9871 923f 51bb 953f 74f4 1840 92b3 5240
00000170: c161 8340 5658 0240 0dd5 d13f 70b1 5540
00000180: d41d 9b3f 50e3 973f 6afc 7a40 d6e4 2340
00000190: 0a58 063f 3566 5d40 57d0 8040 4c3c c73e
000001a0: fb71 6640 4eeb 1040 a28b c53f 9dd9 8e3f
000001b0: b415 543f fbf9 253f fa40 713f cdc0 e83f
000001c0: ddb5 783f 2240 2140 93ed 9ebf c5cd 5a40
000001d0: 41ff a43f 04ca c63f c8b7 82be 6818 1240
000001e0: 1025 7b3f e484 ce3f 89ed c83f 200b 993f
000001f0: c4e1 8d3f a0c9 6d3f 461c 1540 e90a 6540
00000200: 1772 b13b 96e5 c03e c9a9 22bf 41b3 223f
00000210: 8cad 193e effc ae3d 848b a23e 2416 553e
00000220: 1b15 1cbe 4bdf ddbe ecf6 b6bd 2656 13be
00000230: cbe0 e93d ea8a dd3d a36e ba3e 5b45 823e
00000240: e9d5 1d3f 15ea 1a3e a1b7 a6bd ab45 773e
00000250: 0268 bb3e 8c80 52be 034c 2ebf 7501 7fbf
00000260: ba7d 48be 1cf4 0fbe 8d0b 20bf 1266 4d3e
00000270: 8780 133e c1bf 6fbe 297e f03d 2654 903e
00000280: ef67 8b3e bb78 45bd 306c 883e 9ecc 73be
00000290: 800b 2b3e d9de ae3c eb51 f43d c539 1d3f
000002a0: 0246 f7bd 89b1 e8bd e57d dd3e 53eb b8be
000002b0: ad3b babe 6eaa 533f 6370 09bf c550 6dbe
000002c0: 91e7 a8bd 8189 8abc 0866 06bf f936 443d
000002d0: d922 c1be 4010 10bd e0bc 9cbe 0e9b cabe
000002e0: 65ec 4cbe 4cc2 36bd 165a b6bd 52c8 0ebe
000002f0: 75b7 05bf 1894 97bd 78e1 6abe 9032 56be
00000300: c830 fbbf 13c8 eebf c702 b1bf 19d4 67bf
00000310: 8367 d7bf 7b0e dabf dbcf b4bf 8d5d 1fc0
00000320: 4345 8cbf ac2d e2bf f1d1 92bf 8068 dbbf
00000330: 6935 94bf d2c4 cebf 4052 70bf e2b7 d7bf
00000340: 503b 0abf 08ad 87bf 9421 8ebf a510 8ebf
00000350: 4e6a 51bf dbb2 82bf 7897 7dbf fd43 72bf
00000360: 51cf e0bf db51 c9bf 7d26 62bf a798 59bf
00000370: 992a 03c0 068b 3cbf 01e3 f3bf 84bf f9bf
00000380: 1842 b7bf 9e73 91bf 6add e2bf 496e bdbf
00000390: ef23 04c0 5a0f 9abf 4e6e a7bf e51c 99bf
000003a0: 2117 a8bf d0e0 c8bf a929 3fbf 1b94 03c0
000003b0: b89c ebbf 3d51 88bf d21d 72bf 7652 e0bf
000003c0: 55ec 92bf 5501 cbbf 4dc3 983d 6bf1 00c0
000003d0: de66 b1bf d82a e3bf 59b0 b8bf 8b6d e9bf
000003e0: feae 92bf 4e6b cbbf 6725 e2bf 5c1a d5bf
000003f0: a0df bdbf ae43 acbf 39ab 77bf 0256 94bf

model_2/dense_6/MatMul1 f4 [32, 64]
-2.1302123 -1.1944937 0.7449693 -1.3713787 1.7461504 0.5171957 1.9493636 0.41859177
-2.3267741 -0.69990915 1.2580655 -0.03909999 0.4752875 1.270924 0.31103963 -0.73117137
0.6713226 -0.36404637 1.355364 -0.20559655 -0.5552955 3.104174 -0.8976516 -0.40776312
1.8088833 0.79110694 0.032989886 -1.3696756 -0.9424801 -2.3828812 -1.6013442 2.4388
1.0395796 -1.6559298 -0.6102801 -0.8500042 0.13501751 -0.709033 -0.9630893 1.9374969
1.3588849 3.0693426 -2.2863178 -0.55857563 3.6465971 -0.816766 1.9414889 -0.48882368
0.39270422 -0.5397444 0.34336966 0.42434648 1.1225189 -4.2982616 -0.26492378 1.1425917
2.8607414 -0.8936252 0.24229847 1.1455071 -0.54103607 0.9348585 -0.8334389 -2.1424942
-0.403895 -0.63629603 0.06815523 0.138905 -0.11256154 0.25941676 1.3060133 2.1675472
-1.3728892 -2.0319178 1.4916968 1.1914362 0.42277035 -0.09574635 0.45656583 -1.546948
0.84864867 0.32414782 -0.5048725 -0.3071211 -0.9661266 2.5264657 0.0063480204 -0.3800063
0.7948197 0.89545697 0.7998918 -0.61395013 -1.7923175 0.85493916 -1.1212186 2.2860715
-0.12510343 -1.4643362 -3.0681891 -0.40035158 0.2090848 0.41413245 -0.886833 0.4326245
2.2687986 1.9926718 -0.379251 -0.6828542 1.389716 0.50983137 1.417412 1.1439987
-0.57472724 -0.8277606 -0.03342974 -1.6852744 -0.31136173 -2.2590075 -0.7684767 1.9640716
1.95247 -1.5378184 1.6264973 -0.021375615 1.9517847 -0.7247992 -2.6375415 -3.3844633
2.6336572 0.26368174 -0.1889062 0.98632956 -2.5027497 0.023734987 -2.7120583 1.66268
1.549324 -2.0438077 0.045501135 2.5394776 -2.0945728 0.49972874 0.2075769 2.2498817
0.061928518 0.7820308 -1.7691231 0.1276464 -0.498614 0.91796577 0.08771666 -0.79357594
-0.40893123 0.8320612 0.88566864 0.13559477 0.86478454 -0.4722989 -1.2689397 1.5197117
-1.1722206 -0.06728422 -0.9559537 -0.4706401 1.6411629 -0.16121374 0.3152662 -1.6513727
1.5768875 0.6123563 0.3341446 0.4468531 -1.0486135 0.48141098 -1.253914 1.5422533
-1.3170847 0.023833623 -0.5705322 -2.9944782 -1.2411001 -0.11927857 -0.21603185 0.31664392
-2.831353 -0.011877806 1.9818215 -0.5361774 -0.4086557 -0.06223955 2.507486 1.0237197
-1.4269744 0.4430588 1.2532142 1.8292885 1.8500378 -0.34490624 -0.7445159 -1.6075969
0.670558 -1.2026523 0.765102 1.6081043 -0.488642 1.8101541 -0.073383786 3.7024531
-1.1622889 -0.031924732 0.74016654 0.3705024 -0.3041158 0.7233191 -2.1061752 -0.044849515
-1.3765782 1.2699844 -0.6558815 1.3394852 2.4151528 3.2031593 -0.20226975 3.1143174
1.9062564 0.20282122 0.72823167 -1.5255039 0.13028367 1.4908822 -0.5786796 -0.557366
-0.6036708 -0.8409502 1.9116427 0.76929855 0.346553 0.8210004 -0.66207397 3.1463454
-1.5202907 -1.928244 0.5331107 0.9940874 1.0756294 0.32065216 -0.05341705 -0.506052
-0.9675583 2.7543733 0.034158356 -1.0202683 -0.33257622 -1.1437327 -2.1519427 -1.022639
00000000: 6655 08c0 2be5 98bf 4fb6 3e3f 5689 afbf
00000010: db81 df3f f066 043f bf84 f93f a951 d63e
00000020: dee9 14c0 3f2d 33bf 4a08 a13f 5027 20bd
00000030: e258 f33e a3ad a23f 9640 9f3e 0c2e 3bbf
00000040: ccdb 2b3f 4964 babe 917c ad3f e787 52be
00000050: d927 0ebf c9aa 4640 7fcc 65bf 54c6 d0be
00000060: 7d89 e73f fc85 4a3f 6720 073d 8851 afbf
00000070: 6046 71bf 2081 18c0 d9f8 ccbf 4d15 1c40
00000080: f210 853f 82f5 d3bf 513b 1cbf e099 59bf
00000090: 0842 0a3e 3083 35bf 058d 76bf e6ff f73f
000000a0: f1ef ad3f 1c70 4440 0853 12c0 d0fe 0ebf
000000b0: d961 6940 9417 51bf b582 f83f 1947 fabe
000000c0: 8710 c93e b02c 0abf 26ce af3e f143 d93e
000000d0: b3ae 8f3f 5c8b 89c0 17a4 87be 7240 923f
000000e0: 6316 3740 9fc4 64bf 171d 783e fa9f 923f
000000f0: 5781 0abf e352 6f3f 405c 55bf a01e 09c0
00000100: 53cb cebe 4ce4 22bf f894 8b3d 1d3d 0e3e
00000110: aa86 e6bd 46d2 843e 722b a73f 18b9 0a40
00000120: d5ba afbf f10a 02c0 ecef be3f fb80 983f
00000130: 5b75 d83e aa16 c4bd ffc2 e93e 6402 c6bf
00000140: 0a41 593f b4f6 a53e 533f 01bf fa3e 9dbe
00000150: 1354 77bf 9db1 2140 0e03 d03b 3090 c2be
00000160: 4e79 4b3f ab3c 653f b6c5 4c3f d62b 1dbf
00000170: a96a e5bf 4bdd 5a3f 1784 8fbf ff4e 1240
00000180: 1d1b 00be 5e6f bbbf 365d 44c0 e2fa ccbe
00000190: 531a 563e 2b09 d43e 7d07 63bf f580 dd3e
000001a0: ff33 1140 df0f ff3f 302d c2be 88cf 2ebf
000001b0: 37e2 b13f 4f84 023f c26d b53f 8d6e 923f
000001c0: 5321 13bf 1ee8 53bf a0ed 08bd 12b7 d7bf
000001d0: ce6a 9fbe 9493 10c0 e4ba 44bf b366 fb3f
000001e0: 89ea f93f 3cd7 c4bf 1031 d03f ea1b afbc
000001f0: 15d4 f93f 718c 39bf 7bcd 28c0 0c9b 58c0
00000200: d78d 2840 4b01 873e a070 41be 1880 7c3f
00000210: 0d2d 20c0 e06f c23c 5d92 2dc0 b3d2 d43f
00000220: 4050 c63f bfcd 02c0 665f 3a3d cd86 2240
00000230: 7b0d 06c0 72dc ff3e 0a8f 543e 10fe 0f40
00000240: c2a8 7d3d 2c33 483f a072 e2bf bdb5 023e
00000250: 564a ffbe ceff 6a3f cba4 b33d cb27 4bbf
00000260: 6f5f d1be f601 553f 2ebb 623f 5bd9 0a3e
00000270: 8562 5d3f 29d1 f1be 9e6c a2bf ea85 c23f
00000280: 530b 96bf 4fcc 89bd 62b9 74bf bdf7 f0be
00000290: a011 d23f 3715 25be 926a a13e 2e60 d3bf
000002a0: 73d7 c93f 62c3 1c3f 0015 ab3e eec9 e43e
000002b0: f838 86bf 807b f63e 4180 a0bf 8e68 c53f
000002c0: 3b96 a8bf bb3e c33c 660e 12bf 88a5 3fc0
000002d0: 5edc 9ebf 5348 f4bd 7437 5dbe 271f a23e
000002e0: e334 35c0 219b 42bc 54ac fd3f ec42 09bf
000002f0: 523b d1be e6ee 7ebd a77a 2040 3f09 833f
00000300: 19a7 b6bf 9ad8 e23e 5369 a03f 2026 ea3f
00000310: 0ace ec3f 8d97 b0be 9898 3ebf bcc5 cdbf
00000320: b0a9 2b3f 83f0 99bf badd 433f 5dd6 cd3f
00000330: 492f fabe 21b3 e73f 3d4a 96bd fef4 6c40
00000340: e2c5 94bf 82c3 02bd 8e7b 3d3f 7eb2 bd3e
00000350: 11b5 9bbe 712b 393f 93cb 06c0 20b4 37bd
00000360: b733 b0bf d98e a23f dae7 27bf 4074 ab3f
00000370: dd91 1a40 9000 4d40 cd1f 4fbe fa50 4740
00000380: 3600 f43f 5eb0 4f3e 646d 3a3f b643 c3bf
00000390: 1569 053e 3ad5 be3f 5924 14bf 8aaf 0ebf
000003a0: 2b8a 1abf 8348 57bf b5b0 f43f c0f0 443f
000003b0: 656f b13e 152d 523f ae7d 29bf b95d 4940
000003c0: e398 c2bf b3d0 f6bf f179 083f 837c 7e3f
000003d0: 39ae 893f 852c a43e d6cb 5abd a08c 01bf
000003e0: e7b1 77bf a747 3040 a2e9 0b3d 2798 82bf
000003f0: 6e47 aabe d565 92bf 6eb9 09c0 d6e5 82bf

model_2/dense_7/MatMul f4 [16, 32]
0.8501579 0.4873528 -0.6396015 -0.59155566 -0.51361346 -0.26166525 -0.95237 0.7865684
-0.5849078 -0.012329065 -0.42459065 0.35848317 -0.011061562 0.13337344 0.40928936 0.70300674
-1.3899574 -0.1452367 0.039250366 1.1735016 0.5685108 0.101239145 1.2164526 0.19879092
1.4080845 -0.010294262 0.30145383 0.68288654 -1.4343113 -0.69419 -0.5413095 1.7329448
-0.4850529 0.18281977 -0.02051104 1.2446691 1.396184 -1.1450143 -0.4640178 1.2172235
0.08668372 -0.27503583 0.8485367 0.19173191 0.17956239 0.37425363 0.6592588 -0.43987602
0.2884096 0.17354105 0.18216945 -1.0740311 0.39377487 -0.3777838 0.6821499 0.62067455
0.22562286 0.13536377 0.7800484 -0.071155235 0.50803137 -1.3864269 -1.207616 -1.2490449
0.44177815 0.09655797 0.17987332 1.3300958 0.9561836 1.3164191 -1.405322 -1.0265973
0.14447574 -0.7860551 0.01703442 -0.49308172 0.05058659 -0.12082157 0.0472935 1.035716
0.53850466 -0.26525182 -0.118623875 0.03820483 0.9414782 -0.58066 -1.406971 0.6156855
-0.907565 0.100965545 -0.42512268 1.0037161 0.94236577 -0.4343411 1.3059402 0.9157049
-1.1618714 -1.3301276 -0.3640041 0.63474965 0.264869 -0.7753566 -0.43525994 0.30035305
0.39345944 0.7788474 -0.04258453 0.99283046 -0.043766916 -0.08021984 -0.13932244 -1.1628369
0.91817296 0.0638305 0.19954845 -0.12052114 0.77131754 1.7996389 -0.40166453 -0.4170861
-0.131228 0.24394774 0.028659042 0.96693546 -1.4723248 0.8780128 -0.0020214245 -0.36571097
-0.18192741 0.844506 0.3093311 0.5670841 0.5464557 0.07597557 -0.09222727 -0.57210237
-0.894364 -0.88050336 -1.2739164 -0.3170658 -0.06580738 -0.200065 -0.0014174031 -1.0019114
-1.0642163 1.0348914 -1.2869536 -0.56175905 -1.8601123 -0.27599642 0.4274958 0.20739174
1.9195116 -0.024995038 -0.88190204 0.38352692 -0.66269684 1.0647545 0.01679641 -0.3028678
0.6571197 0.7847717 -0.078985415 -0.31907022 0.21326508 -0.86731637 1.2879947 -0.24062778
1.5722113 -0.40119964 0.40926903 1.1868781 0.1333687 0.16708249 0.109051935 0.73747605
-1.2376848 -0.037189364 -1.3781283 0.07943734 0.19120927 -0.5117978 -0.6449939 -0.08076661
-0.63142 0.051766198 1.0525951 0.12552306 -0.96653885 1.2998618 0.21326792 0.15050775
-1.0281688 -0.7182606 0.66933846 -0.33303466 -0.6730819 -0.29583305 0.60664433 -0.014078569
0.28855863 -0.7801554 -0.35707775 -0.4581107 -0.12587336 0.033066455 -0.5196657 0.05258703
0.800993 -2.4832556 1.5623802 0.9050608 -1.8801697 -0.6543603 -0.30112416 -0.41301438
-0.15474725 -0.31510743 -0.6677433 0.58453935 0.27309364 -0.45970592 -0.23582335 -1.8901478
0.44811714 1.1781553 0.204396 0.3822535 -0.9252198 0.65912694 0.04763953 -0.114825115
1.0478992 1.2332195 -0.488609 -0.16950761 -0.054878246 0.06734371 0.059914634 -1.2765821
0.21052738 -1.2350684 0.7039299 -0.48870263 -0.9522014 0.46092668 0.88107055 0.618448
-1.2673572 -0.08535314 -0.67623174 -0.76279587 0.6431188 0.016336685 0.22546896 1.8284252
00000000: f3a3 593f 4e86 f93e edbc 23bf 3170 17bf
00000010: 2c7c 03bf fdf8 85be 85ce 73bf 8c5c 493f
00000020: 85bc 15bf d9ff 49bc f263 d9be 1b8b b73e
00000030: 8e3b 35bc 0c93 083e 608e d13e 40f8 333f
00000040: 20ea b1bf eeb8 14be fec4 203d 4d35 963f
00000050: ec89 113f 7856 cf3d b8b4 9b3f d98f 4b3e
00000060: 1d3c b43f 44a9 28bc 2858 9a3e a7d1 2e3f
00000070: 8397 b7bf 70b6 31bf 4293 0abf 23d1 dd3f
00000080: db58 f8be 1b35 3b3e c506 a8bc 5151 9f3f
00000090: 28b6 b23f d48f 92bf be93 edbe fbcd 9b3f
000000a0: 3c87 b13d 7fd1 8cbe b339 593f 5f55 443e
000000b0: 34df 373e 2c9e bf3e 2fc5 283f 6e37 e1be
000000c0: 6caa 933e bfb4 313e a18a 3a3e da79 89bf
000000d0: dc9c c93e e16c c1be 60a1 2e3f 87e4 1e3f
000000e0: ae09 673e cd9c 0a3e 40b1 473f d6b9 91bd
000000f0: 580e 023f 7076 b1bf 2993 9abf b4e0 9fbf
00000100: bf30 e23e 2fc0 c53d b630 383e 9440 aa3f
00000110: 73c8 743f 6c80 a83f 97e1 b3bf 8a67 83bf
00000120: 73f1 133e e83a 49bf c58b 8b3c 3575 fcbe
00000130: e233 4f3d 4d71 f7bd d4b6 413d 5892 843f
00000140: 71db 093f 16cf 87be 13f1 f2bd ab7c 1c3d
00000150: b704 713f 22a6 14bf a017 b4bf 919d 1d3f
00000160: 2e56 68bf 06c7 ce3d aea9 d9be c579 803f
00000170: e23e 713f f561 debe 0c29 a73f a36b 6a3f
00000180: 34b8 94bf 9f41 aabf bf5e babe f47e 223f
00000190: e99c 873e c57d 46bf 64da debe e0c7 993e
000001a0: 8473 c93e 8b62 473f 1e6d 2ebd 232a 7e3f
000001b0: f044 33bd 4d4a a4bd 8baa 0ebe d7d7 94bf
000001c0: 620d 6b3f 91b9 823d 6e56 4c3e cad3 f6bd
000001d0: 1175 453f 915a e63f f9a6 cdbe 4f8c d5be
000001e0: a260 06be 70cd 793e 5ec6 ea3c 1589 773f
000001f0: 2475 bcbf 72c5 603f e079 04bb 783e bbbe
00000200: 2e4b 3abe 8c31 583f a560 9e3e 6c2c 113f
00000210: 85e4 0b3f 1499 9b3d a7e1 bcbd 4d75 12bf
00000220: 0af5 64bf ab68 61bf b10f a3bf 7356 a2be
00000230: 05c6 86bd d7dd 4cbe 28c8 b9ba a23e 80bf
00000240: 3d38 88bf 5277 843f e5ba a4bf 71cf 0fbf
00000250: 2918 eebf 674f 8dbe bbe0 da3e 805e 543e
00000260: 8eb2 f53f 65c2 ccbc 55c4 61bf a45d c43e
00000270: 80a6 29bf e049 883f a098 893c 7d11 9bbe
00000280: ff38 283f cce6 483f 1bc3 a1bd 2c5d a3be
00000290: 2962 5a3e 7208 5ebf 03dd a43f 2167 76be
000002a0: 383e c93f 0a6a cdbe b68b d13e 9feb 973f
000002b0: ce91 083e ac17 2b3e 9f56 df3d 3bcb 3c3f
000002c0: 756c 9ebf e053 18bd 8266 b0bf 0bb0 a23d
000002d0: 5dcc 433e 2e05 03bf 521e 25bf f768 a5bd
000002e0: bea4 21bf cb08 543d 70bb 863f 1e89 003e
000002f0: 176f 77bf df61 a63f e862 5a3e b41e 1a3e
00000300: 099b 83bf eddf 37bf c459 2b3f 8583 aabe
00000310: 184f 2cbf 6e77 97be 0b4d 1b3f cca9 66bc
00000320: f5bd 933e 44b8 47bf e5d2 b6be 7c8d eabe
00000330: f2e4 00be b170 073d d008 05bf 7f65 573d
00000340: e10d 4d3f a9ed 1ec0 13fc c73f 11b2 673f
00000350: 67a9 f0bf 2884 27bf f22c 9abe 9f76 d3be
00000360: 1076 1ebe c355 a1be 3af1 2abf 5fa4 153f
00000370: eed2 8b3e 935e ebbe ad7b 71be 5df0 f1bf
00000380: 9c6f e53e cbcd 963f 2f4d 513e bbb6 c33e
00000390: 34db 6cbf 8bbc 283f ab21 433d 6e29 ebbd
000003a0: 9021 863f 23da 9d3f f52a fabe 6793 2dbe
000003b0: 03c8 60bd 80eb 893d 0c69 753d 0b67 a3bf
000003c0: 7d94 573e b916 9ebf c034 343f 3b37 fabe
000003d0: 79c3 73bf 95fe eb3e d78d 613f 9c52 1e3f
000003e0: c338 a2bf a1cd aebd 861d 2dbf 9746 43bf
000003f0: 6fa3 243f 83d4 853c 56e1 663e d609 ea3f

model_2/lstm_4/Read_2/ReadVariableOp1 f4 [256]
-2.228435 -1.0005041 -1.3295648 -2.7499645 -1.9084566 -2.1535592 -2.041932 -2.5036204
-2.2496066 -1.9300759 -2.9137712 -1.7576494 -2.3948393 -1.8636765 -2.0897303 -2.382883
-0.8593887 -2.3965907 -2.7494643 -0.9991621 -0.99709547 -3.0586588 -0.82946265 -0.8525579
-1.2765831 -1.382342 -2.4709642 -3.1913986 -2.9787197 -2.387101 -2.1499043 -2.9369557
-2.5785096 -1.9966382 -2.7199996 -2.117683 -0.9059332 -3.1448114 -3.363059 -1.2325298
-3.3538997 -2.7436922 -2.136843 -1.2196821 -1.7648568 -1.1875516 -2.292648 -1.7411264
-1.4584188 -2.4813054 0.28687212 -2.892939 -1.7489628 -2.3306878 -0.65836805 -1.9514705
-1.3510464 -1.5724676 -2.1754355 -1.8210989 -1.869889 -1.5773638 -2.555593 -3.4873295
2.026987 0.8993844 1.3804098 2.0415378 1.7203362 1.449152 1.8851854 3.181344
2.507257 2.22784 2.916173 1.5795816 2.170564 1.7262678 -0.42498773 2.9463286
0.1642389 1.7108878 1.7781961 0.71006584 0.5990343 3.0202615 1.109104 0.7304285
1.1440916 1.169779 2.3899202 3.29221 4.105683 2.0366416 1.6393143 3.338955
1.2118478 1.1866245 3.9216561 2.560842 0.52478087 3.4593632 4.025432 0.3891319
3.6007068 2.2643619 1.5433238 1.116016 0.82845616 0.64834565 0.9423977 1.8183838
0.971525 2.5195394 -1.2416252 3.4188092 1.2890397 1.55304 -0.2553084 2.2827396
0.9810343 1.6134305 1.569749 1.195652 1.1084523 0.9288578 2.3298507 3.578791
0.005415212 0.3767516 -0.6354032 0.6355477 0.15007609 0.08544337 0.31747067 0.20809227
-0.15242426 -0.43334422 -0.08933815 -0.14388332 0.11419829 0.108175114 0.36412534 0.2544354
0.61654526 0.15128358 -0.08140493 0.2414767 0.3660279 -0.20556849 -0.68084735 -0.996116
-0.19579211 -0.14057964 -0.62517625 0.20058468 0.14404498 -0.23412992 0.11742813 0.281892
0.27227733 -0.04821084 0.2664504 -0.23808524 0.16703606 0.021346496 0.11929687 0.61416274
-0.120739 -0.11361987 0.43260112 -0.36117038 -0.36373654 0.8268193 -0.53687114 -0.23175342
-0.08247293 -0.01691127 -0.5249944 0.04790399 -0.377219 -0.035171747 -0.3061285 -0.39571422
-0.20012052 -0.04461889 -0.08903901 -0.13943604 -0.5223306 -0.074012935 -0.22937572 -0.20917726
-1.9624262 -1.8654808 -1.3828973 -0.9055801 -1.6828464 -1.7035669 -1.4125932 -2.490085
-1.0958637 -1.7670188 -1.1470319 -1.7141266 -1.15788 -1.6153815 -0.93875504 -1.6852992
-0.53996754 -1.059968 -1.1103997 -1.109883 -0.81802833 -1.0210832 -0.9905925 -0.9463499
-1.7563268 -1.5728105 -0.8833998 -0.84998554 -2.049475 -0.7364963 -1.9053651 -1.9511571
-1.4317045 -1.1363409 -1.772382 -1.4799281 -2.0646932 -1.2035935 -1.3080537 -1.1961943
-1.3132058 -1.5693607 -0.74672943 -2.0559146 -1.8407202 -1.0649792 -0.9457675 -1.7525165
-1.1478373 -1.5859782 0.07459126 -2.014735 -1.3859518 -1.774745 -1.4428817 -1.8236555
-1.1459653 -1.5892122 -1.7667664 -1.6648669 -1.483387 -1.3458154 -0.9674564 -1.1588748
00000000: ae9e 0ec0 8510 80bf 2e2f aabf 6bff 2fc0
00000010: 4e48 f4bf ead3 09c0 04af 02c0 513b 20c0
00000020: 8ef9 0fc0 ba0c f7bf 3a7b 3ac0 a8fa e0bf
00000030: 0c45 19c0 f48c eebf 24be 05c0 2881 18c0
00000040: e600 5cbf be61 19c0 39f7 2fc0 16c9 7fbf
00000050: a641 7fbf 11c1 43c0 aa57 54bf 3c41 5abf
00000060: 1367 a3bf 95f0 b0bf 4724 1ec0 e03f 4cc0
00000070: 58a3 3ec0 43c6 18c0 0898 09c0 15f7 3bc0
00000080: 4d06 25c0 d791 ffbf 7914 2ec0 1e88 07c0
00000090: 3deb 67bf 9744 49c0 5c3c 57c0 89c3 9dbf
000000a0: 4ba6 56c0 a798 2fc0 09c2 08c0 8b1e 9cbf
000000b0: d4e6 e1bf b101 98bf bfba 12c0 3bdd debf
000000c0: 78ad babf b5cd 1ec0 e7e0 923e ea25 39c0
000000d0: 03de dfbf fd29 15c0 cf8a 28bf c9c9 f9bf
000000e0: 17ef acbf 9e46 c9bf 563a 0bc0 c519 e9bf
000000f0: 8658 efbf 0fe7 c9bf d68e 23c0 6830 5fc0
00000100: 28ba 0140 0e3e 663f 45b1 b03f 8ea8 0240
00000110: fa33 dc3f d07d b93f c14d f13f 249b 4b40
00000120: e676 2040 ee94 0e40 94a2 3a40 bb2f ca3f
00000130: 85ea 0a40 58f6 dc3f fe97 d9be a690 3c40
00000140: 3e2e 283e 5ffe da3f ee9b e33f e0c6 353f
00000150: 505a 193f f74b 4140 1ff7 8d3f 5dfd 3a3f
00000160: 9871 923f 51bb 953f 74f4 1840 92b3 5240
00000170: c161 8340 5658 0240 0dd5 d13f 70b1 5540
00000180: d41d 9b3f 50e3 973f 6afc 7a40 d6e4 2340
00000190: 0a58 063f 3566 5d40 57d0 8040 4c3c c73e
000001a0: fb71 6640 4eeb 1040 a28b c53f 9dd9 8e3f
000001b0: b415 543f fbf9 253f fa40 713f cdc0 e83f
000001c0: ddb5 783f 2240 2140 93ed 9ebf c5cd 5a40
000001d0: 41ff a43f 04ca c63f c8b7 82be 6818 1240
000001e0: 1025 7b3f e484 ce3f 89ed c83f 200b 993f
000001f0: c4e1 8d3f a0c9 6d3f 461c 1540 e90a 6540
00000200: 1772 b13b 96e5 c03e c9a9 22bf 41b3 223f
00000210: 8cad 193e effc ae3d 848b a23e 2416 553e
00000220: 1b15 1cbe 4bdf ddbe ecf6 b6bd 2656 13be
00000230: cbe0 e93d ea8a dd3d a36e ba3e 5b45 823e
00000240: e9d5 1d3f 15ea 1a3e a1b7 a6bd ab45 773e
00000250: 0268 bb3e 8c80 52be 034c 2ebf 7501 7fbf
00000260: ba7d 48be 1cf4 0fbe 8d0b 20bf 1266 4d3e
00000270: 8780 133e c1bf 6fbe 297e f03d 2654 903e
00000280: ef67 8b3e bb78 45bd 306c 883e 9ecc 73be
00000290: 800b 2b3e d9de ae3c eb51 f43d c539 1d3f
000002a0: 0246 f7bd 89b1 e8bd e57d dd3e 53eb b8be
000002b0: ad3b babe 6eaa 533f 6370 09bf c550 6dbe
000002c0: 91e7 a8bd 8189 8abc 0866 06bf f936 443d
000002d0: d922 c1be 4010 10bd e0bc 9cbe 0e9b cabe
000002e0: 65ec 4cbe 4cc2 36bd 165a b6bd 52c8 0ebe
000002f0: 75b7 05bf 1894 97bd 78e1 6abe 9032 56be
00000300: c830 fbbf 13c8 eebf c702 b1bf 19d4 67bf
00000310: 8367 d7bf 7b0e dabf dbcf b4bf 8d5d 1fc0
00000320: 4345 8cbf ac2d e2bf f1d1 92bf 8068 dbbf
00000330: 6935 94bf d2c4 cebf 4052 70bf e2b7 d7bf
00000340: 503b 0abf 08ad 87bf 9421 8ebf a510 8ebf
00000350: 4e6a 51bf dbb2 82bf 7897 7dbf fd43 72bf
00000360: 51cf e0bf db51 c9bf 7d26 62bf a798 59bf
00000370: 992a 03c0 068b 3cbf 01e3 f3bf 84bf f9bf
00000380: 1842 b7bf 9e73 91bf 6add e2bf 496e bdbf
00000390: ef23 04c0 5a0f 9abf 4e6e a7bf e51c 99bf
000003a0: 2117 a8bf d0e0 c8bf a929 3fbf 1b94 03c0
000003b0: b89c ebbf 3d51 88bf d21d 72bf 7652 e0bf
000003c0: 55ec 92bf 5501 cbbf 4dc3 983d 6bf1 00c0
000003d0: de66 b1bf d82a e3bf 59b0 b8bf 8b6d e9bf
000003e0: feae 92bf 4e6b cbbf 6725 e2bf 5c1a d5bf
000003f0: a0df bdbf ae43 acbf 39ab 77bf 0256 94bf

while/MatMul_1 f4 [256, 64]
-0.28350928 3.000236 -0.060595676 -0.59768015 1.8473265 0.8504642 -1.4157861 2.9116266
-1.3092284 -0.15955576 -0.50922436 0.7299957 0.3609282 1.62486 1.1212925 0.19975044
-2.5738087 -4.069949 0.028209023 1.4109749 0.8605349 -2.01687 0.6034712 2.1593356
0.39514247 0.92356807 -0.4904874 1.2260981 0.26429024 1.8690356 -2.6986065 0.36113343
2.6793396 -0.69770366 1.6376779 -2.5366614 -1.0217019 -0.99012506 -1.8684311 -1.548692
0.42232585 0.015076434 -0.87882626 -0.57960016 3.3414965 -0.087639704 2.6981394 1.31429
-0.40242928 -1.2330129 -1.3103056 -1.05047 2.4509592 0.5863599 2.1229753 2.0189178
-1.486117 -2.9998028 -1.840572 -0.07435493 1.5066675 1.6872438 1.5416745 -0.005644232
-2.3249407 0.8408695 2.3534873 -1.0258778 2.0104897 1.5866615 0.2932493 0.57111394
-3.3154137 0.68146414 0.26298454 1.398057 0.8316616 -3.1152806 -2.0077589 -0.8357404
3.0298927 -3.0687566 -1.6423149 2.715364 -1.2685099 -3.33005 2.642053 0.18544987
-0.4834407 0.7829832 0.044346828 2.4944162 0.42851722 -2.4354792 -0.8870217 -2.367476
0.8444636 -0.007343692 0.46625212 -1.5725092 -0.8801384 0.8942007 1.3289138 1.2344865
-1.0465293 -1.0393162 0.2541588 1.99387 0.38162985 -1.1904905 -0.8224268 0.4965715
-1.7925783 -1.8233013 -0.61104417 2.1739743 0.3994513 -0.8306788 -1.9465051 3.0409184
0.18665385 -2.2874026 0.44820917 -0.5809723 -0.8519661 -1.0371941 0.27255133 -1.6281173
-0.48233387 0.2997411 -2.0076542 -0.71952134 1.6394029 -1.0789279 0.71118987 -0.460415
0.19040282 -0.11466593 1.0603012 -0.6847839 0.61605054 1.7944736 0.77677244 -0.19075081
-0.9317077 -0.994418 0.43007046 -1.3611627 -3.1053398 -0.23959617 -0.69361854 0.04247649
-0.41381603 -0.97170734 0.29989624 0.6291322 -0.16081835 0.47353575 -0.84485763 -0.4446138
0.99457383 0.12911212 -2.2825665 1.9472275 -3.777556 1.06746 -0.88223356 -1.7249914
0.020717528 1.5090523 1.4424344 1.7614721 0.946768 -0.37151244 -0.16838764 0.084055774
-1.7752465 -0.9190045 2.550406 0.83551687 0.5819701 -0.09774932 -0.25253487 0.42193535
-0.6500015 -0.6430403 1.8535895 2.2959924 1.5699917 -0.39787564 0.44482836 -0.050695147
-2.5232277 0.7365587 -0.62905085 -1.5329721 1.7786778 -1.0881218 0.29768473 4.237162
1.8973163 -0.4215345 -1.3699387 0.14129917 -1.654179 -0.26004222 -1.0284089 -0.8166066
1.8719536 -0.033493347 -2.7099407 1.6376039 -1.0826479 -2.3418386 -0.6584664 -0.6850596
0.7970476 -2.1682234 -0.15283912 1.74031 -0.61764127 3.2328572 -0.89938325 -1.3756381
2.6518183 -1.0684203 1.0293905 -0.37512833 -1.3445513 -1.0465028 0.022578575 0.41786215
-0.9149255 1.7782493 -1.4701248 -2.6239042 -1.297718 -0.456982 0.5830382 1.76981
0.605801 0.54223204 -0.42458168 2.4049718 0.03593053 0.89695156 0.4112553 -1.2654234
-2.3609142 -1.0067073 1.014065 -0.13223004 -0.13354565 -0.28797302 0.5045407 0.8399423
00000000: 2128 91be de03 4040 2c33 78bd 9101 19bf
00000010: 3275 ec3f 06b8 593f 7b38 b5bf 1758 3a40
00000020: cc94 a7bf 9662 23be 875c 02bf 00e1 3a3f
00000030: 95cb b83e 6afb cf3f 8386 8f3f 618b 4c3e
00000040: 48b9 24c0 063d 82c0 9c16 e73c d39a b43f
00000050: 044c 5c3f 6614 01c0 177d 1a3f 8e32 0a40
00000060: 1d50 ca3e f56e 6c3f 2a21 fbbe c8f0 9c3f
00000070: 0d51 873e 8f3c ef3f f8b5 2cc0 7be6 b83e
00000080: 4d7a 2b40 b59c 32bf 6e9f d13f a958 22c0
00000090: 21c7 82bf d678 7dbf c028 efbf 8a3b c6bf
000000a0: 183b d83e 2603 773c c2fa 60bf ad60 14bf
000000b0: 14db 5540 727c b3bd 51ae 2c40 a83a a83f
000000c0: 360b cebe 5ed3 9dbf 18b8 a7bf cd75 86bf
000000d0: 84dc 1c40 af1b 163f d4de 0740 f335 0140
000000e0: 1539 bebf c5fc 3fc0 dd97 ebbf 6647 98bd
000000f0: 7bda c03f 9bf7 d73f 9755 c53f 40f3 b8bb
00000100: d4cb 14c0 3943 573f 899f 1640 f74f 83bf
00000110: ddab 0040 b917 cb3f c624 963e 8634 123f
00000120: bd2f 54c0 6f74 2e3f e9a5 863e 88f3 b23f
00000130: c6e7 543f c260 47c0 1f7f 00c0 15f3 55bf
00000140: c3e9 4140 8266 44c0 6037 d2bf 86c8 2d40
00000150: 885e a2bf 8a1f 55c0 6517 2940 92e6 3d3e
00000160: 8a85 f7be 9671 483f 05a5 353d 84a4 1f40
00000170: 9c66 db3e e4de 1bc0 db13 63bf ba84 17c0
00000180: c42e 583f 5aa3 f0bb 99b8 ee3e fb47 c9bf
00000190: c050 61bf 56ea 643f d919 aa3f a703 9e3f
000001a0: acf4 85bf 5008 85bf 1a21 823e 2237 ff3f
000001b0: fd64 c33e fe61 98bf 908a 52bf 9f3e fe3e
000001c0: 3573 e5bf f061 e9bf 646d 1cbf 6522 0b40
000001d0: e184 cc3e 5ea7 54bf 1427 f9bf 689e 4240
000001e0: 3022 3f3e ce64 12c0 ac7b e53e 9aba 14bf
000001f0: 731a 5abf c7c2 84bf d98b 8b3e 2666 d0bf
00000200: 77f4 f6be aa77 993e 687d 00c0 8d32 38bf
00000210: f4d7 d13f 4f1a 8abf 8a10 363f 84bb ebbe
00000220: f5f8 423e f9d5 eabd f3b7 873f ff4d 2fbf
00000230: 7db5 1d3f 50b1 e53f 8fda 463f 2e54 43be
00000240: 6584 6ebf 2e92 7ebf 3232 dc3e 943a aebf
00000250: e3bd 46c0 b358 75be fc90 31bf d4fb 2d3d
00000260: b2df d3be d0c1 78bf 008c 993e cf0e 213f
00000270: 91ad 24be 4773 f23e 9748 58bf 6ca4 e3be
00000280: 649c 7e3f f835 043e 9215 12c0 c03e f93f
00000290: 7ac3 71c0 87a2 883f 0fda 61bf 85cc dcbf
000002a0: ceb7 a93c a028 c13f b1a1 b83f eb77 e13f
000002b0: 635f 723f e136 bebe cf6d 2cbe 6f25 ac3d
000002c0: 473b e3bf e143 6bbf da39 2340 6fe4 553f
000002d0: fefb 143f cc30 c8bd 404c 81be e907 d83e
000002e0: 8066 26bf 4a9e 24bf 6c42 ed3f 8af1 1240
000002f0: 7df5 c83f 5bb6 cbbe 8bc0 e33e b7a5 4fbd
00000300: 907c 21c0 1c8f 3c3f 7a09 21bf 6e38 c4bf
00000310: b7ab e33f 9347 8bbf 226a 983e d596 8740
00000320: 43db f23f 5fd3 d7be 275a afbf bbb0 103e
00000330: 23bc d3bf 4124 85be e7a2 83bf 210d 51bf
00000340: 2d9c ef3f 5230 09bd ab6f 2dc0 019d d13f
00000350: 3594 8abf afe0 15c0 4191 28bf 1160 2fbf
00000360: 500b 4c3f 2cc4 0ac0 dc81 1cbe 7ac2 de3f
00000370: bd1d 1ebf 22e7 4e40 fb3d 66bf e914 b0bf
00000380: 64b7 2940 ffc1 88bf 11c3 833f d210 c0be
00000390: 421a acbf cef3 85bf b4f6 b83c 07f2 d53e
000003a0: 8f38 6abf ac9d e33f 0d2d bcbf 0cee 27c0
000003b0: a01b a6bf 8bf9 e9be fe41 153f 2289 e23f
000003c0: c615 1b3f b8cf 0a3f c562 d9be 0feb 1940
000003d0: e42b 133d 9e9e 653f 0e90 d23e 65f9 a1bf
000003e0: 3819 17c0 c9db 80bf e2cc 813f 5067 07be
000003f0: 31c0 08be 3371 93be 9429 013f 7506 573f

while/MatMul f4 [256, 1]
0.27557343 -0.6766985 0.20525934 0.050316926 -0.08946258 -0.12318923 -0.11256363 -0.15803526
-0.12232517 -0.044571795 -0.04672999 -0.15969989 -0.022774946 -0.5090379 -0.14613368 -0.043057
0.03899443 -0.183317 0.217376 0.48858967 0.25320494 -0.06007497 0.0110219475 0.086631924
0.5280113 0.18936117 0.15761928 -0.11178655 0.033891413 -0.0075863907 -0.44054055 -0.33369964
-0.35470042 0.07309928 0.09359684 0.017551085 -0.1083339 0.1965366 -0.21254095 0.17248783
-0.1219816 0.23289348 0.019021865 0.22745977 0.55073065 -0.070036866 -0.26986596 -0.23251735
-0.07872541 -0.08278591 -0.22311357 0.036023982 0.029446624 -0.24477442 -0.20216987 0.1511465
0.20609947 0.32452893 0.37349156 0.066100776 -0.38315096 0.19071232 -0.027602132 -0.14175847
-0.10046022 1.0584607 0.23436265 0.11028284 0.5316867 -0.28841302 0.10936732 0.52655023
0.010481988 0.6771038 0.6415268 0.006894136 -0.009920796 -0.23136118 0.7398703 -0.43077204
0.4824736 1.6549677 -0.92802227 0.006763969 -0.68288 0.6536656 -0.23229074 0.22012454
0.513928 -1.000304 -0.5365921 0.120851345 -0.51873976 0.37119436 -0.033261705 0.5451548
-0.1535781 0.119726785 -0.3833204 0.06731745 -0.8515101 0.13465463 0.11844895 -0.65593094
-0.60877025 -0.35861585 -0.08902602 0.48285803 -0.026942449 -0.7097234 0.33785862 -0.57739276
0.8823128 0.24146795 0.35283384 0.16489594 -0.56076366 -0.64924496 0.43468273 -0.10402917
0.16838829 -0.7082103 -0.34772652 -0.7116147 0.6832748 0.23592977 -0.11651787 -0.15284647
-0.43483406 0.24931617 0.25165427 0.34320834 -0.36271405 -0.6241138 -0.24969392 -0.5752688
-0.107951045 0.29339537 -0.18176915 -0.073776 0.09610167 -0.13173418 0.7205593 -0.3470905
-0.3241546 0.45264572 0.38608152 -0.087821 -0.12623385 0.38583177 0.07968933 0.24806945
-0.24172924 0.12246856 0.4719225 0.3835351 0.67515445 -0.02012683 0.3568684 0.091456145
0.35417578 0.20485757 -0.30089658 0.4528975 -0.580221 -0.6514985 0.08870061 -0.5443447
-0.41700858 0.02559884 -0.2020449 0.64603835 0.31904402 0.19956715 -0.077859186 -0.052911583
0.31709513 -0.4374384 0.10814055 0.5246602 -0.07773483 -0.3253823 -0.530234 0.48098093
0.22221875 -0.12732694 -0.27506012 -0.5314233 -0.066802375 -0.48709998 -0.18829548 -0.45585397
-0.24580948 -0.19586857 -0.13047875 -0.61982864 -0.35189876 -0.46149784 -0.055632375 0.11293058
0.19892685 -0.10228907 0.021831594 0.34070957 0.3170854 0.13725825 -1.1265068 0.02547076
0.088146575 0.46616447 -0.092557654 -0.48029268 -0.4348145 0.3932624 -0.10213902 0.07624772
-0.3721102 0.14607829 0.20174667 0.3861901 -0.23796912 -0.3228505 0.33330163 0.24617332
0.4391893 -0.31514686 -0.03602105 0.30764928 0.0136723565 -0.2615731 0.22281367 0.2012451
-0.25019637 -0.10902725 0.544141 -0.1815591 -0.23487124 0.034938276 0.7378202 -0.19488473
0.3152488 -0.15065612 0.17595297 0.019383706 -0.10474511 0.7212105 0.16304216 -0.047295816
-0.18543276 -0.1437849 -0.016078748 0.047750108 0.43407366 -0.55505913 -0.11767791 0.25479978
00000000: f617 8d3e 1d3c 2dbf 812f 523e 1f19 4e3d
00000010: 2838 b7bd a34a fcbd c387 e6bd ffd3 21be
00000020: 9e85 fabd ea90 36bd f267 3fbd 5e88 23be
00000030: 8692 babc 4f50 02bf 11a4 15be 895c 30bd
00000040: a0b8 1f3d 74b7 3bbe d097 5e3e 6d28 fa3e
00000050: 14a4 813e 2c11 76bd 6695 343c 146c b13d
00000060: c02b 073f e5e7 413e f366 213e 59f0 e4bd
00000070: b9d1 0a3d 4297 f8bb 888e e1be aeda aabe
00000080: 4b9b b5be 13b5 953d b3af bf3d 4bc7 8f3c
00000090: 2ade ddbd e440 493e 56a4 59be a6a0 303e
000000a0: 7dd1 f9bd a17b 6e3e bed3 9b3c 37eb 683e
000000b0: affc 0c3f 7d6f 8fbd df2b 8abe 0719 6ebe
000000c0: ca3a a1bd a98b a9bd e277 64be e28d 133d
000000d0: 0c3a f13c 25a6 7abe 9e05 4fbe 26c6 1a3e
000000e0: bd0b 533e a828 a63e 493a bf3e d85f 873d
000000f0: 5d2c c4be 174a 433e de1d e2bc 2229 11be
00000100: 16be cdbd a47b 873f c3fc 6f3e f8db e13d
00000110: 9f1c 083f dfaa 93be f9fb df3d ffcb 063f
00000120: a5bc 2b3c ad56 2d3f 1a3b 243f 34e8 e13b
00000130: d68a 22bc f2e9 6cbe 2468 3d3f 278e dcbe
00000140: c806 f73e fbd5 d33f de92 6dbf 49a4 dd3b
00000150: 39d1 2ebf a156 273f a0dd 6dbe 5468 613e
00000160: c990 033f f609 80bf 1a5e 09bf e980 f73d
00000170: 21cc 04bf 300d be3e 6d3d 08bd 448f 0b3f
00000180: 9443 1dbe 5133 f53d 9242 c4be bbdd 893d
00000190: 91fc 59bf e7e2 093e 5d95 f23d 17eb 27bf
000001a0: 5ed8 1bbf 7f9c b7be 4653 b6bd 2b39 f73e
000001b0: 69b6 dcbc 6fb0 35bf cefb ac3e 03d0 13bf
000001c0: 40df 613f 6043 773e a3a6 b43e 7bda 283e
000001d0: 358e 0fbf eb34 26bf bc8e de3e 3f0d d5bd
000001e0: fb6d 2c3e 454d 35bf 3609 b2be 622c 36bf
000001f0: 19eb 2e3f 9397 713e eca0 eebd c983 1cbe
00000200: 92a2 debe bd4c 7f3e d4d8 803e 01b9 af3e
00000210: a8b5 b9be ecc5 1fbf c3af 7fbe d144 13bf
00000220: 7015 ddbd eb37 963e b121 3abe df17 97bd
00000230: f4d0 c43d 53e5 06be 9376 383f d9b5 b1be
00000240: 97f7 a5be 2ec1 e73e 7aac c53e 7fdb b3bd
00000250: 7243 01be be8b c53e 2934 a33d eb05 7e3e
00000260: df87 77be ccd0 fa3d d39f f13e b65e c43e
00000270: ecd6 2c3f 06e1 a4bc 74b7 b63e 5c4d bb3d
00000280: 8756 b53e 2fc6 513e 1e0f 9abe 2ee2 e73e
00000290: 5d89 14bf 9bc8 26bf aaa8 b53d 2d5a 0bbf
000002a0: 2682 d5be a9b4 d13c dce4 4ebe c562 253f
000002b0: bd59 a33e 555b 4c3e a374 9fbd d1b9 58bd
000002c0: 4b5a a23e edf7 dfbe cb78 dd3d 2250 063f
000002d0: 7033 9fbd 8298 a6be 6abd 07bf 2243 f63e
000002e0: 508d 633e fe61 02be aed4 8cbe 5b0b 08bf
000002f0: afcf 88bd 2b65 f9be 88d0 40be b165 e9be
00000300: 7bb5 7bbe c591 48be 399c 05be 17ad 1ebf
00000310: 132c b4be 7249 ecbe c6de 63bd 2648 e73d
00000320: 7bb3 4b3e ef7c d1bd 2cd8 b23c 7c71 ae3e
00000330: 0459 a23e 6d8d 0c3e 6031 90bf 0ea8 d03c
00000340: 3186 b43d 1cad ee3e de8e bdbd ece8 f5be
00000350: 02a0 debe b059 c93e 432e d1bd c427 9c3d
00000360: 3a85 bebe 8c95 153e ae96 4e3e b5ba c53e
00000370: 2dae 73be a94c a5be 83a6 aa3e dc14 7c3e
00000380: 6cdd e03e ee5a a1be cf8a 13bd 3584 9d3e
00000390: 0502 603c e9ec 85be 4429 643e 3213 4e3e
000003a0: bd19 80be ae49 dfbd d34c 0b3f a1ea 39be
000003b0: 1682 70be 701b 0f3d c9e1 3c3f dd8f 47be
000003c0: 4a68 a13e 9945 1abe 042d 343e 94ca 9e3c
000003d0: 9b84 d6bd 40a1 383f 86f4 263e 42b9 41bd
000003e0: 16e2 3dbe 593c 13be 94b7 83bc 9e95 433d
000003f0: e73e de3e 5b18 0ebf 1e01 f1bd 1e75 823e
