humun/assets/myPersonalityModel.tflite (tflite, 88612 bytes, 7 tensors)

model_1/dense_3/MatMul;model_1/dense_3/BiasAdd f4 [16]
1.19211 -0.18232854 0.017244397 -1.6810408 -0.29785284 -1.0137028 -0.2011495 -0.23437932
0.010613305 -1.4185507 0.06323102 -0.219583 0.21782082 1.435624 2.2505295 0.43262428
00000000: 0f97 983f 55b4 3abe 1f44 8d3c 582c d7bf
00000010: 2b80 98be 03c1 81bf 22fa 4dbe 2201 70be
00000020: 6de3 2d3c 1293 b5bf 447f 813d 5eda 60be
00000030: 6c0c 5f3e 87c2 b73f ad08 1040 ee80 dd3e

model_1/lstm_1/Read_2/ReadVariableOp f4 [256]
-1.600785 -3.3566053 -2.2442071 -2.043323 -3.1817324 -2.3417313 -1.8482437 -2.302032
-1.7718017 -1.7262671 -2.6674252 -0.34954143 -2.3975134 -1.631086 -2.5351598 -2.2077048
-2.1203988 -1.6331604 -1.8503046 -1.9753948 -2.149956 -1.5424967 -1.1261759 -0.44001463
-1.5046058 -3.701867 -3.632986 -2.9320817 -1.5701854 -2.0316706 -1.504131 -1.9930674
-1.4201756 -1.7394689 -2.694483 -2.5030484 -1.8357946 -2.264939 -2.2330368 -1.7366806
-2.155451 -2.9007344 -1.4633276 -1.6642444 -1.7995824 -2.271521 -2.0742204 -1.8875169
-1.4747186 -2.0617664 -1.5277449 -2.2267723 -0.90928584 0.002794337 -3.2063274 -1.5898067
-1.8872335 -1.3511342 -2.1904995 -3.4995666 -1.9428424 -1.7439519 -2.5170844 -1.8637902
1.5410533 3.7609284 2.0837266 1.6410064 3.640212 2.0046268 1.6890702 2.829775
0.40789935 1.681172 3.1390312 0.6370792 1.8983362 1.4930632 2.160623 2.1043322
1.1859912 1.3964759 1.5895938 1.0956137 1.800453 1.9644151 1.2151595 -0.5490374
1.4833579 5.8252964 3.1429985 3.751026 1.7056369 2.5947213 2.3822033 2.0110612
1.0394619 2.0727227 1.822134 1.0108427 1.4849235 1.0726103 2.217355 1.5075154
1.9124465 3.5782979 1.5250821 0.4711919 1.2477665 2.4290218 1.1510341 1.1019002
0.5324688 2.2082353 2.0663915 1.9671876 -0.010927002 -1.2069205 2.9196358 1.3275876
2.3318 1.1885345 2.1432374 4.35696 1.7750205 1.5523604 2.438953 1.1857269
0.038936887 -0.024500977 0.14838631 -0.31256846 0.011316544 -0.10587162 0.35202456 0.079572394
0.043782935 0.007186399 -0.04798152 -0.13759455 0.35063988 -0.14963534 0.07879844 0.18594973
0.4859704 -0.04443409 0.13212946 -0.41316912 -0.22464025 0.1341214 0.68168324 -0.7251443
-0.6468108 -0.0019552354 0.28879708 -0.0968725 -0.1254488 0.334395 -0.17109455 0.002469
0.22333613 0.215859 0.6746945 -0.47833276 0.21728048 0.45994928 -0.1458652 0.260196
0.3958108 0.18560258 -0.21161215 -0.008808735 0.17022355 -0.1858636 -0.43824762 0.043731704
-0.16188106 0.28755164 -0.5533223 -0.013980521 -0.14524344 0.34936404 0.16351715 0.019959243
0.11659849 0.011474339 -0.58195394 -0.34483168 -0.16220817 0.55528253 -0.3020127 -0.19345705
-1.314267 -1.1757383 -1.3270558 -1.5992348 -1.5681312 -1.835078 -1.4076895 -1.6343566
-1.695941 -1.4328461 -1.3925653 -1.5184318 -2.3485699 -1.4332122 -0.87439156 -1.5426855
-0.9096751 -1.8439773 -1.4542073 -1.1371409 -1.2819331 -1.9933925 -1.3494147 0.28504536
-1.6726235 -1.227679 -0.563525 -1.6876607 -1.3433894 -2.310469 -1.89005 -1.9126272
-2.0900283 -1.4581827 -1.3463303 -1.3641393 -1.3665987 -1.2131333 -1.8766129 -1.5445889
-1.5551327 -1.7406138 -1.7821779 -1.0879424 -1.0009041 -1.5607569 -0.45554668 -1.4984858
-1.2215769 -1.9013027 -1.3809887 -1.1514351 -0.92495495 -0.95034695 -1.0116765 -1.8643037
-1.5193995 -0.9442603 -1.4455715 -1.6311593 -1.0945401 -1.4617028 -1.4165491 -1.256954
00000000: 86e6 ccbf 9fd2 56c0 17a1 0fc0 cec5 02c0
00000010: 81a1 4bc0 edde 15c0 4093 ecbf 7e54 13c0
00000020: 66ca e2bf 52f6 dcbf 18b7 2ac0 18f7 b2be
00000030: dc70 19c0 6dc7 d0bf 0f40 22c0 094b 0dc0
00000040: 9db4 07c0 660b d1bf c8d6 ecbf bdd9 fcbf
00000050: e198 09c0 8870 c5bf 8826 90bf 9949 e1be
00000060: ec96 c0bf 64eb 6cc0 d882 68c0 3aa7 3bc0
00000070: d6fb c8bf e406 02c0 5d87 c0bf d51c ffbf
00000080: 50c8 b5bf eba6 debf 6972 2cc0 f231 20c0
00000090: 51fb eabf c3f4 10c0 13ea 0ec0 8d4b debf
000000a0: e9f2 09c0 a2a5 39c0 524e bbbf f605 d5bf
000000b0: b758 e6bf 9a60 11c0 07c0 04c0 279a f1bf
000000c0: 94c3 bcbf fbf3 03c0 258d c3bf 7083 0ec0
000000d0: f5c6 68bf 3221 373b 7834 4dc0 c97e cbbf
000000e0: de90 f1bf f7f1 acbf 2531 0cc0 e6f8 5fc0
000000f0: 0faf f8bf d139 dfbf e917 21c0 ad90 eebf
00000100: 3c41 c53f 0db3 7040 c75b 0540 7f0c d23f
00000110: 3cf9 6840 ce4b 0040 7433 d83f 091b 3540
00000120: 2fd8 d03e a530 d73f e3e5 4840 9f17 233f
00000130: aefc f23f b21c bf3f a647 0a40 61ad 0640
00000140: 8fce 973f b9bf b23f cf77 cb3f 123d 8c3f
00000150: 3e75 e63f f471 fb3f 598a 9b3f b78d 0cbf
00000160: acde bd3f d468 ba40 e326 4940 cf10 7040
00000170: 4f52 da3f ea0f 2640 0576 1840 3ab5 0040
00000180: 160d 853f 7da7 0440 b03b e93f 4b63 813f
00000190: f911 be3f 4b4b 893f 25e9 0d40 44f6 c03f
000001a0: 0ccb f43f d502 6540 e435 c33f 1140 f13e
000001b0: d0b6 9f3f 1875 1b40 1655 933f 110b 8d3f
000001c0: e04f 083f ba53 0d40 c23f 0440 cecc fb3f
000001d0: 2b07 33bc 5f7c 9abf 50db 3a40 64ee a93f
000001e0: 363c 1540 e621 983f cd2a 0940 376c 8b40
000001f0: df33 e33f bfb3 c63f ce17 1c40 e6c5 973f
00000200: 497c 1f3d 46b6 c8bc 95f2 173e f908 a0be
00000210: 0769 393c 38d3 d8bd 903c b43e daf6 a23d
00000220: bc55 333d e27b eb3b 4588 44bd 96e5 0cbe
00000230: 1287 b33e 023a 19be 1461 a13d 9b69 3e3e
00000240: 1dd1 f83e 8500 36bd f24c 073e e78a d3be
00000250: 1808 66be 1f57 093e cb82 2e3f 0fa3 39bf
00000260: 6595 25bf 6823 00bb 36dd 933e 1765 c6bd
00000270: a675 00be d235 ab3e 6933 2fbe f2ce 213b
00000280: 3ab2 643e 240a 5d3e c7b8 2c3f 08e8 f4be
00000290: c67e 5e3e 797e eb3e b05d 15be 6938 853e
000002a0: b7a7 ca3e 9a0e 3e3e dbb0 58be 8352 10bc
000002b0: 154f 2e3e 0753 3ebe fe61 e0be 0420 333d
000002c0: 26c4 25be f839 933e 88a6 0dbf 8e0e 65bc
000002d0: b2ba 14be d8df b23e 0a71 273e 9181 a33c
000002e0: 30cb ee3d defe 3b3c effa 14bf c78d b0be
000002f0: e619 26be ff26 0e3f 69a1 9abe 9b19 46be
00000300: e739 a8bf 987e 96bf f7dc a9bf bab3 ccbf
00000310: 86b8 c8bf d6e3 eabf 2b2f b4bf 9932 d1bf
00000320: 9814 d9bf 8067 b7bf 943f b2bf f95b c2bf
00000330: f84e 16c0 7f73 b7bf 20d8 5fbf b876 c5bf
00000340: 78e0 68bf 7307 ecbf 7723 babf d58d 91bf
00000350: 6216 a4bf 7c27 ffbf 9fb9 acbf 77f1 913e
00000360: 8718 d6bf 9624 9dbf 2d43 10bf 4405 d8bf
00000370: 2ff4 abbf b9de 13c0 29ed f1bf f8d0 f4bf
00000380: 06c3 05c0 bba5 babf 8d54 acbf 1e9c aebf
00000390: b5ec aebf f447 9bbf da34 f0bf 17b5 c5bf
000003a0: 970e c7bf 6fcc debf 681e e4bf b241 8bbf
000003b0: a01d 80bf e2c6 c7bf 6a3d e9be 62ce bfbf
000003c0: a25c 9cbf e35d f3bf 3dc4 b0bf 3a62 93bf
000003d0: d9c9 6cbf f049 73bf 9e7e 81bf 81a1 eebf
000003e0: af7b c2bf 0bbb 71bf 7d08 b9bf d4c9 d0bf
000003f0: e419 8cbf 1419 bbbf 7b51 b5bf dee3 a0bf

model_1/dense_2/MatMul1 f4 [32, 64]
-1.1459339 0.24228592 -1.1346464 -0.008614212 -3.0664527 -1.1751537 -1.8030621 0.74837416
1.5698434 1.6806883 -0.8361313 -1.6946193 2.220533 0.29602945 -0.06919604 -0.81968814
-0.8635641 2.2726126 0.86456746 1.1818907 0.019057712 -0.68925256 1.1602337 0.92924577
-0.14921854 1.5591347 1.5781584 1.1394165 0.5605437 -0.7023214 -1.318501 -2.1366775
-0.81259274 -1.2092397 0.46404535 -1.6057966 -0.76899785 0.04137567 0.9449597 0.66698706
1.013338 2.937499 0.08276686 -0.45316195 1.0451723 0.48602605 0.66789067 0.21470198
-0.23781577 -0.4630452 -1.0796516 -0.6115313 -1.1571585 0.16917665 -0.22098449 1.513187
-4.1117935 0.0608893 0.62719506 2.2798076 -1.7045952 0.8599032 0.24309973 0.14135444
0.77213675 1.8238307 -0.73514766 -0.5286746 -3.9080033 -3.0150805 0.2474685 -2.1529253
1.8816943 1.1187668 -2.1747353 1.3513217 -1.9403721 -1.0461056 2.9457216 -0.6261608
1.4212602 -0.42850083 -2.0874014 -0.88373274 0.22007652 -2.0203972 0.6957501 -0.5424633
-1.0906186 1.2784388 0.7853449 -0.93109864 0.73709744 1.1476793 0.62964743 0.85688484
-1.6078022 0.71480817 -0.68164724 1.8810794 -2.359346 0.29373696 -1.4327822 0.21423702
-0.13098143 0.6853618 -1.1884738 -1.5182605 0.51847225 -2.815023 0.8444105 -1.8412439
-0.17428993 -0.066076145 1.1249814 0.8597833 -0.6025631 -0.1362567 2.5424087 -3.1977692
-1.3089015 -0.7673747 1.4189628 -1.8792247 -1.1655949 1.0754678 -0.3034814 -1.1581051
0.24037562 0.76216066 2.1792557 -1.0763104 1.2576305 3.4239116 0.13611136 0.5672313
1.7142851 -0.4352765 -1.4577861 1.1827444 -0.7869243 -0.5440104 0.7583942 -0.14398353
0.29965863 -1.1760063 2.2088196 1.7018895 -2.3940282 0.60725486 0.16423528 -0.35718733
1.0388416 -2.682068 -0.9380765 -2.687765 1.9131716 0.8749966 0.19738168 -4.1522503
-0.21877725 0.60386384 0.2325906 0.86420596 -0.8120413 -1.0785748 -0.082270615 0.24130294
1.9065534 0.96625215 0.04662755 0.93191516 -0.67182356 0.31393072 0.8344143 1.4211736
3.400205 1.0569415 2.0788634 0.3780822 -0.074140556 -0.72190857 2.199209 0.26050708
2.2604876 1.1142312 0.4831304 0.78013986 0.27988634 0.17057171 -0.8318327 -0.5472976
1.2265385 -0.44856325 -0.05690389 -1.4843491 0.36372894 2.5641577 1.5335596 1.2764857
-1.0963424 -3.884121 0.543763 0.029902156 0.30776015 -0.28253987 0.17292483 1.4389937
-0.7856674 -0.110966176 3.0641348 -0.07149394 -0.709579 0.47742167 1.4424933 0.20935573
-1.3420516 0.04754972 -0.91376394 -3.9380605 1.3832388 1.3041178 -0.94216067 -3.7245347
1.3543754 -0.13026085 0.40961182 -1.3655645 0.062283106 -0.74102265 1.9620402 0.16217959
2.7540452 0.19507769 1.9888836 1.0793197 -0.46153617 2.863839 1.675688 -1.0034628
0.22736748 -2.3399029 2.4117012 1.6586523 -0.6244881 -0.5909591 -0.046777014 -0.058950644
1.4765136 0.38198662 0.91062737 0.31011668 -2.3091757 -1.0826957 -0.4606999 -0.0923911
00000000: f6ad 92bf cd19 783e 183c 91bf a022 0dbc
00000010: c340 44c0 706b 96bf bdca e6bf 7395 3f3f
00000020: a1f0 c83f cb20 d73f b30c 56bf 49e9 d8bf
00000030: 361d 0e40 2c91 973e a7b6 8dbd 15d7 51bf
00000040: 8912 5dbf 7c72 1140 4b54 5d3f 3248 973f
00000050: eb1e 9c3c db72 30bf 8a82 943f 0de3 6d3f
00000060: bfcc 18be ba91 c73f 1801 ca3f 66d8 913f
00000070: cb7f 0f3f 56cb 33bf a4c4 a8bf 53bf 08c0
00000080: 1406 50bf 5ec8 9abf 5a97 ed3e be8a cdbf
00000090: 0bdd 44bf 8979 293d e1e8 713f aabf 2a3f
000000a0: 0fb5 813f fcff 3b40 ac81 a93d d804 e8be
000000b0: 35c8 853f 68d8 f83e e2fa 2a3f d6da 5b3e
000000c0: fa85 73be 4314 edbe 0632 8abf 518d 1cbf
000000d0: c51d 94bf a53c 2d3e c249 62be 1db0 c13f
000000e0: d093 83c0 0f67 793d db8f 203f 5ee8 1140
000000f0: 2d30 dabf 9e22 5c3f 23ef 783e 38bf 103e
00000100: c1aa 453f 4973 e93f a332 3cbf 3857 07bf
00000110: ba1c 7ac0 14f7 40c0 6268 7d3e 87c9 09c0
00000120: 5cdb f03f c033 8f3f dd2e 0bc0 1cf8 ac3f
00000130: 1d5e f8bf cae6 85bf b486 3c40 134c 20bf
00000140: dbeb b53f 7664 dbbe fc97 05c0 4f3c 62bf
00000150: bd5b 613e 304e 01c0 ae1c 323f e0de 0abf
00000160: 6499 8bbf e2a3 a33f 5d0c 493f 7b5c 6ebf
00000170: 6bb2 3c3f 28e7 923f 9330 213f ce5c 5b3f
00000180: 76cc cdbf abfd 363f 6f80 2ebf 36c7 f03f
00000190: 86ff 16c0 b164 963e 6865 b7bf f360 5b3e
000001a0: ff1f 06be df73 2f3f e91f 98bf 5c56 c2bf
000001b0: 99ba 043f 5629 34c0 492b 583f e1ad ebbf
000001c0: 0f79 32be ee52 87bd 64ff 8f3f c21a 5c3f
000001d0: 9341 1abf e086 0bbe d3b6 2240 40a8 4cc0
000001e0: 168a a7bf ab72 44bf 93a0 b53f 6f8a f0bf
000001f0: 3732 95bf eea8 893f ea61 9bbe ca3c 94bf
00000200: 0725 763e f61c 433f ed78 0b40 8ac4 89bf
00000210: 09fa a03f 5e21 5b40 c760 0b3e 1236 113f
00000220: b26d db3f 90dc debe bc98 babf 2b64 973f
00000230: df73 49bf 4444 0bbf 1f26 423f 6b70 13be
00000240: db6c 993e 6087 96bf 4d5d 0d40 84d7 d93f
00000250: c237 19c0 0e75 1b3f 4b2d 283e 42e1 b6be
00000260: c3f8 843f 01a7 2bc0 c825 70bf 5704 2cc0
00000270: cfe2 f43f c7ff 5f3f 6c1e 4a3e 3cdf 84c0
00000280: 2507 60be d296 1a3f 3b2c 6e3e 9a3c 5d3f
00000290: f0e1 4fbf bd0e 8abf 7f7d a8bd 1e18 773e
000002a0: f109 f43f 4d5c 773f 88fc 3e3d fe91 6e3f
000002b0: a1fc 2bbf 87bb a03e 2d9c 553f 04e9 b53f
000002c0: f59c 5940 dc49 873f 190c 0540 fd93 c13e
000002d0: 01d7 97bd 00cf 38bf d7bf 0c40 2f61 853e
000002e0: d4ab 1040 219f 8e3f de5c f73e 3fb7 473f
000002f0: 434d 8f3e 5aaa 2e3e fdf2 54bf b21b 0cbf
00000300: 37ff 9c3f 15aa e5be 0e14 69bd 27ff bdbf
00000310: ae3a ba3e 291b 2440 ae4b c43f e263 a33f
00000320: f354 8cbf 7095 78c0 0d34 0b3f 5ef5 f43c
00000330: bd92 9d3e 11a9 90be 3513 313e f230 b83f
00000340: 8021 49bf 3c42 e3bd c91a 4440 6a6b 92bd
00000350: f8a6 35bf 9d70 f43e 9fa3 b83f 5961 563e
00000360: 59c8 abbf 7fc3 423d 6fec 69bf 2f09 7cc0
00000370: f80d b13f 55ed a63f 7131 71bf c75e 6ec0
00000380: 2c5c ad3f 1a63 05be a4b8 d13e d1ca aebf
00000390: 921c 7f3d a9b3 3dbf 2224 fb3f 6812 263e
000003a0: 4742 3040 72c2 473e bd93 fe3f 2627 8a3f
000003b0: 784e ecbe 2349 3740 f27c d63f 7871 80bf
000003c0: 05d3 683e f8c0 15c0 5059 1a40 b84e d43f
000003d0: 74de 1fbf 1849 17bf 4199 3fbd 3b76 71bd
000003e0: 66fe bc3f c093 c33e e01e 693f 9dc7 9e3e
000003f0: 89c9 13c0 c695 8abf dbe0 ebbe 8c37 bdbd

model_1/dense_3/MatMul f4 [16, 32]
-0.20197414 0.64576066 -0.56851834 0.8851744 -0.13994727 -0.11735826 0.03299764 0.064311564
0.4666899 -0.043423902 -0.9654937 0.25280237 0.29511568 1.1324078 -0.66791487 0.14367393
1.3077643 -1.5719677 0.15722932 -1.8635654 -1.1071591 -1.1643492 -0.3011493 1.4236811
0.753058 0.14202005 -0.106618226 -1.8385804 0.42273647 -0.47816777 0.12962453 -0.65679276
-0.21923766 0.34938827 0.42414504 -0.18162577 1.2274698 -0.030559989 0.012506689 0.50937885
0.38500905 -0.05246043 -1.0413364 0.98509747 0.33243126 -0.7413265 0.63609105 0.29272062
0.7880569 -1.0173261 0.07342594 1.1298684 -0.6238125 -0.5549125 -0.27496025 -1.1690432
1.0535033 0.020644346 0.19071893 1.3677096 -0.065851614 -0.3887462 0.24487416 -0.77524704
0.3370022 -0.35638544 -0.39204332 -0.76149744 -0.037476614 -1.7565916 -0.1199487 0.23581906
0.57195574 0.1449439 -0.46518156 0.8961561 -0.2168338 -0.52959025 0.1314201 -0.11668285
-1.8445762 0.5949526 0.042907458 -0.059256088 -1.1446368 -0.4517494 0.0027212198 -1.6178204
-0.71313655 -0.89619166 1.4194177 -1.361157 -0.52866817 -0.098921634 0.62830293 0.012664711
-1.1539485 -0.9219072 -1.1211478 -0.42013907 0.5335353 0.030424703 -0.11123411 0.7180219
-0.40585494 0.05969971 1.41388 -1.3650999 -0.9419962 -0.4474655 0.9633138 -0.2791977
0.5557121 -0.9909621 0.09129549 0.38476053 0.39410964 0.88600415 0.121181324 -0.33899903
0.7943327 -0.017826706 1.0147812 -0.10360605 0.2606977 0.4855006 -1.0523186 -0.6381057
-0.34889665 1.3042237 1.3189764 0.36571816 0.19759925 1.1425306 -0.029571474 -0.457768
1.4225969 0.11492703 -1.0708421 -0.40217793 0.4550435 -0.21950823 1.6421717 -1.9693737
-0.12639865 1.4208525 0.041983277 -0.07425103 -0.17925026 0.94982 -0.585166 0.25673333
0.69307846 0.23291114 -0.68801963 -0.46168044 -0.023598354 0.64506555 -0.7433251 -0.73130846
1.0254666 1.1084659 -1.0136546 -0.6541516 -0.9179583 0.19612473 0.19305898 -0.065665014
0.4322526 -0.12004108 -1.1372834 -0.6879904 -0.118157886 0.65147346 -1.4332521 0.33917177
-0.099177055 -0.24132858 0.08507462 0.89327496 1.3909085 -0.8671166 -0.49674803 -0.54924834
0.19341828 -0.55941087 0.58222556 0.30740553 -0.15566692 0.031817377 -1.5442687 -0.8280322
0.41447896 0.83494824 0.049737073 0.9824081 0.76849216 0.1143926 0.017892139 -1.4947176
0.24920855 0.13078506 1.0404631 0.54217976 -0.20967235 -1.3200883 1.4212071 0.744359
-1.3004034 -1.0246624 0.1360804 -0.4214819 1.3689485 -0.046251796 0.51178163 0.52778935
-0.7237758 0.22026673 -0.17153625 0.42095795 1.2718811 -0.2402573 -1.3770213 1.1568061
0.7916529 -0.3526854 0.08266437 0.36532423 0.7094309 -0.8831395 -0.060845215 -1.4755577
-1.0944453 -0.016494656 0.89449835 0.17197417 -0.14759351 -0.62210435 -1.7840686 -0.14159423
0.48264834 0.49739042 -0.035020694 0.17489365 -0.89306575 0.47838482 -0.51291984 1.5977927
0.80458665 -0.026878925 0.47546583 0.26985466 -1.4191952 -0.20391288 -0.38853493 -0.22863343
00000000: 4fd2 4ebe 9250 253f 6b8a 11bf ca9a 623f
00000010: 564e 0fbe 8759 f0bd 8928 073d c8b5 833d
00000020: fbf1 ee3e 43dd 31bd 982a 77bf 506f 813e
00000030: 6719 973e bdf2 903f 78fc 2abf 421f 133e
00000040: d264 a73f 3d36 c9bf b900 213e 5089 eebf
00000050: 64b7 8dbf 6509 95bf 3e30 9abe 2f3b b63f
00000060: 69c8 403f b46d 113e a85a dabd 9a56 ebbf
00000070: ea70 d83e 68d2 f4be 4bbc 043e 9223 28bf
00000080: d67f 60be 05e3 b23e 8a29 d93e 1bfc 39be
00000090: bb1d 9d3f f158 fabc dbe8 4c3c a766 023f
000000a0: e81f c53e bfe0 56bd 834a 85bf 592f 7c3f
000000b0: 6e34 aa3e 93c7 3dbf ddd6 223f 7adf 953e
000000c0: 19be 493f be37 82bf 5760 963d 879f 903f
000000d0: 2db2 1fbf bf0e 0ebf 97c7 8cbe 35a3 95bf
000000e0: 32d9 863f 551e a93c d34b 433e 1c11 af3f
000000f0: 36dd 86bd be09 c7be 4bc0 7a3e 9776 46bf
00000100: 8d8b ac3e 2778 b6be e7b9 c8be 7ff1 42bf
00000110: 1481 19bd fed7 e0bf aaa7 f5bd 8d7a 713e
00000120: b16b 123f 2c6c 143e 472c eebe 7c6a 653f
00000130: ae09 5ebe 3a93 07bf fe92 063e 6bf7 eebd
00000140: 131b ecbf d04e 183f bbbf 2f3d 83b6 72bd
00000150: 7583 92bf b34b e7be 7e56 323b bd14 cfbf
00000160: 1e90 36bf d16c 65bf 7baf b53f 643a aebf
00000170: cc56 07bf 6d97 cabd 76d8 203f a67f 4f3c
00000180: 96b4 93bf 1c02 6cbf c581 8fbf 781c d7be
00000190: c595 083f 3a3d f93c b6ce e3bd 49d0 373f
000001a0: 38cc cfbe af87 743d 05fa b43f 98bb aebf
000001b0: aa26 71bf 331a e5be bc9b 763f 00f3 8ebe
000001c0: 2643 0e3f b1af 7dbf 21f9 ba3d 55ff c43e
000001d0: bdc8 c93e 2bd1 623f ea2d f83d 4891 adbe
000001e0: 6359 4b3f 5009 92bc 5ae4 813f 692f d4bd
000001f0: 2b7a 853e 8993 f83e 60b2 86bf e55a 23bf
00000200: 95a2 b2be cdf0 a63f 38d4 a83f 693f bb3e
00000210: 7557 4a3e 713e 923f e03f f2bc 9160 eabe
00000220: a817 b63f dd5e eb3d 5b11 89bf 44ea cdbe
00000230: 76fb e83e c4c6 60be af32 d23f 7014 fcbf
00000240: a66e 01be 7fde b53f a8f6 2b3d ed10 98bd
00000250: 618d 37be 6727 733f 70cd 15bf 8d72 833e
00000260: 976d 313f 4280 6e3e 0e22 30bf 6161 ecbe
00000270: 5651 c1bc 0423 253f 8e4a 3ebf 0837 3bbf
00000280: 7d42 833f 36e2 8d3f 6fbf 81bf 7b76 27bf
00000290: 51ff 6abf ecd4 483e 41b1 453e 617b 86bd
000002a0: 3650 dd3e 19d8 f5bd 8192 91bf 2420 30bf
000002b0: c3fc f1bd f7c6 263f ce74 b7bf eca7 ad3e
000002c0: 571d cbbd d71e 77be 9a3b ae3d abad 643f
000002d0: 4a09 b23f 5afb 5dbf c255 febe 8a9b 0cbf
000002e0: 710f 463e 8d35 0fbf bc0c 153f 4264 9d3e
000002f0: 2667 1fbe f052 023d 99aa c5bf ebf9 53bf
00000300: 9636 d43e 2bbf 553f 1ab9 4b3d 197f 7b3f
00000310: e7bb 443f ab46 ea3d 8992 923c e852 bfbf
00000320: 8730 7f3e 85ec 053e e52d 853f 4bcc 0a3f
00000330: 59b4 56be a7f8 a8bf 1dea b53f 508e 3e3f
00000340: 9e73 a6bf 2328 83bf a958 0b3e 7acc d7be
00000350: b439 af3f 8672 3dbd 1f04 033f 341d 073f
00000360: 5f49 39bf 9a8d 613e 33a7 2fbe cd87 d73e
00000370: 00cd a23f 0206 76be 3c42 b0bf 3912 943f
00000380: c4a9 4a3f 2e93 b4be f04b a93d c70b bb3e
00000390: 439d 353f 6e15 62bf d538 79bd 13df bcbf
000003a0: c916 8cbf cd1f 87bc d8fd 643f ff19 303e
000003b0: c122 17be 3b42 1fbf 5c5c e4bf 14fe 10be
000003c0: af1d f73e f5a9 fe3e dc71 0fbd 5217 333e
000003d0: f59f 64bf dbee f43e b74e 03bf 7984 cc3f
000003e0: 64f9 4d3f 3131 dcbc 4270 f33e 642a 8a3e
000003f0: 30a8 b5bf 8ace 50be 0dee c6be e21e 6abe

model_1/lstm_1/Read_2/ReadVariableOp1 f4 [256]
-1.600785 -3.3566053 -2.2442071 -2.043323 -3.1817324 -2.3417313 -1.8482437 -2.302032
-1.7718017 -1.7262671 -2.6674252 -0.34954143 -2.3975134 -1.631086 -2.5351598 -2.2077048
-2.1203988 -1.6331604 -1.8503046 -1.9753948 -2.149956 -1.5424967 -1.1261759 -0.44001463
-1.5046058 -3.701867 -3.632986 -2.9320817 -1.5701854 -2.0316706 -1.504131 -1.9930674
-1.4201756 -1.7394689 -2.694483 -2.5030484 -1.8357946 -2.264939 -2.2330368 -1.7366806
-2.155451 -2.9007344 -1.4633276 -1.6642444 -1.7995824 -2.271521 -2.0742204 -1.8875169
-1.4747186 -2.0617664 -1.5277449 -2.2267723 -0.90928584 0.002794337 -3.2063274 -1.5898067
-1.8872335 -1.3511342 -2.1904995 -3.4995666 -1.9428424 -1.7439519 -2.5170844 -1.8637902
1.5410533 3.7609284 2.0837266 1.6410064 3.640212 2.0046268 1.6890702 2.829775
0.40789935 1.681172 3.1390312 0.6370792 1.8983362 1.4930632 2.160623 2.1043322
1.1859912 1.3964759 1.5895938 1.0956137 1.800453 1.9644151 1.2151595 -0.5490374
1.4833579 5.8252964 3.1429985 3.751026 1.7056369 2.5947213 2.3822033 2.0110612
1.0394619 2.0727227 1.822134 1.0108427 1.4849235 1.0726103 2.217355 1.5075154
1.9124465 3.5782979 1.5250821 0.4711919 1.2477665 2.4290218 1.1510341 1.1019002
0.5324688 2.2082353 2.0663915 1.9671876 -0.010927002 -1.2069205 2.9196358 1.3275876
2.3318 1.1885345 2.1432374 4.35696 1.7750205 1.5523604 2.438953 1.1857269
0.038936887 -0.024500977 0.14838631 -0.31256846 0.011316544 -0.10587162 0.35202456 0.079572394
0.043782935 0.007186399 -0.04798152 -0.13759455 0.35063988 -0.14963534 0.07879844 0.18594973
0.4859704 -0.04443409 0.13212946 -0.41316912 -0.22464025 0.1341214 0.68168324 -0.7251443
-0.6468108 -0.0019552354 0.28879708 -0.0968725 -0.1254488 0.334395 -0.17109455 0.002469
0.22333613 0.215859 0.6746945 -0.47833276 0.21728048 0.45994928 -0.1458652 0.260196
0.3958108 0.18560258 -0.21161215 -0.008808735 0.17022355 -0.1858636 -0.43824762 0.043731704
-0.16188106 0.28755164 -0.5533223 -0.013980521 -0.14524344 0.34936404 0.16351715 0.019959243
0.11659849 0.011474339 -0.58195394 -0.34483168 -0.16220817 0.55528253 -0.3020127 -0.19345705
-1.314267 -1.1757383 -1.3270558 -1.5992348 -1.5681312 -1.835078 -1.4076895 -1.6343566
-1.695941 -1.4328461 -1.3925653 -1.5184318 -2.3485699 -1.4332122 -0.87439156 -1.5426855
-0.9096751 -1.8439773 -1.4542073 -1.1371409 -1.2819331 -1.9933925 -1.3494147 0.28504536
-1.6726235 -1.227679 -0.563525 -1.6876607 -1.3433894 -2.310469 -1.89005 -1.9126272
-2.0900283 -1.4581827 -1.3463303 -1.3641393 -1.3665987 -1.2131333 -1.8766129 -1.5445889
-1.5551327 -1.7406138 -1.7821779 -1.0879424 -1.0009041 -1.5607569 -0.45554668 -1.4984858
-1.2215769 -1.9013027 -1.3809887 -1.1514351 -0.92495495 -0.95034695 -1.0116765 -1.8643037
-1.5193995 -0.9442603 -1.4455715 -1.6311593 -1.0945401 -1.4617028 -1.4165491 -1.256954
00000000: 86e6 ccbf 9fd2 56c0 17a1 0fc0 cec5 02c0
00000010: 81a1 4bc0 edde 15c0 4093 ecbf 7e54 13c0
00000020: 66ca e2bf 52f6 dcbf 18b7 2ac0 18f7 b2be
00000030: dc70 19c0 6dc7 d0bf 0f40 22c0 094b 0dc0
00000040: 9db4 07c0 660b d1bf c8d6 ecbf bdd9 fcbf
00000050: e198 09c0 8870 c5bf 8826 90bf 9949 e1be
00000060: ec96 c0bf 64eb 6cc0 d882 68c0 3aa7 3bc0
00000070: d6fb c8bf e406 02c0 5d87 c0bf d51c ffbf
00000080: 50c8 b5bf eba6 debf 6972 2cc0 f231 20c0
00000090: 51fb eabf c3f4 10c0 13ea 0ec0 8d4b debf
000000a0: e9f2 09c0 a2a5 39c0 524e bbbf f605 d5bf
000000b0: b758 e6bf 9a60 11c0 07c0 04c0 279a f1bf
000000c0: 94c3 bcbf fbf3 03c0 258d c3bf 7083 0ec0
000000d0: f5c6 68bf 3221 373b 7834 4dc0 c97e cbbf
000000e0: de90 f1bf f7f1 acbf 2531 0cc0 e6f8 5fc0
000000f0: 0faf f8bf d139 dfbf e917 21c0 ad90 eebf
00000100: 3c41 c53f 0db3 7040 c75b 0540 7f0c d23f
00000110: 3cf9 6840 ce4b 0040 7433 d83f 091b 3540
00000120: 2fd8 d03e a530 d73f e3e5 4840 9f17 233f
00000130: aefc f23f b21c bf3f a647 0a40 61ad 0640
00000140: 8fce 973f b9bf b23f cf77 cb3f 123d 8c3f
00000150: 3e75 e63f f471 fb3f 598a 9b3f b78d 0cbf
00000160: acde bd3f d468 ba40 e326 4940 cf10 7040
00000170: 4f52 da3f ea0f 2640 0576 1840 3ab5 0040
00000180: 160d 853f 7da7 0440 b03b e93f 4b63 813f
00000190: f911 be3f 4b4b 893f 25e9 0d40 44f6 c03f
000001a0: 0ccb f43f d502 6540 e435 c33f 1140 f13e
000001b0: d0b6 9f3f 1875 1b40 1655 933f 110b 8d3f
000001c0: e04f 083f ba53 0d40 c23f 0440 cecc fb3f
000001d0: 2b07 33bc 5f7c 9abf 50db 3a40 64ee a93f
000001e0: 363c 1540 e621 983f cd2a 0940 376c 8b40
000001f0: df33 e33f bfb3 c63f ce17 1c40 e6c5 973f
00000200: 497c 1f3d 46b6 c8bc 95f2 173e f908 a0be
00000210: 0769 393c 38d3 d8bd 903c b43e daf6 a23d
00000220: bc55 333d e27b eb3b 4588 44bd 96e5 0cbe
00000230: 1287 b33e 023a 19be 1461 a13d 9b69 3e3e
00000240: 1dd1 f83e 8500 36bd f24c 073e e78a d3be
00000250: 1808 66be 1f57 093e cb82 2e3f 0fa3 39bf
00000260: 6595 25bf 6823 00bb 36dd 933e 1765 c6bd
00000270: a675 00be d235 ab3e 6933 2fbe f2ce 213b
00000280: 3ab2 643e 240a 5d3e c7b8 2c3f 08e8 f4be
00000290: c67e 5e3e 797e eb3e b05d 15be 6938 853e
000002a0: b7a7 ca3e 9a0e 3e3e dbb0 58be 8352 10bc
000002b0: 154f 2e3e 0753 3ebe fe61 e0be 0420 333d
000002c0: 26c4 25be f839 933e 88a6 0dbf 8e0e 65bc
000002d0: b2ba 14be d8df b23e 0a71 273e 9181 a33c
000002e0: 30cb ee3d defe 3b3c effa 14bf c78d b0be
000002f0: e619 26be ff26 0e3f 69a1 9abe 9b19 46be
00000300: e739 a8bf 987e 96bf f7dc a9bf bab3 ccbf
00000310: 86b8 c8bf d6e3 eabf 2b2f b4bf 9932 d1bf
00000320: 9814 d9bf 8067 b7bf 943f b2bf f95b c2bf
00000330: f84e 16c0 7f73 b7bf 20d8 5fbf b876 c5bf
00000340: 78e0 68bf 7307 ecbf 7723 babf d58d 91bf
00000350: 6216 a4bf 7c27 ffbf 9fb9 acbf 77f1 913e
00000360: 8718 d6bf 9624 9dbf 2d43 10bf 4405 d8bf
00000370: 2ff4 abbf b9de 13c0 29ed f1bf f8d0 f4bf
00000380: 06c3 05c0 bba5 babf 8d54 acbf 1e9c aebf
00000390: b5ec aebf f447 9bbf da34 f0bf 17b5 c5bf
000003a0: 970e c7bf 6fcc debf 681e e4bf b241 8bbf
000003b0: a01d 80bf e2c6 c7bf 6a3d e9be 62ce bfbf
000003c0: a25c 9cbf e35d f3bf 3dc4 b0bf 3a62 93bf
000003d0: d9c9 6cbf f049 73bf 9e7e 81bf 81a1 eebf
000003e0: af7b c2bf 0bbb 71bf 7d08 b9bf d4c9 d0bf
000003f0: e419 8cbf 1419 bbbf 7b51 b5bf dee3 a0bf

while/MatMul_1 f4 [256, 64]
-0.34328064 -1.2355092 -0.47193006 -0.009216024 -0.3282924 -2.275078 -1.0173764 -0.31252396
-0.91070366 -0.36233446 0.44052958 -1.481346 0.99547184 0.43167073 1.5373217 0.68920887
-0.8073699 0.6813976 -1.839188 -1.2948885 -0.08146837 -1.0428106 1.0841904 -1.6157333
-2.1404006 0.39269915 3.2807562 -1.1394066 -0.5535131 -0.1518285 -0.72085327 0.6069701
-0.43149143 -0.21679345 2.3269713 -2.4382153 -2.758038 0.6310087 -0.21079822 -1.0224693
-0.9217461 -1.1347764 -0.15276958 1.6417993 -1.1271237 0.6919575 -1.2751505 -1.8742342
-1.103275 -1.6157203 -1.0322509 1.6721135 0.75153846 -0.118730344 -0.088687584 1.438443
-0.72477645 0.33814186 1.1929281 -0.5458509 -0.5360682 -1.0260494 -1.6518466 -0.71304405
-0.94125944 -2.32749 2.062254 -1.3678483 -1.5557234 -0.9507373 2.921542 0.24509393
1.8389751 0.72176075 -0.6638887 -0.06233902 3.7571251 0.5138117 -1.1159444 -0.60525966
-1.0065812 -0.68473977 1.2422612 1.4640876 0.20372003 1.059909 -1.2669256 0.72549033
-1.1285771 1.2013776 1.3545403 -0.02822558 -0.33293334 -0.5433929 1.6069444 1.2514726
-2.1175838 1.637742 0.39751193 2.454764 -0.69938016 1.6762692 -0.23224196 -0.269946
-1.6672033 1.5705355 0.15287642 0.28158274 -0.5660328 -1.7570107 0.40318003 0.1686
-2.1688316 -0.62910753 0.6312011 2.3395636 -0.13502835 -0.4511804 -1.3786838 0.94628197
1.1050538 -0.20767139 -0.48080227 -0.74289495 -1.0361937 1.6227133 -1.5558642 1.4733558
1.6040224 -1.6031255 0.50835645 -0.035773583 -0.36298782 0.15798526 1.4477532 0.073640384
-0.9950433 -0.752732 -0.9158017 0.19768804 -0.66633576 -0.23480248 -0.27053234 -0.49274242
0.6031587 1.1552807 -0.21863979 0.44155598 -1.3342452 1.8556476 -0.82340366 -0.4579915
1.6692282 -0.21557097 -1.8829957 0.91157746 1.0320911 0.9320604 -0.13694659 0.15623343
-1.320117 0.536164 -2.4375892 1.5835203 -1.3814557 -1.6390992 1.8418971 0.58844566
0.48179096 2.0469205 -1.2761277 -1.1018648 -0.37726915 0.9754624 0.20014362 -0.078473136
-1.5264672 1.713998 -1.0105606 -0.6993874 -0.8384923 -1.5770117 -1.2399372 -0.83091277
0.5744538 -0.5973407 -1.5335249 0.75140494 -0.52961105 1.2967912 0.021085119 0.65297264
0.14369002 -1.1234955 -1.093188 0.028629724 2.0214036 2.1912937 -0.6296379 -1.5660523
-1.9791256 0.21069698 0.30255336 -0.20369603 0.42206964 -1.0041307 -1.3662273 1.4919955
0.6815825 -0.112041675 1.0725417 -0.2480945 0.59516996 3.8504527 1.9878943 1.7311441
2.8562086 -0.96664435 -0.70498836 -0.97889173 0.8648446 2.2854145 0.13506179 1.194884
0.84565413 -2.3402383 -2.0626235 -2.1537442 1.787888 -1.017955 0.3735773 -0.33782026
0.8600444 1.7366412 -1.1911303 -0.85622936 1.2885863 0.1929902 -1.2337359 0.58752817
-0.43422645 -0.90555346 2.5128186 0.8115574 1.290568 -0.1396979 0.35088557 -2.389964
-0.24340348 0.09129001 -0.29749125 1.8585429 -0.84225154 1.2085171 -0.32550463 1.827298
00000000: 7bc2 afbe 2a25 9ebf d1a0 f1be cefe 16bc
00000010: f115 a8be e19a 11c0 6439 82bf 2403 a0be
00000020: e023 69bf e783 b9be 188d e13e bf9c bdbf
00000030: 3ed7 7e3f f203 dd3e f5c6 c43f fe6f 303f
00000040: cbaf 4ebf 1370 2e3f 836a ebbf e8be a5bf
00000050: e4d8 a6bd d17a 85bf c0c6 8a3f 59d0 cebf
00000060: 53fc 08c0 dd0f c93e e9f7 5140 13d8 91bf
00000070: 09b3 0dbf ee78 1bbe d789 38bf 6462 1b3f
00000080: 72ec dcbe 1aff 5dbe 19ed 1440 b80b 1cc0
00000090: b283 30c0 c989 213f 7ddb 57be 46e0 82bf
000000a0: 8df7 6bbf 5a40 91bf a16f 1cbe 7b26 d23f
000000b0: 9745 90bf 2024 313f 2238 a3bf e8e6 efbf
000000c0: 1d38 8dbf eccf cebf cc20 84bf d107 d63f
000000d0: d364 403f e528 f3bd d6a1 b5bd e61e b83f
000000e0: f38a 39bf ee20 ad3e deb1 983f e2bc 0bbf
000000f0: c43b 09bf 9655 83bf b66f d3bf 0e8a 36bf
00000100: 61f6 70bf 99f5 14c0 f8fb 0340 a715 afbf
00000110: f221 c7bf 8563 73bf 8bfa 3a40 e7f9 7a3e
00000120: 8963 eb3f 50c5 383f 9cf4 29bf 3357 7fbd
00000130: bd74 7040 2a89 033f 44d7 8ebf 4cf2 1abf
00000140: a7d7 80bf 1b4b 2fbf 6a02 9f3f 3967 bb3f
00000150: fc9b 503e 19ab 873f 9e2a a2bf bcb9 393f
00000160: 3775 90bf bec6 993f 9461 ad3f 5539 e7bc
00000170: 3d76 aabe cc1b 0bbf 5bb0 cd3f 4130 a03f
00000180: 7e86 07c0 88a1 d13f af86 cb3e da1a 1d40
00000190: 940a 33bf fd8f d63f d6d0 6dbe 5d36 8abe
000001a0: eb66 d5bf 4f07 c93f a38b 1c3e 9d2b 903e
000001b0: 87e7 10bf bae5 e0bf 9d6d ce3e 7aa5 2c3e
000001c0: 23ce 0ac0 310d 21bf 6596 213f 69bb 1540
000001d0: df44 0abe 1e01 e7be b678 b0bf 893f 723f
000001e0: 6772 8d3f cfa7 54be b72b f6be 5d2e 3ebf
000001f0: ffa1 84bf 12b5 cf3f 8f26 c7bf ec96 bc3f
00000200: 9b50 cd3f 3733 cdbf a623 023f 5287 12bd
00000210: 8ad9 b9be e3c6 213e fa4f b93f c5d0 963d
00000220: 28bb 7ebf 0bb3 40bf fb71 6abf bc6e 4a3e
00000230: fb94 2abf 1070 70be 3783 8abe bc48 fcbe
00000240: 9c68 1a3f 3de0 933f 1ce3 5fbe a013 e23e
00000250: 8cc8 aabf dc85 ed3f 95ca 52bf dd7d eabe
00000260: 45a9 d53f a3be 5cbe 0106 f1bf 245d 693f
00000270: 901b 843f 839b 6e3f ba3b 0cbe a8fb 1f3e
00000280: 98f9 a8bf 0b42 093f 7601 1cc0 cbb0 ca3f
00000290: 8ad3 b0bf 01ce d1bf 49c3 eb3f 60a4 163f
000002a0: 4ead f63e bf00 0340 2758 a3bf e809 8dbf
000002b0: 6c29 c1be e7b7 793f 73f2 4c3e 86b6 a0bd
000002c0: 4763 c3bf 4964 db3f 0d5a 81bf 0d0b 33bf
000002d0: 6ea7 56bf 85db c9bf 43b6 9ebf b3b6 54bf
000002e0: 670f 133f 52eb 18bf 8b4a c4bf 135c 403f
000002f0: 9794 07bf 41fd a53f b3ba ac3c 3729 273f
00000300: 7a23 133e b3ce 8fbf 96ed 8bbf e288 ea3c
00000310: ad5e 0140 283e 0c40 f32f 21bf 6774 c8bf
00000320: fd53 fdbf f3c0 573e 46e8 9a3e b195 50be
00000330: 8319 d83e 5b87 80bf 89e0 aebf b5f9 be3f
00000340: 317c 2e3f 1b76 e5bd 0c49 893f 7c0c 7ebe
00000350: 0f5d 183f d16d 7640 5273 fe3f 2196 dd3f
00000360: 1fcc 3640 0176 77bf 1e7a 34bf a698 7abf
00000370: 7566 5d3f 3b44 1240 a34d 0a3e f5f1 983f
00000380: ca7c 583f 77c6 15c0 0602 04c0 f2d6 09c0
00000390: 84d9 e43f 594c 82bf 8645 bf3e c7f6 acbe
000003a0: df2b 5c3f 424a de3f f576 98bf d931 5bbf
000003b0: 65f0 a43f 399f 453e 0feb 9dbf 3f68 163f
000003c0: ee52 debe 5ad2 67bf 05d2 2040 3ac2 4f3f
000003d0: 5531 a53f f70c 0fbe 46a7 b33e 2cf5 18c0
000003e0: c33e 79be 42f6 ba3d c650 98be bce4 ed3f
000003f0: cc9d 57bf b0b0 9a3f 8ba8 a6be e7e4 e93f

while/MatMul f4 [256, 1]
-0.26790825 0.06972966 -0.054386623 0.44139627 -0.062632486 -0.13089585 -0.19506188 -0.03024587
0.07738254 0.033274848 -0.09756202 0.13643801 0.026181275 0.22218555 -0.20972833 -0.0027684998
-0.042828392 0.24450359 0.46621442 -0.22968212 -0.08868396 -0.06933257 0.07819369 0.1276063
0.37316227 0.072583795 -0.12982689 0.16026202 -0.17202282 0.2279525 0.20888644 0.01953706
0.15601362 -0.08982855 -0.2535647 -0.21637887 0.15861037 0.21716845 -0.05751264 -0.19042413
0.21649069 -0.18864802 0.04696584 0.18550286 -0.24128151 -0.057342056 -0.30788302 0.12185578
0.19998915 -0.2301881 0.04170708 -0.047452465 -0.27236238 -0.49041042 0.04399908 0.10355594
-0.18163735 0.08082697 -0.19474688 -0.12056359 -0.28707802 0.80635154 -0.057303004 -0.08279214
-0.045523718 -0.094057895 -0.48116142 0.3573974 -0.38794497 1.6475874 0.05188303 0.34533072
0.9734567 0.6772165 0.46524218 -0.99395037 0.1405201 -0.9962383 -0.86074424 -0.40305883
-0.013144167 0.39750642 -0.43544653 1.0639994 -0.089761525 0.56008977 1.00363 -0.014486318
-0.112448595 -0.5950474 -0.33929864 0.25780305 0.59891236 -0.49322277 -0.19767538 -0.043259304
-0.82031053 0.7474156 -0.34491307 0.7757381 1.0383538 -0.9066196 -0.6990044 -0.7913229
-0.24335249 0.87274414 0.5107859 -0.662915 0.4027805 -0.02375007 -0.3328435 0.009159299
-0.5545446 0.28879806 -0.16773687 -0.6815659 -0.4740514 0.5656941 0.21570659 -0.2052843
-0.43697137 0.1067791 -0.24592395 -0.10117879 -0.2612873 -0.30278286 0.79247797 0.68984944
0.24321759 -0.15243013 0.13890165 -0.03620483 -0.51897395 -0.62180555 -0.060914204 0.18163206
0.039647356 -0.029324453 -0.045376714 -0.031118726 -0.18843226 -0.43945557 0.4313473 0.43297377
-0.15679654 0.34390774 -0.11157385 0.050546028 0.032951348 -0.46675837 -0.46527705 0.19013162
0.22677961 0.2792687 -0.5830645 0.06717002 0.3455354 -0.8967992 -0.8084164 -0.06662461
-0.5974793 -0.55541897 0.1702894 -0.21301474 -0.19523291 -0.35115463 -0.04439464 -0.36099595
-0.20408176 -0.079527326 0.36675373 -0.3390008 0.03200245 0.47876588 0.091209516 -0.26029885
0.23172343 0.06391428 -0.22597755 -0.04006067 0.31573159 0.3059464 0.5356108 0.41588354
-0.3458716 -0.0322632 -0.30440623 -0.5368706 0.3461689 -0.12908477 -0.2977636 -0.47961316
-0.033040993 -0.40402734 -0.31085438 -0.37105975 -0.08112736 0.23511544 -0.04013351 -0.120047875
-0.5667945 -0.06535175 0.21013834 -0.22124995 -0.37385973 0.31765333 0.30140132 0.21101816
0.5666093 -0.040766634 -0.30310053 0.38930216 0.21872891 0.05885712 0.31836897 -0.1606499
0.012987031 -0.21347007 0.92034227 -0.081732206 -0.27026242 0.08506386 0.2537355 0.19626604
-0.31474417 -0.37723807 1.0187063 0.44314724 0.18657416 -0.5393605 0.029536566 -0.035521567
-0.41148317 0.18247478 -0.12547192 -0.0036700973 0.35233966 0.16953987 0.47922385 -0.39268994
-0.024278257 -0.112918 0.24439722 0.35456485 0.17164712 -0.0033037139 0.3072512 -0.22373687
-0.002230831 -0.5714634 0.11639718 -0.1594898 -0.09354424 -0.28703412 -0.35894865 -0.046426963
00000000: 452b 89be 6dce 8e3d 82c4 5ebd b1fe e13e
00000010: 7645 80bd 9009 06be 4dbe 47be 30c6 f7bc
00000020: bd7a 9e3d 354b 083d 99ce c7bd 68b6 0b3e
00000030: 1d7a d63c 9c84 633e 06c3 56be b86f 35bb
00000040: d36c 2fbd 265f 7a3e a8b3 ee3e ca31 6bbe
00000050: f09f b5bd 3cfe 8dbd 0324 a03d 3aab 023e
00000060: 200f bf3e d0a6 943d 57f1 04be ba1b 243e
00000070: c026 30be 616c 693e 54e6 553e 2f0c a03c
00000080: 09c2 1f3e 08f8 b7bd 3bd3 81be 6c92 5dbe
00000090: c26a 223e 6861 5e3e 6092 6bbd 8bfe 42be
000000a0: bcaf 5d3e f22c 41be 415f 403d 76f4 3d3e
000000b0: 8012 77be 81df 6abd d8a2 9dbe 868f f93d
000000c0: f5c9 4c3e 6eb6 6bbe 0bd5 2a3d 845d 42bd
000000d0: 1573 8bbe 1317 fbbe 6138 343d 2315 d43d
000000e0: 24ff 39be 9c88 a53d ba6b 47be 0bea f6bd
000000f0: e4fb 92be 0e6d 4e3f 8eb6 6abd ed8e a9bd
00000100: 1477 3abd 6da1 c0bd ca5a f6be cbfc b63e
00000110: b9a0 c6be 25e4 d23f 4d83 543d 30cf b03e
00000120: 7534 793f 0f5e 2d3f 3934 ee3e 8873 7ebf
00000130: 80e4 0f3e 7909 7fbf bc59 5cbf ba5d cebe
00000140: a25a 57bc f685 cb3e d9f2 debe 2231 883f
00000150: e4d4 b7bd 0b62 0f3f f376 803f 0658 6dbc
00000160: 734b e6bd 0755 18bf 8db8 adbe c3fe 833e
00000170: 5252 193f b287 fcbe 6a6b 4abe ab30 31bd
00000180: dfff 51bf a156 3f3f 7298 b0be c696 463f
00000190: c7e8 843f 3918 68bf f4f1 32bf 2394 4abf
000001a0: 6531 79be 296c 5f3f ddc2 023f ccb4 29bf
000001b0: 3f39 ce3e 828f c2bc 776a aabe e210 163c
000001c0: a3f6 0dbf 57dd 933e 37c3 2bbe 1a7b 2ebf
000001d0: ddb6 f2be 54d1 103f 30e2 5c3e 0c36 52be
000001e0: b6ba dfbe 00af da3d 7dd3 7bbe d336 cfbd
000001f0: 73c7 85be 5b06 9bbe d6df 4a3f f999 303f
00000200: 080e 793e a516 1cbe 3c3c 0e3e 844b 14bd
00000210: 7adb 04bf a62e 1fbf 2c81 79bd c1fd 393e
00000220: 4465 223d d639 f0bc efdc 39bd b3ec febc
00000230: 63f4 40be 5200 e1be 8ed9 dc3e bdae dd3e
00000240: 468f 20be ad14 b03e d580 e4bd 5a09 4f3d
00000250: fef7 063d f4fa eebe cb38 eebe ddb1 423e
00000260: ea38 683e 4ffc 8e3e b743 15bf 6f90 893d
00000270: 04ea b03e a294 65bf 61f4 4ebf 7c72 88bd
00000280: 67f4 18bf f02f 0ebf 5860 2e3e 8920 5abe
00000290: 23eb 47be 8aca b3be 27d7 35bd 76d4 b8be
000002a0: cffa 50be 39df a2bd 25c7 bb3e 8391 adbe
000002b0: 0015 033d cd20 f53e 0ecc ba3d e445 85be
000002c0: e848 6d3e 7de5 823d a966 67be a816 24bd
000002d0: 92a7 a13e 02a5 9c3e ca1d 093f b0ee d43e
000002e0: 1516 b1be 6b26 04bd 22db 9bbe 5a70 09bf
000002f0: 0d3d b13e cc2e 04be 7874 98be db8f f5be
00000300: fe55 07bd acdc cebe 4e28 9fbe 8bfb bdbe
00000310: 1a26 a6bd 1ac2 703e 0963 24bd a9db f5bd
00000320: 7219 11bf 23d7 85bd 812e 573e 598f 62be
00000330: 8b6a bfbe 75a3 a23e 4651 9a3e 2515 583e
00000340: 4f0d 113f eafa 26bd fe2f 9bbe 9d52 c73e
00000350: 79fa 5f3e 2a14 713d 4201 a33e 6881 24be
00000360: 8ec7 543c e697 5abe 8d9b 6b3f 3763 a7bd
00000370: d65f 8abe f635 ae3d 9fe9 813e f7f9 483e
00000380: 2626 a1be 5925 c1be f864 823f 32e4 e23e
00000390: 4c0d 3f3e 8813 0abf abf6 f13c 107f 11bd
000003a0: ecad d2be abda 3a3e b67b 00be 0486 70bb
000003b0: dd65 b43e dc9b 2d3e d45c f53e a80e c9be
000003c0: 32e3 c6bc 8d41 e7bd 4443 7a3e 8689 b53e
000003d0: 43c4 2f3e 1f83 58bb 0750 9d3e 471b 65be
000003e0: 2233 12bb 6d4b 12bf a561 ee3d 4b51 23be
000003f0: 1f94 bfbd 23f6 92be 1ec8 b7be 332a 3ebd
