humun/assets/myPersonalityModel.tflite (tflite, 88552 bytes, 7 tensors)

model/dense_1/MatMul;model/dense_1/BiasAdd f4 [16]
00000000: cbc0 66bf 396f 6c3f de69 27bf a31c 75bd
00000010: 6065 833f d10c 913f 94f9 ccbf dcbf 24be
00000020: 5542 023f 68f7 513f edd4 d23e eb3c 603f
00000030: 0e8a adbf 66b5 99bf 43ca fe3e 3509 febd
-0.9013793 0.9235721 -0.65395916 -0.059841763 1.0265312 1.1332036 -1.6013665 -0.16088814
0.50882465 0.82018137 0.41178074 0.87592953 -1.3557756 -1.2008483 0.49763688 -0.124041

model/lstm/Read_2/ReadVariableOp f4 [256]
00000000: cebe e5bf 7f23 2cc0 ce1b e1bf ece1 2dc0
00000010: a0c9 61bf db32 9fbf e252 f9bf 280a 0fc0
00000020: 50c9 82bf 812b d7bf 4125 b2bf 731f 06c0
00000030: b703 4cc0 8a66 24c0 ae99 cebf 77d0 24be
00000040: 8bfa 54c0 a146 4abf 4285 97bf f69a 24c0
00000050: 9002 fabf 4ca0 0dc0 20bc c6bf b311 34c0
00000060: 1a49 28c0 87de 87bf 90a8 49c0 03d6 73bf
00000070: 6c32 3cc0 dcc7 e0bf a6bb f4bf 8f6c 48bf
00000080: 1969 10c0 7de8 c8bf b196 38c0 14fc d8bf
00000090: 5ca9 b4bf c5b4 28c0 0086 00c0 c7a3 29c0
000000a0: 585c e2bf 5927 48c0 274f ddbf 49c6 2dc0
000000b0: b516 29c0 271a 1ec0 e37b 1cc0 e274 0cc0
000000c0: 7d3b 1bc0 8d58 d8bf f8a5 11c0 625a 19c0
000000d0: b857 31c0 241c 2cc0 54c8 65bf 8d0a cebf
000000e0: 790e 28c0 0f9c eebf 9c72 f8bf 6506 0ec0
000000f0: 299a 80bf 060e 1cc0 e3d5 f2bf 24fb b0bf
00000100: 2a52 3d3f 1e1d 0340 9519 ab3f 9c9b 1840
00000110: c693 9abf 69c9 583f 2e77 8b3f a0dc e43f
00000120: cc78 a23f 9765 0dbe 409f 503f 4576 c43f
00000130: b0ea 8540 5ab0 2c40 04fc c93f 5c53 77c0
00000140: 9ea4 7540 001b 713f a932 813f 3852 5140
00000150: ce60 153f fc0a 1f40 4fb5 a93f f9b2 2940
00000160: 0004 a13f 8a96 773f 9a40 6c40 c144 cabe
00000170: a769 1640 a65f 1740 8ce6 c53f e2f5 963f
00000180: 7b95 0b40 2a2d 7a3f 9b28 4f40 01e2 d63f
00000190: 2055 8f3f ca45 2140 3d0e d83f 4278 4140
000001a0: 69c9 d63f 7063 7940 7e78 b43f 5424 be3f
000001b0: d010 1a40 6feb 1540 8a0c c63f 2e11 fb3f
000001c0: 2a30 1440 314f 523f 5f7e 3740 4414 fd3f
000001d0: e7af 2440 fd70 5240 1b73 503f e583 d23f
000001e0: 0a9e 6440 cf1c 0a40 a9ea 0640 29ad 5340
000001f0: 0dd9 c33e 86f8 da3f 51a2 a53f 1c45 a43f
00000200: 9fa4 36be 9609 003e ab10 fe3d fd1c dcbd
00000210: f5bd 503d 925b 173e 3d21 12bf f044 10bf
00000220: c119 9f3e c7d6 d4bd 9f37 78be 0175 03bd
00000230: 6c51 a6bd 25ae 12be 8b57 bcbe b42b 3e3e
00000240: 2b5a 5f3e a552 fe3e 2a12 bdbe 01e8 49bd
00000250: b372 c73d 9403 4d3e 7152 c4bd a7a9 e3be
00000260: cfd0 80be ffeb c13e c6b1 a0be 4b28 0fbf
00000270: 7eb8 42be dc05 233d 376b 953e e213 1c3d
00000280: 2ca9 f13e 8691 dcbe 57c1 cd3c a71f f13e
00000290: 2cfa 8e3d 5e9c 293e 7ebe 53be 1b3d f03d
000002a0: 88d6 bbbe 1d7f d4bd d13c 153e acb1 a2be
000002b0: 09c8 8d3e 4dde acbe 1e68 ad3e f904 9abd
000002c0: 3e79 b9bd ca9f 21be 374e 2a3e f8a9 013f
000002d0: 9f76 ba3d 7f41 9b3d 3d1a ae3e 2bd7 623f
000002e0: ec32 133f 9c51 88be 88ae ccbe e6f3 b8bc
000002f0: b2d3 803e b057 72be 0541 45be 3799 693e
00000300: 8c7e 2abf e088 88bf 9123 92bf 9ee9 cdbf
00000310: eec0 c33e 9086 88bf 97b6 bdbf e6e7 e1bf
00000320: f030 ecbf 210d dcbf db86 c1bf 0352 d9bf
00000330: a0cf a9bf ab05 89bf dc88 f0bf 5bf9 583c
00000340: d577 b8bf 7733 8fbf fde4 e8bf b22c 99bf
00000350: f888 afbf 23e4 01c0 f172 8abf f744 bdbf
00000360: d0ce 77bf 1b30 eebf 2048 acbf fde3 24bf
00000370: d14e 8abf a6f3 d1bf ce91 a2bf f90d 06c0
00000380: 691e d8bf f837 bebf 9e61 abbf e1c1 09c0
00000390: a6a1 e0bf fbd1 aebf 9b2a d1bf c38a d1bf
000003a0: 7c37 bdbf 926f dfbf 051e dfbf 7b6f b4bf
000003b0: 811a d9bf beee a8bf 3d4e f0bf 9452 e5bf
000003c0: 63bd d2bf 3977 47bf f7f7 11c0 241d a9bf
000003d0: 5876 f3bf c4bf ccbf 2adb f7bf e015 84bf
000003e0: 8528 a9bf 5f03 f9bf c9c6 a9bf 0a80 26c0
000003f0: 116f 71bf 0cdc b5bf daa3 59bf f257 e0bf
-1.7948854 -2.6896665 -1.758661 -2.7169142 -0.8819828 -1.2437395 -1.9478419 -2.234995
-1.0217686 -1.6810151 -1.3917619 -2.0956695 -3.1877267 -2.5687585 -1.6140649 -0.16095148
-3.327792 -0.7901402 -1.1837542 -2.571958 -1.9532032 -2.2129087 -1.5526161 -2.8135803
-2.6294618 -1.0614785 -3.1509132 -0.9524843 -2.9405775 -1.7560992 -1.9119766 -0.7829065
-2.2564147 -1.569595 -2.8841975 -1.6951928 -1.4114184 -2.6360333 -2.0081787 -2.6506212
-1.7684431 -3.1274016 -1.728978 -2.7152274 -2.642011 -2.4703462 -2.4450614 -2.194634
-2.4255059 -1.6902024 -2.275755 -2.3961415 -2.770979 -2.6892176 -0.897588 -1.609697
-2.6258833 -1.8641375 -1.9409976 -2.2191403 -1.0047046 -2.438356 -1.8971523 -1.3826642
0.739535 2.0486522 1.3367182 2.3844976 -1.2076347 0.8468233 1.0895746 1.787983
1.2693114 -0.13808285 0.81492996 1.5348593 4.1848984 2.6982636 1.5780034 -3.8644629
3.8381724 0.94181824 1.0093585 3.2706432 0.5835084 2.4850454 1.3258456 2.6515486
1.2579346 0.9671408 3.691443 -0.3950558 2.3501985 2.365213 1.5460982 1.1793787
2.1809986 0.97725165 3.2368534 1.6787721 1.1197853 2.5198846 1.6879345 3.022965
1.6780216 3.8966942 1.4099271 1.4854836 2.4072762 2.3424947 1.5472577 1.9614618
2.3154397 0.82152086 2.867088 1.977181 2.5732362 3.2881463 0.81425637 1.6446501
3.572146 2.1580083 2.1080725 3.3074439 0.38251534 1.7107093 1.294016 1.283359
-0.17836235 0.12503657 0.12405523 -0.107477166 0.050962407 0.14781025 -0.5708197 -0.5635519
0.31074336 -0.10392528 -0.24239968 -0.032094005 -0.08120999 -0.14324243 -0.3678554 0.18571359
0.2181174 0.49672428 -0.3692792 -0.04929352 0.09738674 0.20020896 -0.09586037 -0.44465372
-0.25159308 0.37875363 -0.3138563 -0.5592086 -0.1901569 0.03980051 0.2918336 0.0381049
0.4719938 -0.43079776 0.025116606 0.4709446 0.0698131 0.16563556 -0.20678136 0.11730405
-0.36687112 -0.103758074 0.14573981 -0.31776178 0.27691677 -0.33763352 0.33868498 -0.0752048
-0.09056328 -0.15783611 0.16631399 0.50649977 0.091046564 0.07580852 0.34004393 0.8860957
0.57499576 -0.26624763 -0.39976907 -0.022577237 0.2516151 -0.23666263 -0.19263084 0.22812353
-0.66599345 -1.0666771 -1.1417104 -1.6086919 0.3823313 -1.0666065 -1.4821347 -1.7648895
-1.8452435 -1.7191507 -1.511928 -1.6978153 -1.3266487 -1.0704855 -1.8791766 0.013243045
-1.441157 -1.1187581 -1.8194882 -1.1966765 -1.3713675 -2.0295494 -1.0816327 -1.4786671
-0.96799946 -1.8608431 -1.3459511 -0.6441038 -1.0805303 -1.6402481 -1.2700746 -2.0946028
-1.688428 -1.486083 -1.3389165 -2.1524584 -1.7549331 -1.3657831 -1.6341127 -1.6370472
-1.4782557 -1.7455924 -1.7431036 -1.4096521 -1.6961213 -1.3197858 -1.8773876 -1.7915826
-1.6464046 -0.77916294 -2.2807596 -1.3212018 -1.9020491 -1.5996022 -1.9363759 -1.0319176
-1.321549 -1.9454154 -1.326379 -2.601565 -0.943101 -1.4207778 -0.8501564 -1.7526839

model/dense/MatMul1 f4 [32, 64]
00000000: b722 c83f ed80 16be f2fc bf3e 99e8 d3bf
00000010: 9919 cc3e c252 dfbd 30ca c7be 6770 b5be
00000020: a576 65bf 0d26 2f3f a56a 763f 6f80 92bf
00000030: df41 ae3d 54d7 e1bf 2b5d 7abf 8dab 54bf
00000040: 2e82 d7bf 1ba7 4e3f e7f5 d6bf 9ce4 cdbf
00000050: 14c9 a13e 71c3 72bf 6a86 893f 28f1 06c0
00000060: 83bf 0440 6eec 9a3f f074 03c0 1b91 afbc
00000070: 31a5 ea3e a936 943f 89b8 21bf f284 98bf
00000080: 8abe c53f 07bc 6abf c7dc e83d 9d15 50be
00000090: 1bb0 fabe 98b9 7b3f c2d9 f53d 6c6a 11bf
000000a0: 7192 1dbf d849 adbe fd9f 8ebe 471d 2340
000000b0: f0d3 5abf d043 2040 9157 833f a6ba c6bf
000000c0: 2247 d6bf 1389 603d c23f 2f3e 69d9 8a3e
000000d0: fda7 943f b62a 683f c3f8 9f3e 5fad afbe
000000e0: 295c 5440 a9f7 83be 69f4 6ebe f6e3 d73f
000000f0: ac60 bd3d c226 b3bf 7632 afbf 3199 3bc0
00000100: f908 82bf 9c9c cc3e e996 01bf 4a0e 5840
00000110: 6667 9d3d df49 fd3e d257 92bd 0fcb c6be
00000120: 77c5 a6be fa08 65bf 88b7 053f 287c 52be
00000130: b964 25bf 9694 843f 3f75 6abe f437 103f
00000140: 7c8e 1ebf 5524 54bf 202a 66be 7bfd e93f
00000150: 9081 143f fea5 0fc0 4df9 c1bf 5f06 32c0
00000160: 7779 86be 4293 44be 57a1 6fbf 37cc 74bd
00000170: 7919 4c3f b934 b83f 5c71 8a3c 04aa b33f
00000180: 39e9 e23c e731 e13f 9c2f 413e f133 51be
00000190: 4961 a43f 9a75 803f 17da e7be 328f 2dbf
000001a0: bee1 863f b721 00c0 50f2 3640 a2ae cd3f
000001b0: c44f ac3f 4352 7740 9bd4 bfbf 3f91 713f
000001c0: 560d 7ebf e5ac 32bf 5ebf e93f e5d1 f23f
000001d0: ec77 22c0 2cb7 de3e fd57 393f c541 123f
000001e0: fb52 643f c6c0 17bf 1333 b6bf e6b8 86bf
000001f0: 650a 183f 02d8 3dbf 8cc3 06bf 7ea5 80be
00000200: 95b4 76bf 4e83 86be 5b86 69bf 798b 5e3f
00000210: 80a7 d7be ae53 b1bf 2a59 143f c6a6 1ebe
00000220: 5b8e c03e b545 a43f 9794 e03d 2384 3d3f
00000230: 990e 46bf 904c 30c0 c7e3 093f 3f86 8a3e
00000240: bd52 72bf ced5 1ebf 59cf 093f e6ad 8a3f
00000250: 8e98 1d3f e9ac e23f 3775 cebf a990 8c3f
00000260: 12e4 41bf 6945 d2bf a481 8bbe ed7f aa3d
00000270: 071c 04bf ec7e 8dbf ed69 2d40 479e 073f
00000280: 36b9 0a3f c696 b4bf d787 6c3d a1a2 163f
00000290: 49ac 913f b7bc 1bbf f106 db3d 7723 353f
000002a0: 5788 5b3e e3a2 d13f c0f5 c33f cef9 7bbf
000002b0: 2b74 aebf 3173 75bf 55de c83e f390 d53f
000002c0: b1ef d03d 9c5b 8d3f 4324 cd3d 3cc0 a63f
000002d0: b753 9f3e a6e4 45c0 b7cc 033f 20c5 d5bf
000002e0: 07a9 19be 4cbd 623f e72b 803f cb75 813e
000002f0: 36bd c5be c61c cfbd 86cf 00bf ba94 0a40
00000300: 3f2b 243f ee38 7dbe 1258 fc3d d63d 1fbf
00000310: c49a 52bf b82d f1be 3305 9b3f 6560 dc3d
00000320: 215d 7fbf 513b 95bf 1d79 1c3f 5154 3e40
00000330: 46d7 a43e 220e ea3d 03ca 85bf 45a1 8c3e
00000340: c313 5340 b26d f5bd 79b9 193f b025 edbf
00000350: a768 dcbf a773 573f 92ad bdbf 4a21 2940
00000360: e018 e23f a144 c1bc 78e9 ea3e f4a4 c8bf
00000370: 35ed 6dbf e555 0c3e ec03 93bd a65a 8d3f
00000380: dae5 14be fe70 373f cd8c af3e 2982 8abe
00000390: fb6d af3f dcfd afbe a348 ed3f 8860 833e
000003a0: f23d 093f ba4f c6bf 4dd6 5040 941d e1bf
000003b0: 735d e5bf a158 a0bf 1f82 813f 4538 acbf
000003c0: 4481 c23f 3349 c03f a76d 58c0 089f d0bf
000003d0: 2c79 46bf ef1f 05c0 0079 acbf bafa 8abf
000003e0: c368 b3bf 5dcb bc3f a921 c0bf f931 d7bf
000003f0: f6e7 2f3f 590c ff3f 2f06 c2bf 162e 873f
1.5635594 -0.14697619 0.3749767 -1.6555358 0.3986328 -0.10904457 -0.39021444 -0.3543732
-0.8963416 0.68417436 0.96256477 -1.1445445 0.08508658 -1.7643838 -0.97798413 -0.83074266
-1.6836603 0.8072373 -1.6793793 -1.6085391 0.31598723 -0.9482947 1.0744145 -2.108469
2.074189 1.2103403 -2.0540123 -0.021431496 0.45829156 1.1579181 -0.63172203 -1.1915572
1.5448773 -0.91693157 0.11370235 -0.20320745 -0.48962483 0.9833007 0.12004425 -0.5680301
-0.61551577 -0.338454 -0.27856436 2.548662 -0.8547964 2.504139 1.0261098 -1.552571
-1.6740458 0.054818224 0.17114165 0.27118996 1.1613766 0.9069017 0.31244478 -0.3431196
3.318125 -0.25774887 -0.23335423 1.6866443 0.09246954 -1.3996203 -1.3687274 -2.931225
-1.0158988 0.39963233 -0.50620896 3.3758721 0.07685737 0.49470422 -0.07145657 -0.38826796
-0.3257253 -0.8946682 0.5223317 -0.20555174 -0.64606816 1.0357845 -0.22896288 0.5633538
-0.61936164 -0.8286794 -0.22477007 1.8280481 0.58010197 -2.2445064 -1.5154206 -2.7816389
-0.26264545 -0.191968 -0.9360556 -0.059765067 0.7972637 1.439109 0.016899757 1.403626
0.0276991 1.7593354 0.18865818 -0.2042997 1.2842189 1.0035889 -0.45283577 -0.67796624
1.0537641 -2.0020578 2.8585396 1.6068919 1.3461843 3.8643959 -1.4986757 0.9436225
-0.992391 -0.69795066 1.8261526 1.8970305 -2.5385695 0.43499124 0.72399884 0.57131606
0.8918912 -0.59278524 -1.4234337 -1.0525177 0.5939086 -0.74157727 -0.5264213 -0.2512626
-0.96369296 -0.26272053 -0.91220635 0.8693157 -0.4211998 -1.3853662 0.57948554 -0.15493307
0.3760861 1.2833773 0.10965841 0.7402975 -0.77366024 -2.754673 0.53863186 0.27055547
-0.946575 -0.6204499 0.5383201 1.083432 0.61560905 1.7709018 -1.6129521 1.0981647
-0.7573863 -1.6427432 -0.27247345 0.08325181 -0.51605266 -1.1054358 2.7095902 0.5297589
0.5418886 -1.4108512 0.057746734 0.588419 1.1380702 -0.6083483 0.10694683 0.7075724
0.21438728 1.6377834 1.5309372 -0.98428047 -1.3629202 -0.95878893 0.39232126 1.668486
0.102019675 1.1043582 0.10016682 1.3027415 0.31118557 -3.0920806 0.51484245 -1.6700783
-0.15005885 0.88570094 1.0013398 0.2528518 -0.3862092 -0.1011291 -0.50316656 2.1653275
0.6412849 -0.24728748 0.123214856 -0.6220373 -0.82267404 -0.47105193 1.2110962 0.10760573
-0.9975148 -1.1658727 0.61122304 2.9738963 0.3219549 0.11428477 -1.0452274 0.2746679
3.2980812 -0.11983813 0.60048634 -1.8527126 -1.7219437 0.84160846 -1.4818594 2.6426568
1.7663841 -0.023592295 0.45881248 -1.567534 -0.92940074 0.13704641 -0.071784824 1.1043289
-0.14540806 0.7165679 0.3428711 -0.2705243 1.3705438 -0.34373367 1.8537792 0.25659585
0.53610146 -1.5493081 3.26308 -1.7587152 -1.7919143 -1.2527047 1.0117835 -1.3454672
1.5195699 1.5022339 -3.3816926 -1.6298532 -0.77528644 -2.080074 -1.3474426 -1.0857766
-1.4016346 1.4749562 -1.5010272 -1.6812125 0.6871332 1.9925643 -1.5158137 1.0560939

model/dense_1/MatMul f4 [16, 32]
00000000: 1253 f1be 3720 b5bc 00c0 16bf 8f64 eabc
00000010: d343 903d 610c b03e 1f63 6a3f 0721 773d
00000020: c930 743f ea6a 8abf b4ad a4be ad99 a3bf
00000030: 54a1 1b3f 0bcd 5b3f 9725 7cbe 3452 843e
00000040: d3f3 9a3e bcce d2bf bc10 a93e b5cd f0be
00000050: b11b 38bf 57a3 853f 1d7c f33e 4ce0 193f
00000060: 2e04 adbf d3c3 303f 9779 743f 70ae e2be
00000070: d314 803e 3d01 a3bf 2dfe f9be 2b6c e4bf
00000080: 14cc 9abe ef16 863e b458 93be 4656 9dbf
00000090: 287e 36bf d42c 903e 520e 9bbe b094 76bf
000000a0: ae64 603f 450e 72bf e7d0 0dbd 0b31 4f3f
000000b0: aab8 6ebd a73a 2d3e 8f25 acbe 64b2 813d
000000c0: f113 893e 86e6 ddbc 1a1a 8cbf 128e 0ebe
000000d0: 2a39 6f3d ebda cabe 0661 7dbc 790e 103f
000000e0: 8645 93bf 050c b5bf 3095 abbf 1154 b33e
000000f0: ff54 8ebf dcd2 92bf 2eae 9dbe 87b1 573f
00000100: ddab 52bf 88c1 13bf 24d7 473f 0b94 953e
00000110: 46e9 7d3e 7d5a 39bf a0f5 bdbe a849 bfbf
00000120: 054c 53bf 0c30 903c 89e4 63be 3d03 8c3f
00000130: a4b4 0abf 20b3 ecbf 058c 7fbf ab5f a63f
00000140: 471f 163f 6e22 46bd 293c d13e bef1 9bbe
00000150: 5fa8 6d3c 1e44 30bf cac8 24bf 1c18 61bf
00000160: e07c 903d 1811 243e 9bda 5bbe 69c2 f3be
00000170: 61e9 f53e 2996 8ebf 3866 ac3e 3b9e 873d
00000180: ee2d ce3b 463f 2ebf 60b8 09bf c64a 9cbd
00000190: 103d cfbe c3c5 be3e 7db4 bbbe 71c0 6bbe
000001a0: 80ce 013f 6da0 d3bf 56fc 883d 4f3a fd3d
000001b0: ecb3 8b3f ba7a 513f a0cc f03e 30ca bdbc
000001c0: bd38 87be a954 be3f f4c7 5dbf cf62 433f
000001d0: 4cfa e63e 2a15 1bbf daf6 1cbf ef9a 9b3f
000001e0: 3697 903f df66 a13e 356e 2cbf 7f92 acbe
000001f0: 0595 693f 401b 413e ae12 9f3d 7a92 5dbf
00000200: d569 063e 8443 973e f25c b2be d7c8 f93f
00000210: 48b6 883e 93cb 6dbe 4d25 6d3d 67c6 993f
00000220: 879f 18bf b4b0 713e 0779 823e 835a 003f
00000230: 5fad 273e 7757 82bd 2b15 4d3f 0bfb 46bf
00000240: 108e f7bd 0f2c 983f 7c44 2d3f aff5 35be
00000250: 4747 903e 7e9c 763f 4294 c9be 7dc6 2c3f
00000260: 2122 ccbf 5f93 e43d ee9e a5bf d19a 143e
00000270: bd62 82bf 6268 d7be b2dc 4dbf f1e6 2d3e
00000280: e3bd 8bbe bd43 983e 01b5 9fbd 34f6 083f
00000290: 76dc 14bf 0242 663e 272c c73f 6466 253f
000002a0: 0807 d73e a2be 033f 4c1e d83c aafb 33bf
000002b0: 36c8 32be f278 a4bf 8dd7 4bbe d987 5c3f
000002c0: e740 943e 5e61 84bd 231a 54bc 7a13 293f
000002d0: fd77 853e 3cdc a63f 8a75 7d3f e332 f4bc
000002e0: 8ae4 363f af46 4ebf f6a4 4bbf cd53 34bf
000002f0: 09fb 813f 5da7 0f3f 02a6 5dbe dcf8 36bf
00000300: a48b eb3e 13d5 a6bf d2b3 2ebf 7d5b aebe
00000310: 36fb 08bf 5518 66bf 9b81 84be 5b5e 54bf
00000320: aa6e 213d da27 663f c756 103e 2c7c 893f
00000330: 42b0 5bbf 5252 a83f beaf d53e b09e 50bf
00000340: 03c2 e63d 76bc d13e 108e 103f 4cf1 2f3f
00000350: 7bd2 89bf 077a ab3e d776 0bbf fbec 06bf
00000360: ee0b 403f 3e80 90be f816 433f 7f98 99bf
00000370: d701 16c0 1143 623e 6401 063f 2957 32bf
00000380: 150c 5dbf eede b33e 49c6 25bf c3bd 28bf
00000390: 5b61 8c3e fcd7 583f 2830 f5bf 01b2 aebe
000003a0: f73a 283f b034 343f ae2f b23e c119 41bf
000003b0: 215b 533d 066b 12bf 783c f43e f4f1 8d3f
000003c0: f143 97bd 2412 ce3f 431a c73f 6718 23bf
000003d0: 0ee5 90be efec 673e 0c65 543f fe1e 063f
000003e0: 0a8d ec3e 880b b63e ccef 153f 1777 0f3f
000003f0: 9712 39bf 5966 0fbf bd41 173f 4830 5cbf
-0.4713369 -0.022110088 -0.5888672 -0.028612403 0.070441864 0.34384444 0.91557497 0.06033423
0.9538694 -1.0813878 -0.32163775 -1.2781273 0.6079304 0.85859746 -0.24623714 0.25843966
0.30264148 -1.646934 0.3302058 -0.47031942 -0.71917254 1.0440472 0.47555628 0.60107875
-1.35169 0.69048804 0.9549803 -0.4427371 0.25015888 -1.2734753 -0.48826733 -1.784551
-0.30233824 0.26189372 -0.28778613 -1.2291954 -0.7128625 0.281592 -0.30284363 -0.9632063
0.87653625 -0.94553024 -0.034623053 0.8093421 -0.058281578 0.16916905 -0.33622405 0.063328534
0.26773027 -0.027087461 -1.0945466 -0.13921383 0.058404125 -0.39620146 -0.015465027 0.56272084
-1.1505592 -1.4144293 -1.3404903 0.35025075 -1.1119689 -1.1470599 -0.3079695 0.8425526
-0.8229349 -0.5771718 0.78062654 0.2921451 0.24796018 -0.724037 -0.3710146 -1.4944353
-0.8253787 0.017601036 -0.22255148 1.0938488 -0.54181886 -1.8492165 -0.9982303 1.2997946
0.58641475 -0.04837268 0.4086621 -0.30457872 0.014505475 -0.6885394 -0.6436888 -0.87927413
0.07055068 0.16022146 -0.2147011 -0.4760926 0.48029616 -1.1139575 0.33671737 0.06621977
0.0062920963 -0.680653 -0.5379696 -0.076314494 -0.40476274 0.37260255 -0.3666114 -0.2302263
0.5070572 -1.6533333 0.06688754 0.12364637 1.0914283 0.8182789 0.47031116 -0.0231677
-0.26410475 1.4869586 -0.8663323 0.76322645 0.45112836 -0.6057917 -0.61314166 1.2156657
1.1296146 0.31523797 -0.6735566 -0.33705518 0.9124301 0.18858051 0.07767235 -0.8655163
0.13126309 0.29543698 -0.34836537 1.9514416 0.2670157 -0.23222189 0.0578969 1.2013673
-0.5961842 0.23602563 0.25482962 0.5013811 0.1637473 -0.06364339 0.80110425 -0.7772681
-0.12087643 1.1888446 0.67682624 -0.17769502 0.2817938 0.9633254 -0.39370924 0.6749037
-1.5947915 0.11160921 -1.2939126 0.14512183 -1.0186383 -0.42071825 -0.8041488 0.16982628
-0.2729331 0.2973918 -0.07798196 0.53500676 -0.58148897 0.22486117 1.5560349 0.6460936
0.41997552 0.5146276 0.026381634 -0.70305884 -0.17459187 -1.284941 -0.19906445 0.8614479
0.28955767 -0.06463884 -0.012945685 0.66045344 0.26068106 1.303596 0.99007475 -0.02980942
0.7144247 -0.80576605 -0.79548585 -0.7044037 1.0154735 0.5611475 -0.21645358 -0.7147348
0.46004975 -1.3033775 -0.68243134 -0.34054175 -0.5350832 -0.8988088 -0.2588013 -0.82956475
0.039412178 0.8990456 0.14095603 1.0741019 -0.85815823 1.3150122 0.41735643 -0.8149214
0.112674735 0.40964097 0.5646677 0.68727565 -1.0767359 0.33491537 -0.5447821 -0.52705353
0.75018203 -0.2822284 0.7620692 -1.1999663 -2.3438623 0.22095896 0.5234587 -0.69664246
-0.8634656 0.3513102 -0.64755684 -0.65914553 0.27418026 0.84704566 -1.9155321 -0.3412018
0.65714973 0.70392895 0.34802002 -0.7542992 0.05160058 -0.57194555 0.47702384 1.1089463
-0.07386006 1.6099286 1.555489 -0.6370911 -0.28299755 0.22648977 0.82966685 0.5239104
0.46201354 0.35555673 0.58569026 0.5604109 -0.7229399 -0.56015545 0.59084684 -0.8601117

model/lstm/Read_2/ReadVariableOp1 f4 [256]
00000000: cebe e5bf 7f23 2cc0 ce1b e1bf ece1 2dc0
00000010: a0c9 61bf db32 9fbf e252 f9bf 280a 0fc0
00000020: 50c9 82bf 812b d7bf 4125 b2bf 731f 06c0
00000030: b703 4cc0 8a66 24c0 ae99 cebf 77d0 24be
00000040: 8bfa 54c0 a146 4abf 4285 97bf f69a 24c0
00000050: 9002 fabf 4ca0 0dc0 20bc c6bf b311 34c0
00000060: 1a49 28c0 87de 87bf 90a8 49c0 03d6 73bf
00000070: 6c32 3cc0 dcc7 e0bf a6bb f4bf 8f6c 48bf
00000080: 1969 10c0 7de8 c8bf b196 38c0 14fc d8bf
00000090: 5ca9 b4bf c5b4 28c0 0086 00c0 c7a3 29c0
000000a0: 585c e2bf 5927 48c0 274f ddbf 49c6 2dc0
000000b0: b516 29c0 271a 1ec0 e37b 1cc0 e274 0cc0
000000c0: 7d3b 1bc0 8d58 d8bf f8a5 11c0 625a 19c0
000000d0: b857 31c0 241c 2cc0 54c8 65bf 8d0a cebf
000000e0: 790e 28c0 0f9c eebf 9c72 f8bf 6506 0ec0
000000f0: 299a 80bf 060e 1cc0 e3d5 f2bf 24fb b0bf
00000100: 2a52 3d3f 1e1d 0340 9519 ab3f 9c9b 1840
00000110: c693 9abf 69c9 583f 2e77 8b3f a0dc e43f
00000120: cc78 a23f 9765 0dbe 409f 503f 4576 c43f
00000130: b0ea 8540 5ab0 2c40 04fc c93f 5c53 77c0
00000140: 9ea4 7540 001b 713f a932 813f 3852 5140
00000150: ce60 153f fc0a 1f40 4fb5 a93f f9b2 2940
00000160: 0004 a13f 8a96 773f 9a40 6c40 c144 cabe
00000170: a769 1640 a65f 1740 8ce6 c53f e2f5 963f
00000180: 7b95 0b40 2a2d 7a3f 9b28 4f40 01e2 d63f
00000190: 2055 8f3f ca45 2140 3d0e d83f 4278 4140
000001a0: 69c9 d63f 7063 7940 7e78 b43f 5424 be3f
000001b0: d010 1a40 6feb 1540 8a0c c63f 2e11 fb3f
000001c0: 2a30 1440 314f 523f 5f7e 3740 4414 fd3f
000001d0: e7af 2440 fd70 5240 1b73 503f e583 d23f
000001e0: 0a9e 6440 cf1c 0a40 a9ea 0640 29ad 5340
000001f0: 0dd9 c33e 86f8 da3f 51a2 a53f 1c45 a43f
00000200: 9fa4 36be 9609 003e ab10 fe3d fd1c dcbd
00000210: f5bd 503d 925b 173e 3d21 12bf f044 10bf
00000220: c119 9f3e c7d6 d4bd 9f37 78be 0175 03bd
00000230: 6c51 a6bd 25ae 12be 8b57 bcbe b42b 3e3e
00000240: 2b5a 5f3e a552 fe3e 2a12 bdbe 01e8 49bd
00000250: b372 c73d 9403 4d3e 7152 c4bd a7a9 e3be
00000260: cfd0 80be ffeb c13e c6b1 a0be 4b28 0fbf
00000270: 7eb8 42be dc05 233d 376b 953e e213 1c3d
00000280: 2ca9 f13e 8691 dcbe 57c1 cd3c a71f f13e
00000290: 2cfa 8e3d 5e9c 293e 7ebe 53be 1b3d f03d
000002a0: 88d6 bbbe 1d7f d4bd d13c 153e acb1 a2be
000002b0: 09c8 8d3e 4dde acbe 1e68 ad3e f904 9abd
000002c0: 3e79 b9bd ca9f 21be 374e 2a3e f8a9 013f
000002d0: 9f76 ba3d 7f41 9b3d 3d1a ae3e 2bd7 623f
000002e0: ec32 133f 9c51 88be 88ae ccbe e6f3 b8bc
000002f0: b2d3 803e b057 72be 0541 45be 3799 693e
00000300: 8c7e 2abf e088 88bf 9123 92bf 9ee9 cdbf
00000310: eec0 c33e 9086 88bf 97b6 bdbf e6e7 e1bf
00000320: f030 ecbf 210d dcbf db86 c1bf 0352 d9bf
00000330: a0cf a9bf ab05 89bf dc88 f0bf 5bf9 583c
00000340: d577 b8bf 7733 8fbf fde4 e8bf b22c 99bf
00000350: f888 afbf 23e4 01c0 f172 8abf f744 bdbf
00000360: d0ce 77bf 1b30 eebf 2048 acbf fde3 24bf
00000370: d14e 8abf a6f3 d1bf ce91 a2bf f90d 06c0
00000380: 691e d8bf f837 bebf 9e61 abbf e1c1 09c0
00000390: a6a1 e0bf fbd1 aebf 9b2a d1bf c38a d1bf
000003a0: 7c37 bdbf 926f dfbf 051e dfbf 7b6f b4bf
000003b0: 811a d9bf beee a8bf 3d4e f0bf 9452 e5bf
000003c0: 63bd d2bf 3977 47bf f7f7 11c0 241d a9bf
000003d0: 5876 f3bf c4bf ccbf 2adb f7bf e015 84bf
000003e0: 8528 a9bf 5f03 f9bf c9c6 a9bf 0a80 26c0
000003f0: 116f 71bf 0cdc b5bf daa3 59bf f257 e0bf
-1.7948854 -2.6896665 -1.758661 -2.7169142 -0.8819828 -1.2437395 -1.9478419 -2.234995
-1.0217686 -1.6810151 -1.3917619 -2.0956695 -3.1877267 -2.5687585 -1.6140649 -0.16095148
-3.327792 -0.7901402 -1.1837542 -2.571958 -1.9532032 -2.2129087 -1.5526161 -2.8135803
-2.6294618 -1.0614785 -3.1509132 -0.9524843 -2.9405775 -1.7560992 -1.9119766 -0.7829065
-2.2564147 -1.569595 -2.8841975 -1.6951928 -1.4114184 -2.6360333 -2.0081787 -2.6506212
-1.7684431 -3.1274016 -1.728978 -2.7152274 -2.642011 -2.4703462 -2.4450614 -2.194634
-2.4255059 -1.6902024 -2.275755 -2.3961415 -2.770979 -2.6892176 -0.897588 -1.609697
-2.6258833 -1.8641375 -1.9409976 -2.2191403 -1.0047046 -2.438356 -1.8971523 -1.3826642
0.739535 2.0486522 1.3367182 2.3844976 -1.2076347 0.8468233 1.0895746 1.787983
1.2693114 -0.13808285 0.81492996 1.5348593 4.1848984 2.6982636 1.5780034 -3.8644629
3.8381724 0.94181824 1.0093585 3.2706432 0.5835084 2.4850454 1.3258456 2.6515486
1.2579346 0.9671408 3.691443 -0.3950558 2.3501985 2.365213 1.5460982 1.1793787
2.1809986 0.97725165 3.2368534 1.6787721 1.1197853 2.5198846 1.6879345 3.022965
1.6780216 3.8966942 1.4099271 1.4854836 2.4072762 2.3424947 1.5472577 1.9614618
2.3154397 0.82152086 2.867088 1.977181 2.5732362 3.2881463 0.81425637 1.6446501
3.572146 2.1580083 2.1080725 3.3074439 0.38251534 1.7107093 1.294016 1.283359
-0.17836235 0.12503657 0.12405523 -0.107477166 0.050962407 0.14781025 -0.5708197 -0.5635519
0.31074336 -0.10392528 -0.24239968 -0.032094005 -0.08120999 -0.14324243 -0.3678554 0.18571359
0.2181174 0.49672428 -0.3692792 -0.04929352 0.09738674 0.20020896 -0.09586037 -0.44465372
-0.25159308 0.37875363 -0.3138563 -0.5592086 -0.1901569 0.03980051 0.2918336 0.0381049
0.4719938 -0.43079776 0.025116606 0.4709446 0.0698131 0.16563556 -0.20678136 0.11730405
-0.36687112 -0.103758074 0.14573981 -0.31776178 0.27691677 -0.33763352 0.33868498 -0.0752048
-0.09056328 -0.15783611 0.16631399 0.50649977 0.091046564 0.07580852 0.34004393 0.8860957
0.57499576 -0.26624763 -0.39976907 -0.022577237 0.2516151 -0.23666263 -0.19263084 0.22812353
-0.66599345 -1.0666771 -1.1417104 -1.6086919 0.3823313 -1.0666065 -1.4821347 -1.7648895
-1.8452435 -1.7191507 -1.511928 -1.6978153 -1.3266487 -1.0704855 -1.8791766 0.013243045
-1.441157 -1.1187581 -1.8194882 -1.1966765 -1.3713675 -2.0295494 -1.0816327 -1.4786671
-0.96799946 -1.8608431 -1.3459511 -0.6441038 -1.0805303 -1.6402481 -1.2700746 -2.0946028
-1.688428 -1.486083 -1.3389165 -2.1524584 -1.7549331 -1.3657831 -1.6341127 -1.6370472
-1.4782557 -1.7455924 -1.7431036 -1.4096521 -1.6961213 -1.3197858 -1.8773876 -1.7915826
-1.6464046 -0.77916294 -2.2807596 -1.3212018 -1.9020491 -1.5996022 -1.9363759 -1.0319176
-1.321549 -1.9454154 -1.326379 -2.601565 -0.943101 -1.4207778 -0.8501564 -1.7526839

while/MatMul_1 f4 [256, 64]
00000000: 4702 c33e 1eb3 0940 deff 423f 7c90 25bf
00000010: e6ee c3be e312 2bbf bd19 1f3f 8ed2 303f
00000020: 8599 9c3f 2976 f63e 04c4 86be 7bf9 15bf
00000030: db50 a23f f101 4bbf 763e 4a3f 46e8 8c3f
00000040: 5993 28bf 94c5 0fbe a993 afbd 4f42 ab3f
00000050: 8445 a03f 6668 9f3f de20 6bbf c5e0 d8be
00000060: 5d23 9a3d 5d68 cc3c 5fe3 5d3f 73ce ac3f
00000070: aafe 86bf 813f 0abf f1e8 0cc0 5878 603f
00000080: 08fa e3bf 80b8 393f 0cba 193e 7734 2fbf
00000090: 3e19 3f3e 7cda 84bf a3b4 dabf a21f e93f
000000a0: 4937 0bbf ed14 64be db25 a0be da35 1b3f
000000b0: f9c5 f6bf df06 cbbf f3f3 183e b915 c4be
000000c0: 413e a8bf dcdd f03e 72c3 4fbf 53ea 9dbf
000000d0: 77c7 5ebf f934 be3f 2ac7 f3be a9f5 4b3f
000000e0: 6176 8cbe 4bb4 6dbe bc48 eebf 0dfa bdbf
000000f0: 1e7c 0640 924a 673f a5e9 883e d935 ad3e
00000100: e5c8 953f b620 923f 28c9 ddbf 597d 38bd
00000110: 3ae4 523e 2b11 1a40 1611 1f40 f9a1 1640
00000120: 0ccd 98be d92b 3e3e 0791 c6be 489e ae3f
00000130: 02c7 19bf bd82 fdbf bcc6 3240 8162 d13f
00000140: 69a1 973f bbcd b9bd fa01 17bf 964c 2b3f
00000150: 96bf 1fbf b815 28bf b4c0 613f 3b93 9f3e
00000160: 3976 203b ea0a 3dc0 c124 b63f 6d9c ddbd
00000170: e033 a43f 19a3 48bf 5a1a 90be 6b65 29c0
00000180: ee3c a9bb 4555 e4be 0810 bf3e 0236 9abe
00000190: 20c9 b63e bc82 5dc0 a14a 833e dae1 793f
000001a0: 8eb3 e33f b832 e4bd 955a 3fc0 e604 dcbd
000001b0: e55f 06bf c381 2f3f d70a f8be b074 cf3e
000001c0: c74d 6a3f bd08 d33f 9c53 e03d ec49 b5bd
000001d0: e105 263e c55a db3f eb79 afbe 49aa 76be
000001e0: bac3 973f f7fd 4f3f 67b3 8dbf f5d7 fcbe
000001f0: 010b 8ebf 7187 90bd 24c0 743e 7b63 693f
00000200: 7638 c63d eee7 f4be 0600 443f 1965 0abf
00000210: cc32 a13f 2d66 1c3f 6535 c5bf 2ae4 1040
00000220: 6805 8fbe 1581 97bf e212 2f3e db5a cbbd
00000230: 1337 bd3d 89d9 703f 3fa5 483f 770a bcbd
00000240: 7e32 94bf 185c 23bb 0be8 28bf c5d1 513f
00000250: 6142 ab3f a970 c6be 9b16 ce3f ef4c 553f
00000260: 1da7 f23f 9733 2540 3e2f f73d 904f a4bf
00000270: 0b55 44bf 15c9 e5be eedc 1140 2187 d53f
00000280: 65f2 41c0 554b 7fbf c196 2e3f 9553 b83e
00000290: b712 8940 467c 6ebf 2eb6 19be 6fdf dc3f
000002a0: 6477 383f 7537 c63f ba7f 36bf b71a 283f
000002b0: 7b9c cb3e 83ad 333f 2cda edbf 0dd6 e33f
000002c0: 390e 9abf d248 92be c105 09bf e1dc febf
000002d0: 861c d63f 0a85 76bf 1df1 eb3f 2740 423f
000002e0: 537a 013f 3961 d8bf f33e aebf e20c 3bbf
000002f0: 7754 b33f 2cd8 0740 15cf 83bf 419d 61bf
00000300: 8694 b6bf a71f 2abf b274 26bf eacb a3bf
00000310: 8944 1a40 9a5f ca3f ed35 5240 d53a eb3e
00000320: 05aa c2bf 121b ba3e 6c91 a23f 2e3a 8bbf
00000330: c4ca 4f40 4980 5e3f fda3 8b3f 9d23 36c0
00000340: d7e7 483e be31 4dbf 338a 20c0 9253 c63f
00000350: e337 0240 2a03 5d3f 7319 793f 3193 8e3f
00000360: 5165 623f 34d4 763f 3117 e63f a5fc 0fc0
00000370: 31d6 24c0 0f02 1ec0 bbac 7dbe 91d8 153f
00000380: 9852 aa3d 8f5f cdbf b7a2 933f 1ec0 0dc0
00000390: b909 dc3f ac78 74c0 ab5e 2d40 b87c f53f
000003a0: 246e fdbe db0c 8b3f 6574 bebf 3211 f53e
000003b0: 4320 96bf a22c 903f d694 9c3f e76e 8ebf
000003c0: d752 1e40 5c31 c53d b50e 0540 136d aabf
000003d0: dfb2 95bf c820 0040 0796 7040 c828 4e3f
000003e0: 82f7 b93e ec2f 193f 1973 68bf 6a92 9cc0
000003f0: 35a7 c0bf e107 663d fd7c 1540 f995 a73f
0.38087675 2.1515574 0.7617167 -0.6467359 -0.38268203 -0.66825694 0.6214865 0.6907128
1.223435 0.48137024 -0.26321423 -0.585838 1.2680925 -0.7929984 0.7900156 1.1008384
-0.65849835 -0.14040214 -0.08573086 1.3379611 1.2521214 1.2453735 -0.91847026 -0.42358986
0.07526276 0.024952108 0.86675066 1.3500503 -1.0546467 -0.5400315 -2.2017176 0.8768363
-1.7810678 0.7254715 0.15012378 -0.6843943 0.18661973 -1.0379176 -1.7086376 1.8212779
-0.54381233 -0.22273608 -0.3127888 0.60629046 -1.9279166 -1.5861472 0.14936809 -0.38297823
-1.3143998 0.47044265 -0.811576 -1.2337135 -0.8702311 1.4859916 -0.47612888 0.7967172
-0.27434066 -0.23213308 -1.8615947 -1.4841934 2.1013255 0.9034816 0.26740757 0.33830145
1.1701933 1.1416233 -1.7327013 -0.045041416 0.20594874 2.4072978 2.4854178 2.353636
-0.29843938 0.18571414 -0.38782522 1.3642054 -0.60069287 -1.9805523 2.7933798 1.6358186
1.1846133 -0.09072443 -0.5898739 0.66913736 -0.6240171 -0.6565814 0.88184667 0.31167015
0.0024484529 -2.9537911 1.4229966 -0.108208515 1.2828331 -0.7837387 -0.28145105 -2.646815
-0.005164734 -0.44596305 0.37316918 -0.3011933 0.3570032 -3.4611044 0.25642875 0.9761025
1.7789171 -0.11142486 -2.9899037 -0.10743122 -0.52490073 0.68557376 -0.4844577 0.40518713
0.9152493 1.6487042 0.10953447 -0.0885199 0.1621318 1.7137076 -0.34272704 -0.24088396
1.1856606 0.81246895 -1.1070374 -0.49383512 -1.1097108 -0.070570834 0.23901421 0.9116742
0.09678738 -0.47833198 0.76562536 -0.5406051 1.2593627 0.6109341 -1.540692 2.263926
-0.27933812 -1.1836268 0.17097047 -0.09929439 0.0923902 0.9408193 0.78377146 -0.091816835
-1.1577909 -0.0024926718 -0.6597907 0.8196071 1.3379632 -0.38757828 1.6100649 0.83320516
1.8957249 2.5812738 0.120695576 -1.283678 -0.76692265 -0.44879976 2.2791095 1.6681863
-3.0304196 -0.9972432 0.6819878 0.36001268 4.2835345 -0.93158376 -0.15010902 1.7255687
0.72057176 1.5485674 -0.71288645 0.65665764 0.39767823 0.7018663 -1.8582206 1.7799698
-1.203559 -0.28571182 -0.53524405 -1.9911157 1.6727455 -0.9629675 1.8432957 0.7587914
0.50577277 -1.690467 -1.361296 -0.7306653 1.4010152 2.122569 -1.0297571 -0.88130575
-1.4264076 -0.6645455 -0.6502181 -1.2796605 2.410433 1.5810425 3.2845414 0.45943323
-1.5208136 0.36348778 1.2700629 -1.087713 3.2467508 0.869145 1.090942 -2.8459237
0.1961969 -0.80154026 -2.508435 1.5494254 2.034661 0.8633295 0.9730446 1.1138669
0.88435847 0.96417546 1.7975827 -2.2497952 -2.5755732 -2.4688756 -0.24772923 0.5853358
0.08316535 -1.6044787 1.1534032 -2.214851 1.7190467 -3.8198652 2.708903 1.9178686
-0.49498093 1.0863298 -1.4879271 0.4786468 -1.1728595 1.1263621 1.2232921 -1.1127595
2.4738061 0.09628555 2.0790226 -1.3314537 -1.1695212 2.0020008 3.759157 0.8053098
0.36321646 0.5983875 -0.90800625 -4.892873 -1.5051028 0.056159858 2.3357537 1.3092643

while/MatMul f4 [256, 1]
00000000: f226 483e 0e3f dabe 10fc 883c 7b73 2f3e
00000010: b23d a9bd b2a6 613d 2a38 503e 2420 373e
00000020: c59e 07be 4d14 e5be d598 b43d eef5 2f3e
00000030: a399 0d3b b15e f03d b6e5 0d3e 9ea8 5abe
00000040: 83aa 51bd ce59 38be 8707 953d 62da 543e
00000050: 486e 57be deee 113e d2d6 0b3e 3cdc e9bd
00000060: 52c1 14be ea1a 133d 1c42 14be eea9 083f
00000070: 07c5 82bd 478c d7bd f82e ed3d a0e4 2bbe
00000080: 6a52 963d 93bc cc3e e176 9dbd 429c 87bf
00000090: e42c babd abd2 64be 5a72 b73d 1031 2e3d
000000a0: f7b8 debc be90 a53d ae16 c2be 3dcc 63be
000000b0: 09f6 76be e974 d73d 862b 83be 1c34 973e
000000c0: fb93 77be de0e 8b3e 2fe6 ff3e 5567 8e3d
000000d0: c53b 2c3e 771f fa3c 1751 b23e d4f0 cb3a
000000e0: a161 a6be 9a93 1bbe b478 d3bd 1747 1cbc
000000f0: 5a50 033d 45a2 8cbe 3c87 0a3e 6d7c 743c
00000100: 8392 8abe fc66 9d3d 1374 48bf b6e0 21bf
00000110: ce2c 8f3e 69bf f33e b2e0 9fbf a08a 3e3e
00000120: df05 513f 4151 f3be 11f3 843e 241f 8ebe
00000130: ca2d 2c3d 0ffc 1ebf 1ae7 9cbe 7b1d 3fbe
00000140: 5752 853d 941a 803e c159 39bf 8c95 f1bd
00000150: fb5c 753f 43ea d53e 9cad 953e f9a8 cd3b
00000160: 88e2 76bd 9fd2 003e 4b22 b0be 5be8 d73e
00000170: b9d6 aa3e b3e8 0b3e d027 dc3a 0640 3cbf
00000180: 4dda b8be b874 ef3e 4535 c5bd e36b c93f
00000190: 94fe 5a3f 6887 0fbe 94a5 073f 6f20 a0bd
000001a0: b807 223f 1c93 853d 9978 f1be 850f 7f3e
000001b0: 893c abbe 3cd0 bf3e c120 8dbc cdf2 fbbe
000001c0: 73d2 eabe 4ab1 963e 2f65 f7be 80d5 c8be
000001d0: d154 5dbf 58ab 8abe 724b b5bf 5622 b3be
000001e0: b011 213f 1916 873e f602 e83e 5673 35bf
000001f0: d83c 593e 41e8 bd3e 8457 ea3e b202 e3be
00000200: b249 9e3d fdf8 f9be 2942 71be 0c33 1a3f
00000210: cb8b 2fbe c972 81be f379 523f 5cae 103f
00000220: a8ca 0a3f 7131 1bbf 30fe 0cbf cf49 04bf
00000230: 1a5f 823e 137c 613e ef69 d03e 682f 583e
00000240: f530 ee3e 466d 8cbe 68b5 d43e caf3 543e
00000250: 4dd1 b13e b732 0f3e 6ad9 94be 4a24 d2bc
00000260: 4556 0a3f e6cd 30bd f151 763b 27b5 813d
00000270: b3bc 89be 6c90 d4be 699f fdbc 441b bf3e
00000280: 3895 883a f50c bf3e 0f07 7b3e 43e1 e73e
00000290: 683b ccbe ff80 763c ecf0 65be 457b bebe
000002a0: adc6 74be 2411 1f3f f583 273e 05d1 a93d
000002b0: 590e 05bf fd95 b8bc f515 e93c 9ae6 ec3c
000002c0: a6b4 9ebe 5930 7a3d ba1e a43c 083e 193d
000002d0: 163c 0fbf c69d e6be b355 c43e 1060 89bd
000002e0: 1f24 e13d 223a bcbe 27cf c3bd d1e9 bdbe
000002f0: c350 ce3e b0c8 103c 9c30 403d 641a 92be
00000300: 5a4f 9cbe 7bd3 4b3f f557 96be 1df6 ee3d
00000310: d49c d63e d53e 78be 62e2 8d3d 3ee5 6cbd
00000320: b052 af3e 1592 2abd f78d 2ebe 75d7 c3be
00000330: d2de 903d 6255 803e 379a d1bd afea 613e
00000340: 6ace ea3d 940b 793e ac94 82be 959c c6be
00000350: d973 1b3f 18d4 53bd 29ce aebe 881f 683e
00000360: 8cf0 043f 87be 10be 7be3 a13e 5945 90be
00000370: 5462 ecbe d91e bb3d 888d 4abd 04dc 82bd
00000380: 8b57 e3be c6e9 3abf fae1 a9bd 563a e53b
00000390: b65c bcbc 40ce 723e 62e9 a03d 2192 163e
000003a0: 6ab8 2ebe d0ca 75be 2341 b43e 4df4 493f
000003b0: d175 d13e f80e d8be d883 593f ed75 0dbe
000003c0: 6bfc f63e f90c 48bf 8118 743d cd23 ea3d
000003d0: 839b 25bc 7869 10be df9e 76be 9b99 5e3d
000003e0: 7d8d 4c3e 0b35 223e d804 b63e 0ae7 17bd
000003f0: a8e1 12be 0387 a23e 669f 11bf e115 923c
0.19546106 -0.42626232 0.016721755 0.17133896 -0.082637206 0.055090614 0.20333925 0.17883354
-0.1324416 -0.4474205 0.08818213 0.17183658 0.0021606467 0.11736811 0.13857159 -0.21353385
-0.051188003 -0.18003008 0.07276826 0.20786431 -0.21038163 0.14251277 0.13656166 -0.114189595
-0.14526871 0.03591434 -0.14478344 0.5338429 -0.06385236 -0.10524803 0.11581224 -0.16786432
0.07339938 0.3998762 -0.0768869 -1.0594561 -0.090905935 -0.22345988 0.08957358 0.04252726
-0.027187807 0.08084248 -0.37907928 -0.2224588 -0.24117292 0.10520346 -0.25619143 0.29531944
-0.24177544 0.2715978 0.49980304 0.06953303 0.16819675 0.030532582 0.34827492 0.0015559443
-0.3249636 -0.15193024 -0.10325757 -0.0095384335 0.03205905 -0.27467552 0.1352815 0.014922244
-0.27064905 0.07685658 -0.78302115 -0.63233507 0.2796387 0.47606972 -1.2490447 0.18607569
0.81649584 -0.4752293 0.25966695 -0.27758133 0.042035855 -0.6210336 -0.30645066 -0.1866359
0.06509846 0.25020278 -0.7240258 -0.11796102 0.95845 0.4178029 0.29234016 0.0062762466
-0.06027463 0.12580346 -0.34401163 0.4216946 0.33366945 0.13662986 0.0016796533 -0.7353519
-0.3610405 0.46768737 -0.09629301 1.573605 0.85544705 -0.14016497 0.5298703 -0.07818686
0.6329303 0.065221995 -0.4716232 0.24908264 -0.33444622 0.37463558 -0.017227532 -0.4920868
-0.45863685 0.29432136 -0.48319384 -0.39225388 -0.86457545 -0.2708385 -1.4163649 -0.34987134
0.62917614 0.26384047 0.4531476 -0.70879114 0.21214616 0.37091258 0.45769894 -0.44337994
0.077289 -0.48822775 -0.23560394 0.6023414 -0.1714317 -0.25282887 0.8221733 0.5651605
0.5421548 -0.60622317 -0.5507536 -0.5167512 0.25463182 0.22019987 0.4070582 0.21111834
0.46521726 -0.2742712 0.41544652 0.20796123 0.34729996 0.1398419 -0.29072124 -0.02565207
0.54037887 -0.04316511 0.0037585462 0.0633338 -0.2690178 -0.41516435 -0.030959802 0.3732549
0.0010420447 0.37314573 0.24514411 0.4528905 -0.39889073 0.0150454035 -0.22455186 -0.37203422
-0.23903914 0.6213553 0.16358931 0.082918204 -0.5197502 -0.022532457 0.028452853 0.028918553
-0.309972 0.061081264 0.020034183 0.037412673 -0.5595106 -0.45042247 0.38346633 -0.067077756
0.10993218 -0.36763102 -0.095609955 -0.3709245 0.4029599 0.00883691 0.046921358 -0.2853576
-0.3052929 0.7961957 -0.2936398 0.11668036 0.41916525 -0.24242719 0.06927945 -0.05783581
0.34242773 -0.04164322 -0.17046343 -0.38250318 0.070737496 0.25065142 -0.10234492 0.22062181
0.114651516 0.24320823 -0.25504053 -0.38791338 0.60723644 -0.05171594 -0.34141663 0.22668278
0.51929545 -0.1413518 0.31618866 -0.28177908 -0.46168768 0.09136743 -0.04945138 -0.06389621
-0.44402727 -0.7301296 -0.08295055 0.0069954796 -0.022993427 0.2371149 0.07857014 0.14704181
-0.17062536 -0.24003148 0.35205945 0.788884 0.409102 -0.4219892 0.849668 -0.13814516
0.48239455 -0.78144795 0.05959368 0.1143261 -0.010107878 -0.14102733 -0.24084042 0.05434571
0.19975848 0.15840547 0.3555057 -0.03708557 -0.14343894 0.3174363 -0.5688385 0.017832698
