flutter_application_1/assets/converted_model.tflite (tflite, 88616 bytes, 7 tensors)

model/dense_1/MatMul;model/dense_1/BiasAdd f4 [16]
00000000: 74a0 dc3e 0472 3f3f 2d00 01bf c622 36bf
00000010: 1cfd 543e 1a42 713f 9838 fe3e 622a 363f
00000020: b79f d1be 97eb b0bf 93ef d43f e5de 04bd
00000030: 3492 97bf 43cf 2dbe a01b f9be ded6 f1be
0.43091166 0.7478335 -0.50390893 -0.7114681 0.20799679 0.9424149 0.49652553 0.7115842
-0.40942165 -1.3821896 1.6635612 -0.03243913 -1.1841493 -0.16973595 -0.4865389 -0.47234243

model/lstm/Read_2/ReadVariableOp f4 [256]
00000000: 7a36 0ac0 e4d0 2bbd 0a8f 41c0 4f3b 18c0
00000010: 7422 0fc0 cfe5 d0bf f25e c2bf 0c69 c4bf
00000020: 68ee c8bf 9473 28c0 2d42 5dc0 efde fabf
00000030: 388a b2bf 29e1 00c0 f17e 2abe 2f7e d4bf
00000040: c6a8 0cc0 711e 40c0 2fb3 2fc0 642a 44c0
00000050: 48a5 11c0 a8c3 04c0 2d42 43c0 5c16 2cc0
00000060: dc11 54c0 7156 30c0 57f0 08c0 29b6 a5bf
00000070: 1299 a0bf 207a c3bf 7f93 e0bf 452c e4bf
00000080: 06fd 9abf 04fb 07c0 1431 4dbf d7b9 b3bf
00000090: 8b3b acbf 3d56 c9bf f236 27c0 59bb d9bf
000000a0: 4a79 2cc0 aadf 09c0 d9e0 9fbf 1ddd f4bf
000000b0: c343 35bf 1657 1cc0 dfce 85bf 14f3 01c0
000000c0: b2d4 a2bf 4bd7 cfbf fd6e 1dc0 53bf 98bf
000000d0: 2071 91be 73d1 36c0 8b11 b0bf 6efb 12c0
000000e0: 48b6 0ec0 ffad 8bbf 22a7 5dc0 089e f1bf
000000f0: 272c 04c0 b39e 37c0 ce1a b0bf 4b55 29c0
00000100: cb50 de3f 112c d83e 6a6d 3640 4906 3640
00000110: 35aa d43f 945c 6b3f 8bba 833f 8d2d ce3f
00000120: fcee cc3f 4a58 2440 3b5f 8a40 e8ef 0d40
00000130: 4f4a 9b3f 5f54 69be e033 51be 6081 bd3e
00000140: ef14 eb3f 1574 2840 27ae 5640 f7aa f13f
00000150: cbb4 e43f b2e8 0d40 6497 7a40 6129 1440
00000160: c664 9740 9f92 4640 79c9 96be ec81 0f3f
00000170: ce62 c03e fc28 be3f 2b13 de3f 75e5 bd3f
00000180: 8c38 453f 10cf 9c3f 6e7b d73e 43ba df3f
00000190: 35d4 3f3f 1be7 9f3f 41af 3040 2086 0640
000001a0: 5d19 a33f 3d2b 0640 b35f 22bf cae9 b93f
000001b0: 5248 543e d4d9 2f40 0bbd 693f 15a1 a93f
000001c0: 6345 9e3f 2009 803f 96fc 3a40 f164 633f
000001d0: d584 82bf daad 3040 eeff bb3f 82fe 0b40
000001e0: 9e36 2140 af0c b43f ea1f 5d40 f9b8 e03f
000001f0: e845 bd3f 8e19 7040 3bd8 903f aa22 ff3f
00000200: 2124 b3be ffd7 e03e 72a5 34bd 3214 5dbd
00000210: 6e99 713e 2745 cb3e 3e62 23bb 2715 953e
00000220: 657e dcbe bebc ecbd e826 ed3d 28ec 103f
00000230: e699 aa3e edb8 f03d d365 0dbe 95e8 28bf
00000240: 6624 afbe f67a b93d 9c5e 2abf 370b b4be
00000250: 83d3 99bd 7ca4 643d 30f0 2fbe b337 d7bc
00000260: 4b61 5cbe 13f8 84be 53a2 81be d679 203f
00000270: 5745 cbbe d428 9b3e 6566 203e a313 3d3d
00000280: dd32 593c 0d87 883e 29bf c13e f326 2e3e
00000290: f48d 98bd 7ef4 71bd 355f 48be a822 fbbe
000002a0: 1de6 4a3e 8234 8c3d 15a3 943e 72f8 9e3d
000002b0: faac 52bf f24a a03d 6b62 f73e dcc9 52be
000002c0: 59db 12bf fa13 9dbe 1d10 043d 7ea6 e73d
000002d0: 9ba3 f23e e192 223e ea26 ddbe d0ab 933d
000002e0: 0be3 b4be b0c2 fbbd c200 5f3e 4f63 ba3d
000002f0: 5831 50be 57b0 78bd 4ef0 ea3e db3a 5b3e
00000300: 1433 83bf 277c f3bf ade3 9cbf 8cb4 0ac0
00000310: 7bd7 95bf f6c3 a8bf a7b0 d9bf fdb6 a8bf
00000320: 9c9d 07c0 3752 a2bf da2d 82bf 23a8 9ebf
00000330: e0eb c5bf d07b 2cbf d13f 45bf 31fc 1cbf
00000340: b7e3 e7bf 9ae0 c7bf 519c a0bf c152 61bf
00000350: 935e cabf 9f16 15c0 2185 f2bf a0ab 60bf
00000360: 4835 04c0 5698 89bf 1713 cbbf 7fcf d0bf
00000370: 170c 69bf 4878 adbf 641c 03c0 fe67 3fbf
00000380: 8b9c b9bf 9545 c6bf c256 c2bf 9c60 d7bf
00000390: af8a f9bf a293 abbf 0459 fbbe 3b8e 8abf
000003a0: 90cc a9bf 206a 99bf d5c5 99bf a69f d5bf
000003b0: b477 823e 377d bebf e053 eabf 6823 c5bf
000003c0: 8ac5 a3bf e6a8 eebf fe9d 00c0 bd1f e2bf
000003d0: 172c d5bf 50b4 afbf d8a1 9ebf aefd f0bf
000003e0: f4ba aabf 80ce 93bf 349f 8bbf c4f4 9cbf
000003f0: b3cc 9dbf 136c c5bf 5ed6 a2bf 82e3 9abf
-2.159575 -0.04194726 -3.0243554 -2.37862 -2.2364779 -1.6320132 -1.5185225 -1.5344558
-1.5697756 -2.6320543 -3.457164 -1.9599284 -1.3948431 -2.0137427 -0.16649987 -1.6601008
-2.197801 -3.001858 -2.7453115 -3.0650873 -2.275713 -2.074442 -3.050914 -2.6888647
-3.31359 -2.755276 -2.1396692 -1.2946216 -1.2546713 -1.5271645 -1.7545012 -1.782601
-1.2108467 -2.1246958 -0.8015301 -1.4041089 -1.3455671 -1.5729443 -2.6127286 -1.7010299
-2.694903 -2.1542764 -1.2490493 -1.9129978 -0.7080652 -2.4428153 -1.0453757 -2.0304613
-1.272116 -1.6237577 -2.4598992 -1.1933388 -0.2840662 -2.8565338 -1.3755354 -2.296596
-2.2298756 -1.0912474 -3.463326 -1.8876352 -2.0651948 -2.8690612 -1.375818 -2.6458309
1.7368406 0.4222112 2.850428 2.8441336 1.6614443 0.9193814 1.0291303 1.6107651
1.6010432 2.5678887 4.324125 2.2177677 1.2132052 -0.22786091 -0.20429945 0.37012768
1.8365763 2.632085 3.3543794 1.8880299 1.7867674 2.2173276 3.9154902 2.3150256
4.7310514 3.102699 -0.29450586 0.5605762 0.37575382 1.4856257 1.73496 1.483565
0.7703941 1.225069 0.42086357 1.7478718 0.7493318 1.2492403 2.7606966 2.1019363
1.2742115 2.096389 -0.63427275 1.4524472 0.20730713 2.7476702 0.9130408 1.3252283
1.2364925 1.0002785 2.9216666 0.888259 -1.0196787 2.760611 1.4687479 2.187409
2.5189586 1.4066371 3.4550729 1.7556449 1.4786959 3.7515597 1.1315988 1.9932454
-0.34988502 0.43914792 -0.044103093 -0.053974338 0.23593685 0.39701197 -0.0024930383 0.291177
-0.4306518 -0.11559437 0.115796864 0.56610346 0.3332054 0.11754022 -0.13808374 -0.6597989
-0.34207457 0.09056656 -0.6655061 -0.35164806 -0.07511046 0.055820927 -0.17181468 -0.026271677
-0.2152149 -0.25970516 -0.25319156 0.62685907 -0.3970134 0.30304587 0.1566406 0.046161305
0.013256756 0.26665536 0.37841156 0.17007045 -0.074489504 -0.059071057 -0.19567569 -0.49049878
0.19814344 0.068459526 0.29030672 0.07762231 -0.8229519 0.07826795 0.48317274 -0.20584816
-0.5736595 -0.30679303 0.03224193 0.11311053 0.47390446 0.15876342 -0.43193752 0.07210505
-0.3532947 -0.12292993 0.21777633 0.09100973 -0.20331323 -0.060715046 0.45886463 0.2140917
-1.0249963 -1.9022263 -1.2256981 -2.1672697 -1.1706384 -1.3184803 -1.7007035 -1.3180844
-2.1189947 -1.268134 -1.0170243 -1.2395061 -1.5462608 -0.6737642 -0.770505 -0.61322314
-1.8116368 -1.5615418 -1.2547704 -0.880169 -1.5810112 -2.3295057 -1.8946878 -0.8776188
-2.065752 -1.0749614 -1.5865201 -1.6313323 -0.9103407 -1.3552332 -2.0486078 -0.74768054
-1.4500898 -1.5489985 -1.5182726 -1.6826358 -1.9495448 -1.3404429 -0.4909135 -1.0824655
-1.3265553 -1.1985512 -1.2013499 -1.6689346 0.2548195 -1.4881963 -1.8306847 -1.540143
-1.2794659 -1.8645294 -2.009643 -1.7665936 -1.665408 -1.3726902 -1.2393141 -1.8827417
-1.3338304 -1.1547394 -1.090796 -1.2262197 -1.2328094 -1.5423607 -1.272167 -1.210068

model/dense/MatMul1 f4 [32, 64]
00000000: 507f 68be 4448 2fbe 9dc8 8a3f 00cc 15c0
00000010: 44fa f63f 4589 d3bf a89f 51bf 00df 18bf
00000020: 2ced 7f3f 5f89 1b3f c22c 5dbd dc08 bb3f
00000030: 0c7d 72bf b91a 0d3d 8b20 e03d 51c2 6a3f
00000040: f2c2 58bd aac5 c3bf cec0 0e3e 6976 31bf
00000050: bda2 57bf f64d bfbd fa4e 4740 6e3e 363f
00000060: 0f66 95be f715 133f 6a1b 443f b129 dd3e
00000070: f9f9 1f3f 67e2 0740 9b3e 1a3f 030a cf3f
00000080: 1ef1 a93e 3ddc 96bf fd44 8cbe 15f3 acbf
00000090: bd24 693f 4112 003d 9652 643f 1def 0c3f
000000a0: ec03 a43e a501 993f fa9c 723f 7140 13be
000000b0: 07aa 213f ef7b 97bf 3d51 883f 2a16 57bf
000000c0: 5105 81bf e555 053f abee b63f 2b5c 14bf
000000d0: 90a7 16bd 4cf1 0e40 2bf8 933e 6168 b73f
000000e0: 60ec 1a40 82cd c8bf 95e5 9b3f 6ae7 9dbe
000000f0: f315 403e 1201 6cbe 3622 e2bf 1077 083f
00000100: 9379 71be b0bb 1fbf 6aee 0e40 1c49 d13f
00000110: 776d f03f d3d1 793f 38c4 a73f c110 493f
00000120: c5e0 a03f 406e 3c3e 65d6 953c 94ec 4140
00000130: 0169 1e3f 3843 5e3f dc49 85bf 1c3a 4c3f
00000140: 58bc c7be 670b 0cc0 c9d4 9f3f 3e6d e7bf
00000150: 1e66 1940 de02 c43f 3cc3 3cbf d7ab f3bf
00000160: 6e90 4cbf b103 24bf 2f9f c73f 3870 48bf
00000170: 5079 543f 982f a0bf 1f95 c73f e008 bfbf
00000180: d1f1 833f 24a7 a23e 2465 d53f 50f4 43bf
00000190: 73c7 96bf dcee 80c0 dd0b 8ec0 7e18 ce3e
000001a0: 139a 2c3c 8ac1 81bf d4de 78bf e8b9 1ac0
000001b0: bb1e fabe 8e79 383d 885f ad3f 8d86 5bc0
000001c0: 4c0e 213f 8545 cfbe 5869 e3be 97ae f8bf
000001d0: fba7 e83e 2645 a3bc 04bf 093e 781a b9bf
000001e0: a686 773f b256 cb3e 2c56 b9bf dc85 5e3f
000001f0: eebc 72bf ac33 8cbd beba 023e d0aa 90bf
00000200: 4230 473f 359b 00be 7967 c73f a51e 163f
00000210: c627 7140 6889 f63e 00e9 5dbe d9df 13c0
00000220: 47f4 1540 727e 5940 37ec 98bf 1a47 ccbc
00000230: c2f4 8c3e ffd0 be3f 1f66 26be a39b fcbe
00000240: 1869 09be a084 eabf a447 cbba d1f6 06c0
00000250: 1d12 6cbf 447e c7be 0a78 1e40 695b 3dc0
00000260: 0c0b 0ec0 d19f c3be 40b7 973f 4763 213f
00000270: a21d 68bf 5209 323f ddcc ab3f 7e18 863e
00000280: 7cbd 4440 2c76 1a3f cd94 f53f 12dc c4bf
00000290: a11e ad3e 9326 a53f 7efc 37bf 604f ec3f
000002a0: fb0d 713f 6b11 7e3f 802d 08bf f99d 63be
000002b0: 2bf7 1e3d f546 1440 d6c7 fb3f ddb5 1fc0
000002c0: 210b b3bf 203b 5a3f 7336 9c3f 30de a5bf
000002d0: c2b4 613d ef9b da3f c0d5 babd 25b1 92bd
000002e0: c1e5 9d3f 8ec4 84bf 7e43 8cbf 8bf1 0840
000002f0: 5516 a4bf f09b 903e 5f30 25bf b6e5 1440
00000300: 9842 04bf 9172 21c0 d640 4cbf 8496 0340
00000310: facc b5bd c6e4 0ec0 1513 b2bf 9482 ff3f
00000320: 6112 823f 4963 37bf 409a 08c0 f6e6 803d
00000330: e3c8 db3e c7ee 2d3f 39bf ccbb f105 f03f
00000340: 1300 f4bf 48db 59c0 9d62 183e 5f89 aa3f
00000350: 894e d2bf 8e74 e6be 3b0a 5940 d46a 1fbe
00000360: 0eef 0cc0 0043 183f 2761 993e 2104 543f
00000370: 5c8b babf 27d0 203d 8d11 b8bf 3f11 ccbf
00000380: fccd 73bf b76c 3b3f bab5 35c0 89b2 49c0
00000390: ce49 553f 327a 20c0 b68f 123f 3c19 803f
000003a0: 7795 ddbf 465d 1940 d599 9ebc 0d89 4fbf
000003b0: 6f15 42bf b4bd e4bf 3992 293d a11a d43c
000003c0: 6b5d 8fbf c88c a83f 8e3f 7bbf 7db4 8ebf
000003d0: e7c2 b3ba f683 a03f d179 f8bf ded0 303f
000003e0: 7f2e e63d 66a6 1fbf b816 fabf cb90 bf3f
000003f0: 9159 1fc0 30b0 96bf a4d9 443f e54c 4940
-0.22704816 -0.17117411 1.0842472 -2.3405762 1.9295125 -1.6526266 -0.8188424 -0.5971527
0.9997127 0.60756487 -0.053997763 1.4612079 -0.94722056 0.034449313 0.10943707 0.91702753
-0.05292029 -1.5294697 0.13940737 -0.69321305 -0.84232694 -0.09341042 3.1141953 0.7118901
-0.29179427 0.5745539 0.7660433 0.4319587 0.62490803 2.1231935 0.6025178 1.617493
0.3319177 -1.1785961 -0.27396384 -1.3511683 0.91071683 0.03126741 0.89188516 0.5505236
0.32034242 1.1953627 0.9477078 -0.14380051 0.63150066 -1.1834697 1.0649792 -0.84018195
-1.0079747 0.5208419 1.4291586 -0.5795314 -0.036780894 2.2334776 0.28900275 1.4328729
2.4206772 -1.5687716 1.2179438 -0.30840617 0.18758373 -0.23047283 -1.766669 0.53306675
-0.23581533 -0.62395763 2.2333016 1.6350436 1.8783406 0.9758579 1.3106756 0.7854119
1.2568594 0.18401432 0.018290708 3.0300646 0.61878973 0.8682132 -1.0413165 0.7977617
-0.39010882 -2.188196 1.2486812 -1.8080213 2.3968577 1.5313375 -0.73735404 -1.9036816
-0.7990788 -0.6406813 1.5595454 -0.7829623 0.8299761 -1.2514524 1.5592383 -1.4924583
1.0308172 0.31768143 1.6671491 -0.76544666 -1.1779617 -4.0291576 -4.438948 0.4025306
0.010534781 -1.0137188 -0.9721501 -2.4175968 -0.4885157 0.0450378 1.3544779 -3.4300873
0.6291244 -0.40482727 -0.44416308 -1.942828 0.4544066 -0.019930433 0.13451773 -1.4461203
0.9668983 0.3971458 -1.4479423 0.86923003 -0.94819534 -0.06845793 0.12766549 -1.1302128
0.7780801 -0.12559207 1.5578452 0.5864051 3.7680526 0.48151708 -0.21670914 -2.3105376
2.3430345 3.3983426 -1.1947087 -0.024936248 0.27530485 1.490753 -0.16249894 -0.4933749
-0.13418996 -1.8321724 -0.0015509021 -2.1088145 -0.9221514 -0.3896352 2.4760766 -2.9587042
-2.2194242 -0.38207868 1.1852798 0.6304211 -0.90670216 0.6954547 1.3421894 0.2619056
3.0740652 0.60336566 1.9186035 -1.537966 0.3381243 1.2902397 -0.7186965 1.8461723
0.9416196 0.9924533 -0.5319443 -0.2222823 0.038809936 2.3168309 1.967036 -2.495475
-1.3987771 0.8524647 1.2204117 -1.2958431 0.055104025 1.7078837 -0.09122801 -0.07162694
1.233574 -1.0372484 -1.0958097 2.1397426 -1.2819315 0.2824397 -0.64526933 2.3265204
-0.51664114 -2.5226176 -0.7978643 2.0560617 -0.08876987 -2.2327132 -1.3912073 1.9961724
1.0161859 -0.7163587 -2.1344147 0.06294052 0.42926702 0.6794247 -0.0062483815 1.8751813
-1.9062523 -3.4040089 0.14881368 1.3323172 -1.6430217 -0.450108 3.3912494 -0.15568095
-2.2020907 0.59477234 0.29956934 0.828188 -1.4573779 0.03926101 -1.4380356 -1.5942763
-0.9523618 0.7321276 -2.8392167 -3.151522 0.8331574 -2.5074582 0.57250535 1.0007701
-1.7311238 2.396318 -0.019360462 -0.810685 -0.75813955 -1.7870393 0.041399214 0.025891604
-1.1200384 1.3167963 -0.9814385 -1.1148831 -0.0013714702 1.2540271 -1.9412175 0.69068706
0.11239337 -0.6236328 -1.9538183 1.4966062 -2.4898417 -1.1772518 0.76894593 3.1453183

model/dense_1/MatMul f4 [16, 32]
00000000: 5ce6 33bf 2e6a 21bf 3988 67bc b960 76bf
00000010: 7ae7 333f 4bf6 a8bf 2118 8bbe a472 aa3e
00000020: 7e07 9bbd 607d 98be 5c87 cf3f 486f 793e
00000030: fb29 56bf cd47 febd 433b d73d ab37 06bf
00000040: 284f 9b3f ea65 bcbd ccff 5dbf 497b a2bf
00000050: 82fd e1bf b9db 59bf 49e0 923e ded7 d03e
00000060: 07c7 823e bca1 d9bf 78c5 df3d 8035 873d
00000070: 3fa0 b3be b372 4dbf 373a 0abe e08f 02bf
00000080: dbd5 c9bd 4a59 183f 0d14 8d3d 52e9 98bf
00000090: 530f 933f 0016 f53d 7871 443f 137c 273f
000000a0: 408b 14bf ef93 29be fc4c 7c3f 7aea 2dbf
000000b0: f7ad c83d 7526 093f 9358 a0bf 1efc 06be
000000c0: 3f9b 83bf befa 27bd 99a7 203f 9c09 e5bc
000000d0: 1ac9 0a3f 824d c93f 6d58 653f 60ea 223d
000000e0: 5700 80bf a8a7 02be 229d d43d c168 a93f
000000f0: df1b 82bf ddbe 583f 84b6 56bd ab99 e73e
00000100: 05a1 9bbe d915 4f3f b597 b4be 945d 05bf
00000110: d8d2 03bf e26d cf3e e91a b1bf fc2f ce3e
00000120: a425 21bf 8e91 9d3e ff32 c63e 0832 d73f
00000130: eceb abbe 0c5b bf3f f78a e13d f947 c03e
00000140: d80d 493f bb88 a73d cd24 913d bdb5 853e
00000150: faf8 3f3f 24d9 cf3f 1fe7 89bf cafd a33d
00000160: 6dc6 37bf 4707 953f 8072 35be c9d4 323f
00000170: 95cd 6f3f 92a2 ef3e 6954 11be bc13 0ebf
00000180: 115c c03e b0a1 07be 0d69 b8be 0ffa 98be
00000190: e550 a03f fd4b 28bf 4a43 13bf 943f 97bf
000001a0: a75d 373f 4dd2 173c 31c5 81bf 9a66 09bd
000001b0: 4e82 823f 33e6 b2be 071f 6c3f 2d25 ae3d
000001c0: fe0d 323f d348 7a3d cdc1 c6bf 9bf7 acbe
000001d0: 9b67 e13e 7e4f 803f d8d4 c43f 7b84 88be
000001e0: aff5 3cbe 1746 e73e 1a08 30bf 260f 59bf
000001f0: 590a e0bd b1ea f33d 6eca cc3c 3b41 5e3f
00000200: 69ab 923d 41d5 41bf a9df ccbf 66d2 a83f
00000210: ff96 5bbf 747b 233f bc9b 5f3f 3f0e 2a3f
00000220: 68f0 56be 9029 88be 6241 cf3e 3426 9bbf
00000230: e978 eb3e 0047 81bf 6fcb 02bf d0eb 943e
00000240: e82d 44bf ab47 8d3d efde 12bf 828f a2bf
00000250: 7f4a 75bf f91b 803e ce48 c23e 45ba fdbd
00000260: f1ed c23d 7371 58bf c469 9dbd a14b 59bd
00000270: d27a 813f 4518 1a40 9b5d aabc ca1c 15bf
00000280: 18b9 923e 58f0 0740 4a19 223f 8354 e73e
00000290: 7ece c5be 628d 55bf e084 7e3e fb38 88bf
000002a0: b663 4dbe 4f67 023d 8fa2 093d 2802 b2bf
000002b0: cd91 ddbe 957a ab3f f084 6ebf 1635 003f
000002c0: 37bd 08bf 84f0 953d e537 f4be 7426 6bbf
000002d0: e261 073e 142a 93bf 60db 08bf 9561 11bf
000002e0: 0825 c2be 00e4 d63d 55f5 9bbe cce7 84bf
000002f0: a6c8 923f 3585 1abf 91f4 15be 3df2 00be
00000300: 433d 233f 4a10 1ac0 40c4 f9be 688c 89bf
00000310: b1f9 3dbf a3da 603f d7ec 55be 3e35 fe3f
00000320: 6654 813f 6f80 383e 3de0 f2bf e4f7 2bbf
00000330: 9d68 1fbf c3d9 873f c196 b6bf d6df 88bc
00000340: e4e1 4d3e dd70 2abd b611 f9bd 1e54 943d
00000350: eae9 7d3e 8747 60bf 7a50 393e ae80 6ebf
00000360: 96b0 223e 65af 803f 183c 473f 091d 8d3e
00000370: 0cac 5dbf d525 003d ad1b 38be ef0c 6f3e
00000380: 0130 1f3e 8523 35bf 2675 4f3f 4369 dd3c
00000390: d84e e5bf 3d8c 9e3f bdec 16bf 2ac5 9dbf
000003a0: d565 a4be 95a1 36bf 0749 b83f ceda 27be
000003b0: 1dd2 6c3f 6bf9 6cbe 5834 07bf da1f 9fbe
000003c0: 10b0 0a3f dad6 403e 7a5e 8ebe dfe1 b9bf
000003d0: db8d 073f f9f1 173f 9fc6 c43e 952a 563f
000003e0: b99b 32be 657d 643e f367 673f b37d cf3e
000003f0: b1fe 19bf 1abc 82bf 5b69 4fbe c510 273e
-0.70273376 -0.6305264 -0.014131599 -0.9624134 0.7027508 -1.3200163 -0.27166846 0.3329059
-0.075697884 -0.29783154 1.6213183 0.24358857 -0.8365781 -0.12416039 0.1050935 -0.5242869
1.2133532 -0.09199126 -0.8671844 -1.2693874 -1.765549 -0.85100895 0.2868674 0.40789694
0.2554247 -1.7002482 0.10926336 0.06602001 -0.35083196 -0.8025314 -0.1349877 -0.51000786
-0.09855243 0.59511244 0.0688859 -1.1946204 1.1489052 0.11967087 0.7673564 0.654237
-0.5802498 -0.16560338 0.9855497 -0.6793591 0.09798806 0.53574306 -1.2527031 -0.13182113
-1.0281752 -0.04101061 0.62755734 -0.027958684 0.54213107 1.5726779 0.8958805 0.0397743
-1.0000104 -0.12759268 0.10381533 1.3235093 -1.0164756 0.84666234 -0.052420154 0.45234427
-0.30396286 0.8089271 -0.35271993 -0.52095914 -0.514936 0.4051352 -1.3836337 0.40270984
-0.6294806 0.30775112 0.38710782 1.6812143 -0.33578432 1.494966 0.110128336 0.3755491
0.7853675 0.08180376 0.07087097 0.26115218 0.74989283 1.6238141 -1.0773658 0.08007391
-0.7178715 1.1642846 -0.1771946 0.69855934 0.9367307 0.4680372 -0.14192356 -0.5549886
0.3757024 -0.13245273 -0.36017647 -0.2987828 1.2524687 -0.6574095 -0.5752455 -1.1816278
0.7162728 0.009266448 -1.0138303 -0.033545114 1.0196016 -0.34941253 0.92234844 0.085031845
0.695526 0.061104607 -1.5527893 -0.33782658 0.44024357 1.0024259 1.5377455 -0.26663575
-0.18453096 0.45170662 -0.6876236 -0.8478874 -0.10939474 0.11909998 0.02499887 0.86818284
0.071616 -0.75716025 -1.6005756 1.3189209 -0.85777277 0.6386025 0.87347007 0.6642799
-0.20990145 -0.2659421 0.4047957 -1.2121034 0.45990685 -1.0099792 -0.51091665 0.2908616
-0.7663255 0.06898435 -0.5737142 -1.2700045 -0.95816797 0.2502134 0.3794617 -0.12389044
0.0951804 -0.8454811 -0.07686189 -0.05305064 1.0115607 2.4077313 -0.020796588 -0.58247054
0.2865684 2.1240444 0.6331984 0.45181665 -0.38634104 -0.8341886 0.24855375 -1.0642389
-0.20057568 0.031836804 0.033602294 -1.3906908 -0.432753 1.3396784 -0.93171597 0.50081
-0.5341372 0.07321265 -0.47698894 -0.9185555 0.13220933 -1.1497216 -0.5345974 -0.56789523
-0.37918878 0.10492706 -0.3046061 -1.0383239 1.1467483 -0.6035951 -0.14644076 -0.12592407
0.6376535 -2.4072442 -0.4878254 -1.0745974 -0.74209124 0.87833613 -0.20891128 1.9859998
1.0103881 0.18017744 -1.8974682 -0.67175126 -0.62269 1.0613331 -1.4264756 -0.016708296
0.20105702 -0.04161154 -0.12161581 0.072426066 0.24796262 -0.8760914 0.18097106 -0.931651
0.15887675 1.0053526 0.7782607 0.27561215 -0.8659065 0.03128608 -0.17979307 0.23344778
0.15545656 -0.70757324 0.8103813 0.027027732 -1.7914686 1.2386547 -0.58954984 -1.2325795
-0.32108942 -0.71340305 1.4397286 -0.16392061 0.9250811 -0.2314202 -0.52814245 -0.31078988
0.541749 0.1883196 -0.27806455 -1.4522055 0.5295083 0.59353596 0.38432786 0.83658725
-0.17442216 0.22313459 0.9039299 0.40525588 -0.60154253 -1.0213654 -0.20255034 0.16314991

model/lstm/Read_2/ReadVariableOp1 f4 [256]
00000000: 7a36 0ac0 e4d0 2bbd 0a8f 41c0 4f3b 18c0
00000010: 7422 0fc0 cfe5 d0bf f25e c2bf 0c69 c4bf
00000020: 68ee c8bf 9473 28c0 2d42 5dc0 efde fabf
00000030: 388a b2bf 29e1 00c0 f17e 2abe 2f7e d4bf
00000040: c6a8 0cc0 711e 40c0 2fb3 2fc0 642a 44c0
00000050: 48a5 11c0 a8c3 04c0 2d42 43c0 5c16 2cc0
00000060: dc11 54c0 7156 30c0 57f0 08c0 29b6 a5bf
00000070: 1299 a0bf 207a c3bf 7f93 e0bf 452c e4bf
00000080: 06fd 9abf 04fb 07c0 1431 4dbf d7b9 b3bf
00000090: 8b3b acbf 3d56 c9bf f236 27c0 59bb d9bf
000000a0: 4a79 2cc0 aadf 09c0 d9e0 9fbf 1ddd f4bf
000000b0: c343 35bf 1657 1cc0 dfce 85bf 14f3 01c0
000000c0: b2d4 a2bf 4bd7 cfbf fd6e 1dc0 53bf 98bf
000000d0: 2071 91be 73d1 36c0 8b11 b0bf 6efb 12c0
000000e0: 48b6 0ec0 ffad 8bbf 22a7 5dc0 089e f1bf
000000f0: 272c 04c0 b39e 37c0 ce1a b0bf 4b55 29c0
00000100: cb50 de3f 112c d83e 6a6d 3640 4906 3640
00000110: 35aa d43f 945c 6b3f 8bba 833f 8d2d ce3f
00000120: fcee cc3f 4a58 2440 3b5f 8a40 e8ef 0d40
00000130: 4f4a 9b3f 5f54 69be e033 51be 6081 bd3e
00000140: ef14 eb3f 1574 2840 27ae 5640 f7aa f13f
00000150: cbb4 e43f b2e8 0d40 6497 7a40 6129 1440
00000160: c664 9740 9f92 4640 79c9 96be ec81 0f3f
00000170: ce62 c03e fc28 be3f 2b13 de3f 75e5 bd3f
00000180: 8c38 453f 10cf 9c3f 6e7b d73e 43ba df3f
00000190: 35d4 3f3f 1be7 9f3f 41af 3040 2086 0640
000001a0: 5d19 a33f 3d2b 0640 b35f 22bf cae9 b93f
000001b0: 5248 543e d4d9 2f40 0bbd 693f 15a1 a93f
000001c0: 6345 9e3f 2009 803f 96fc 3a40 f164 633f
000001d0: d584 82bf daad 3040 eeff bb3f 82fe 0b40
000001e0: 9e36 2140 af0c b43f ea1f 5d40 f9b8 e03f
000001f0: e845 bd3f 8e19 7040 3bd8 903f aa22 ff3f
00000200: 2124 b3be ffd7 e03e 72a5 34bd 3214 5dbd
00000210: 6e99 713e 2745 cb3e 3e62 23bb 2715 953e
00000220: 657e dcbe bebc ecbd e826 ed3d 28ec 103f
00000230: e699 aa3e edb8 f03d d365 0dbe 95e8 28bf
00000240: 6624 afbe f67a b93d 9c5e 2abf 370b b4be
00000250: 83d3 99bd 7ca4 643d 30f0 2fbe b337 d7bc
00000260: 4b61 5cbe 13f8 84be 53a2 81be d679 203f
00000270: 5745 cbbe d428 9b3e 6566 203e a313 3d3d
00000280: dd32 593c 0d87 883e 29bf c13e f326 2e3e
00000290: f48d 98bd 7ef4 71bd 355f 48be a822 fbbe
000002a0: 1de6 4a3e 8234 8c3d 15a3 943e 72f8 9e3d
000002b0: faac 52bf f24a a03d 6b62 f73e dcc9 52be
000002c0: 59db 12bf fa13 9dbe 1d10 043d 7ea6 e73d
000002d0: 9ba3 f23e e192 223e ea26 ddbe d0ab 933d
000002e0: 0be3 b4be b0c2 fbbd c200 5f3e 4f63 ba3d
000002f0: 5831 50be 57b0 78bd 4ef0 ea3e db3a 5b3e
00000300: 1433 83bf 277c f3bf ade3 9cbf 8cb4 0ac0
00000310: 7bd7 95bf f6c3 a8bf a7b0 d9bf fdb6 a8bf
00000320: 9c9d 07c0 3752 a2bf da2d 82bf 23a8 9ebf
00000330: e0eb c5bf d07b 2cbf d13f 45bf 31fc 1cbf
00000340: b7e3 e7bf 9ae0 c7bf 519c a0bf c152 61bf
00000350: 935e cabf 9f16 15c0 2185 f2bf a0ab 60bf
00000360: 4835 04c0 5698 89bf 1713 cbbf 7fcf d0bf
00000370: 170c 69bf 4878 adbf 641c 03c0 fe67 3fbf
00000380: 8b9c b9bf 9545 c6bf c256 c2bf 9c60 d7bf
00000390: af8a f9bf a293 abbf 0459 fbbe 3b8e 8abf
000003a0: 90cc a9bf 206a 99bf d5c5 99bf a69f d5bf
000003b0: b477 823e 377d bebf e053 eabf 6823 c5bf
000003c0: 8ac5 a3bf e6a8 eebf fe9d 00c0 bd1f e2bf
000003d0: 172c d5bf 50b4 afbf d8a1 9ebf aefd f0bf
000003e0: f4ba aabf 80ce 93bf 349f 8bbf c4f4 9cbf
000003f0: b3cc 9dbf 136c c5bf 5ed6 a2bf 82e3 9abf
-2.159575 -0.04194726 -3.0243554 -2.37862 -2.2364779 -1.6320132 -1.5185225 -1.5344558
-1.5697756 -2.6320543 -3.457164 -1.9599284 -1.3948431 -2.0137427 -0.16649987 -1.6601008
-2.197801 -3.001858 -2.7453115 -3.0650873 -2.275713 -2.074442 -3.050914 -2.6888647
-3.31359 -2.755276 -2.1396692 -1.2946216 -1.2546713 -1.5271645 -1.7545012 -1.782601
-1.2108467 -2.1246958 -0.8015301 -1.4041089 -1.3455671 -1.5729443 -2.6127286 -1.7010299
-2.694903 -2.1542764 -1.2490493 -1.9129978 -0.7080652 -2.4428153 -1.0453757 -2.0304613
-1.272116 -1.6237577 -2.4598992 -1.1933388 -0.2840662 -2.8565338 -1.3755354 -2.296596
-2.2298756 -1.0912474 -3.463326 -1.8876352 -2.0651948 -2.8690612 -1.375818 -2.6458309
1.7368406 0.4222112 2.850428 2.8441336 1.6614443 0.9193814 1.0291303 1.6107651
1.6010432 2.5678887 4.324125 2.2177677 1.2132052 -0.22786091 -0.20429945 0.37012768
1.8365763 2.632085 3.3543794 1.8880299 1.7867674 2.2173276 3.9154902 2.3150256
4.7310514 3.102699 -0.29450586 0.5605762 0.37575382 1.4856257 1.73496 1.483565
0.7703941 1.225069 0.42086357 1.7478718 0.7493318 1.2492403 2.7606966 2.1019363
1.2742115 2.096389 -0.63427275 1.4524472 0.20730713 2.7476702 0.9130408 1.3252283
1.2364925 1.0002785 2.9216666 0.888259 -1.0196787 2.760611 1.4687479 2.187409
2.5189586 1.4066371 3.4550729 1.7556449 1.4786959 3.7515597 1.1315988 1.9932454
-0.34988502 0.43914792 -0.044103093 -0.053974338 0.23593685 0.39701197 -0.0024930383 0.291177
-0.4306518 -0.11559437 0.115796864 0.56610346 0.3332054 0.11754022 -0.13808374 -0.6597989
-0.34207457 0.09056656 -0.6655061 -0.35164806 -0.07511046 0.055820927 -0.17181468 -0.026271677
-0.2152149 -0.25970516 -0.25319156 0.62685907 -0.3970134 0.30304587 0.1566406 0.046161305
0.013256756 0.26665536 0.37841156 0.17007045 -0.074489504 -0.059071057 -0.19567569 -0.49049878
0.19814344 0.068459526 0.29030672 0.07762231 -0.8229519 0.07826795 0.48317274 -0.20584816
-0.5736595 -0.30679303 0.03224193 0.11311053 0.47390446 0.15876342 -0.43193752 0.07210505
-0.3532947 -0.12292993 0.21777633 0.09100973 -0.20331323 -0.060715046 0.45886463 0.2140917
-1.0249963 -1.9022263 -1.2256981 -2.1672697 -1.1706384 -1.3184803 -1.7007035 -1.3180844
-2.1189947 -1.268134 -1.0170243 -1.2395061 -1.5462608 -0.6737642 -0.770505 -0.61322314
-1.8116368 -1.5615418 -1.2547704 -0.880169 -1.5810112 -2.3295057 -1.8946878 -0.8776188
-2.065752 -1.0749614 -1.5865201 -1.6313323 -0.9103407 -1.3552332 -2.0486078 -0.74768054
-1.4500898 -1.5489985 -1.5182726 -1.6826358 -1.9495448 -1.3404429 -0.4909135 -1.0824655
-1.3265553 -1.1985512 -1.2013499 -1.6689346 0.2548195 -1.4881963 -1.8306847 -1.540143
-1.2794659 -1.8645294 -2.009643 -1.7665936 -1.665408 -1.3726902 -1.2393141 -1.8827417
-1.3338304 -1.1547394 -1.090796 -1.2262197 -1.2328094 -1.5423607 -1.272167 -1.210068

while/MatMul_1 f4 [256, 64]
00000000: deb7 2040 964d d53e 4407 16bf f26a 0e3f
00000010: 9154 8d3e cd06 9f3d 0421 f93f 70ff 18bf
00000020: 969f 2740 0e4c 583f 17f8 da3e 79eb 3f3f
00000030: 4a65 133f 768e b1bf c4d7 5b3f e824 a0bd
00000040: c381 b1be 4f2a 56bf 16d6 773e ced2 c33f
00000050: b496 6dbf 06a3 a9bf 858b ce3f 1729 bbbf
00000060: 6f32 79bf b36e 7f3d 0fe9 fcbe dfb3 04bf
00000070: aa96 53bf 9900 fb3e 0c91 0640 7e01 63bf
00000080: 193e 4d3e b238 acbf df8a 0940 1264 1140
00000090: fa96 1dbe 25e7 e4bf 1a28 b0be 6de5 cbbd
000000a0: 5d3a 903f 1196 8c3f f7cb 0dbf 95e2 a5bf
000000b0: 2d37 b8bf 278c 1840 5e39 f5bf be0c 13bf
000000c0: f80a 08c0 9c34 6fbe 5dfc 2b3f 2f23 dcbe
000000d0: 12ee 4fbf 66d0 a4be 164d 093d 723f c5be
000000e0: 0163 07c0 106e 6a3f b4b0 76bf c4f6 cd3f
000000f0: 14a2 8abf 47bb 9bbf 6bde 6d3e b261 853f
00000100: 3234 3dc0 38cc 4cc0 aa34 c7bf 54cf 00c0
00000110: 84a4 9cbf f4b9 febf 9895 2c3f f7cd 323f
00000120: fdb6 693f 7c04 763f 4563 cb3f ea6b b73f
00000130: 290b a93f a363 3040 005b 9d3f ad25 c13f
00000140: bff3 0abe 53e0 82c0 bb08 743f 8b04 553f
00000150: c8aa a3bf 5289 8e3e 2d27 28c0 0446 3bc0
00000160: 4bd1 00c0 0ee2 0ec0 5536 2440 04b8 8c40
00000170: 4bf0 a0bf fc49 00c0 aa7c 53bf 27fb 893f
00000180: 8ba2 1140 8009 70bf 124f 1c3f a3a1 9f3f
00000190: 6d62 6fbe bbf6 73be 5359 d23c 6bf1 5a3f
000001a0: 37e5 56bf 591b 1fc0 e478 95bf d0b5 46bf
000001b0: aa4c fc3f 54ba 9ebf 0ba4 993f 58b9 09c0
000001c0: 86ea 4bc0 5aab 8bbf 9afe 883f 4428 ed3e
000001d0: 522f 29c0 1286 0bc0 e061 a9bf b6e4 0940
000001e0: 61e5 01bf a76e e5bf e58a 4dbf 44d6 9e3f
000001f0: 695b 14c0 56a2 0ac0 59f1 86bf 6c11 b83d
00000200: 24a6 2d3f 5648 90be fe29 27c0 dcf0 293e
00000210: 6f61 ab3f 0a41 80bf 5524 38bf bfb8 8bbf
00000220: 8fba d63e be03 bebf 0855 c8bf 62b3 d1be
00000230: 4cb5 7d3f e95f f9be 30fb c43f 13b7 463f
00000240: b461 1f3f 992a b9bf c7c3 eebe 3cae a73e
00000250: 8f34 f13e fadc f13f 04ec 043f 76c1 26bf
00000260: ddf7 37bf 923f fabe 2e0f 17c0 2e4e ffbf
00000270: df0a 21bf 6de3 333f 497a 3cc0 e05f d4bf
00000280: 3ca7 38be 6cb8 963f 637d 683d f109 f2be
00000290: 7e32 45bf 7961 0d3f d157 40bd d949 c83e
000002a0: 3f5e 3bbf fa20 ddbf b91a 22c0 093e 20bf
000002b0: d3b7 8f3d 073e 853f f4bd 1cc0 65ca 6bbe
000002c0: d4cf e6bf ae6c e03f fc55 283e b54b 4fbf
000002d0: 8466 43bf 2b5e d2bf 4981 d5be b8c3 2040
000002e0: 3f2a d53d 3474 8a3f 5e58 ab3f 9a3d 1a40
000002f0: e460 663f 962f 9e3c b78e 3abe 2574 583d
00000300: b892 573e eaa8 253f 2b87 0cbf d4be f03e
00000310: 180c 76bf 01c6 a0be b995 8b3f 112c acbd
00000320: de93 d03f 2b3e 1ac0 6867 25bf 2f41 b3bf
00000330: fd55 92bd 0a73 c13f aeb1 fbbf cc6b 6d3f
00000340: 5990 07c0 4165 303f 9193 023f b2ed 0740
00000350: 4983 e23f 9b58 3940 d5ee 853e da40 cf3d
00000360: def3 2ebf f5aa be3f b448 cb3f 1023 42c0
00000370: 37f1 f73d ecd4 e0bf f229 d4be 0766 fcbf
00000380: 5fa2 61bf 1964 0dc0 0259 dd3f 11d7 0240
00000390: 5c4b 24bf f1c3 a2be e68d 4b3f 89e0 ec3f
000003a0: af5a 963f f81a fa3e 562f b33f 28a3 c3be
000003b0: 4082 f3be 24ab a4bf 38dc aabd 00dc c23e
000003c0: 59b5 ad3f cb2c 21bf 48eb c33f 89cf 2a3f
000003d0: 7202 86bf 4f69 933e b7a0 23be 4b4d 9f3f
000003e0: f041 303e 1a02 e5bf ceb0 47c0 04b5 2440
000003f0: 3e44 8e3e 61ff f2bf 7d1c c7bf 664e d53f
2.5112224 0.41660756 -0.58604836 0.55631936 0.27603582 0.07764969 1.94632 -0.59764767
2.6191154 0.8449105 0.42767403 0.7496868 0.5757643 -1.3871601 0.8587611 -0.07819539
-0.34669313 -0.8365831 0.24202761 1.5298707 -0.9280808 -1.3252876 1.6136328 -1.4621915
-0.9734258 0.06236143 -0.4939656 -0.5183696 -0.8265177 0.49023893 2.102603 -0.8867415
0.2004322 -1.3454802 2.149101 2.2717328 -0.15389624 -1.788304 -0.34405595 -0.09955869
1.1267811 1.0983297 -0.5538935 -1.2959772 -1.4391838 2.3835542 -1.9158132 -0.5744132
-2.1256695 -0.23359913 0.6718195 -0.42995593 -0.8122264 -0.32190245 0.03352078 -0.38524967
-2.1154177 0.9157419 -0.9636338 1.6090932 -1.0830712 -1.2166528 0.23229377 1.0420439
-2.9563107 -3.1999645 -1.5562947 -2.0126543 -1.2237706 -1.9900498 0.6741576 0.6984553
0.9129484 0.9610059 1.588967 1.4329808 1.3206531 2.7560813 1.2293396 1.5089623
-0.13569544 -4.0898833 0.9532582 0.8321006 -1.2786493 0.27839142 -2.627391 -2.9261484
-2.0127742 -2.2325473 2.5658162 4.397463 -1.2573332 -2.0045156 -0.826121 1.0779771
2.2755458 -0.93764496 0.6105815 1.2471203 -0.2337739 -0.23824589 0.025677359 0.85524625
-0.83943504 -2.4860442 -1.1677518 -0.77621174 1.9710896 -1.2400613 1.2003187 -2.1519375
-3.1861892 -1.0911667 1.0702698 0.46319783 -2.6435132 -2.180058 -1.3232994 2.1545844
-0.5074063 -1.7924393 -0.8029006 1.2409139 -2.3180792 -2.1661582 -1.0542403 0.08987698
0.67831635 -0.28180188 -2.611938 0.16595787 1.3389109 -1.0019848 -0.7193044 -1.0915755
0.41939208 -1.4844892 -1.565095 -0.4095717 0.9910476 -0.48705986 1.5389156 0.776231
0.6225846 -1.4466125 -0.4663374 0.32750118 0.47110412 1.8895562 0.5192263 -0.6513895
-0.71862584 -0.48876625 -2.3603015 -1.9945734 -0.6290721 0.702689 -2.9449637 -1.6591759
-0.18032545 1.1775031 0.056760203 -0.4727321 -0.7703017 0.55226856 -0.04695875 0.3911884
-0.73190683 -1.7275689 -2.532881 -0.6259466 0.070174836 1.0409554 -2.4490938 -0.23026426
-1.8032174 1.7533166 0.1643905 -0.80974895 -0.763283 -1.6434988 -0.417002 2.5119457
0.104084484 1.0816712 1.3386343 2.4100099 0.89991593 0.0193098 -0.18218504 0.05284514
0.21052063 0.6471087 -0.5489375 0.4702059 -0.96112204 -0.31401065 1.0905067 -0.084068425
1.6295125 -2.4100444 -0.6461091 -1.4004267 -0.07145307 1.5113232 -1.9663599 0.9274261
-2.1181853 0.689045 0.5100642 2.1238828 1.7696315 2.896033 0.26158777 0.10119791
-0.6834086 1.4895922 1.5881562 -3.03339 0.12106555 -1.7564979 -0.41438252 -1.9718636
-0.88138384 -2.2092345 1.7292788 2.0443766 -0.6417749 -0.31790116 0.79513395 1.8506023
1.1746424 0.488487 1.3998821 -0.38210416 -0.4756031 -1.2864728 -0.08342785 0.38058472
1.3570968 -0.62958974 1.5306177 0.66722924 -1.0469496 0.28791282 -0.15979277 1.2445463
0.17212653 -1.7891266 -3.1201663 2.5735483 0.2778644 -1.8984185 -1.5555569 1.666455

while/MatMul f4 [256, 1]
00000000: c030 113e 4662 1d3c 393d 5fbd 8c04 9bbe
00000010: fe7e 42be 75a6 65be 20e3 49bd 157e 22bc
00000020: 1821 ecbe c63e 373d 6830 553c 36de 483e
00000030: 07ec 78bd 7432 93be bd6f 973e f47f 173e
00000040: 5642 d93d 9fee ec3e 5681 67bc 93b0 9cbe
00000050: a58c 2abe 6531 043e 0163 aa3b f055 78bd
00000060: e0b7 463c 4702 cf3b 70b4 47be 4b77 2ebe
00000070: 18a5 973d b292 433d 3144 73bd 4185 22be
00000080: 62f9 123e 40da 74bd 8b96 e8bd a9ab b6bc
00000090: 26bd 323c 72e2 9cbe 3bf5 c13d 9c84 12be
000000a0: 73e2 9fbe 3ef5 393e ba52 013d 7523 1f3e
000000b0: baaf 123e 0544 8bbd 8c6d a63d ff06 57be
000000c0: eb38 083e cd79 8a3e d0b2 c4bd 6761 bf3d
000000d0: 52dd 13bf d38d a63e a176 c9bc 8636 b0bd
000000e0: c0e7 35be eb7d 913e acfc 73be eab3 033e
000000f0: f794 35be ff11 83bd e3ba 0e3e fe08 033c
00000100: c84a 92be 6a4e 7c3f f09a 863e bfd7 253f
00000110: e83c 21be 1234 473f 859b a13d 20f9 be3e
00000120: ec53 b93f facf a3be 4922 d4be aa3d 24bf
00000130: d3a0 cc3e 5c9c 173f 5cf7 08bf 5dea c2bd
00000140: 0c63 86be 6279 9b3c 7d88 933e 1782 30bc
00000150: 2059 1ebf 0e54 cbbe 8392 873e 9f8a 48be
00000160: 76aa 0a3f 6f7b 0abc 679c 323f 73ed ab3d
00000170: 6511 73be 46a2 45bf c329 42be bac8 e9be
00000180: b210 673f 0c6b 823e bfff 56bf b294 a6be
00000190: 87e5 88bf 1e35 443f a962 4dbd cc94 153e
000001a0: 6bf9 e4be 4def e93d be76 93bf 0da2 80be
000001b0: 7e2b 55be 1f41 bb3e 6366 553f bc96 043e
000001c0: ab0b 50bf ed2c 46bd 8ec9 45bf 9052 003f
000001d0: 5b0b b13f 38d5 903e ecf1 df3d 2056 31bf
000001e0: bf9b ffbd ec45 723e 0c87 9dbe 9c47 45bd
000001f0: eeba ec3e c938 dfbe 89f4 9c3e 6d0f 3fbf
00000200: 7901 f13d 85f1 05bf 271c bb3e 17d9 8dbd
00000210: 5eb0 ac3c 67e8 f83d e080 05bf dc56 95be
00000220: 3a08 35bf db69 66be 27de f23e c49a 84be
00000230: 9d44 87be 4e6b 0abe 39ee 5fbe 676a b73e
00000240: 8508 f13e 42ab 22be e4eb b93e aef0 a3bd
00000250: 8254 5abc 1cd5 0d3f 7f17 33bf 2fba 1cbe
00000260: 242f 0bbf f2ae 9cbe 691e 663e cb28 ff3e
00000270: 3d25 6ebe 4045 8bbe f82f a83e a2f5 303d
00000280: 76c9 8a3e 58a6 27bf 599e 31be 0bfe 07bf
00000290: 1d11 f7be 8e24 f9bc e6b9 263d 4887 34bd
000002a0: 74e5 66be 66e5 5abe 41a1 02bf a0d7 bdbe
000002b0: a294 223e 7f38 5cbe 1710 2bbf 4522 06bf
000002c0: d227 b13d a64b c5be a9c4 e5be d9e5 713d
000002d0: a4bc d43e 8af1 39be e13d 1c3e 65cf 233f
000002e0: 0e25 a8bd 9b19 8b3e 89ce 7bbd 0895 423e
000002f0: 7f5f 193d 035c 00bf cbd8 b53d b338 053e
00000300: aea7 dbbe 67c4 d63d 4926 823e 7dc9 8f3d
00000310: 1727 6a3e c9db 9a3e 926e f73e 2d6c b5bc
00000320: d9ed 86bc 3347 633e 9406 1e3e 90e2 cc3c
00000330: 7237 633e a276 dd3e 8cb1 8f3d d4e6 8fbe
00000340: 021d 74be ddb7 20be a02f 53bd d405 393f
00000350: a1c6 d13e 30de 00be 738b 443c 406e c43e
00000360: 493d b43c 2125 2dbe d31e d9bf dce1 47bb
00000370: 35d2 2bbf f1f6 28be 17cc b6be 1b82 b13e
00000380: 9d03 bdbd 9603 113f 27f1 133e cda5 43be
00000390: ae61 9d3d 5d08 2b3e dc90 0c3d d034 efbd
000003a0: 84d1 71bf 5978 11bf fe2c c13e 2603 acbe
000003b0: 9a82 a93c 7e69 6fbe 10a4 383d b956 ecbe
000003c0: 6012 2f3e e211 31bf 9279 c33d 9f51 58bc
000003d0: 0035 1abe 98a5 a3be 6fb1 0dbe 90f3 6a3e
000003e0: 8ca0 b13d 6f1d 15be 32cf 123f 8c29 46be
000003f0: b43f fe3d 45de 843e 30a6 0bbe 5a67 e8be
0.14178753 0.00960595 -0.054501746 -0.30276906 -0.18993756 -0.2242678 -0.04928887 -0.009917756
-0.46119 0.0447376 0.013012029 0.19616017 -0.06077197 -0.2874943 0.29577437 0.14794904
0.10608356 0.46275803 -0.014129957 -0.30603465 -0.16655214 0.12909468 0.0051997905 -0.06062883
0.0121288 0.00631741 -0.19502425 -0.17037694 0.07404536 0.04774732 -0.059391204 -0.15871145
0.14352944 -0.059778452 -0.11356839 -0.02229865 0.010909354 -0.30641514 0.09470602 -0.14308399
-0.31227455 0.18159959 0.031573035 0.1554087 0.14324847 -0.06800083 0.08126363 -0.20998763
0.13302962 0.27046052 -0.09604418 0.0934475 -0.57759583 0.32530078 -0.0245927 -0.086041495
-0.17764187 0.2841638 -0.23826855 0.128616 -0.17732607 -0.06399917 0.13938479 0.007997749
-0.2857268 0.9855715 0.26290083 0.6478233 -0.1574589 0.7781383 0.07890991 0.37299442
1.4478736 -0.3199461 -0.41432407 -0.6415659 0.3996645 0.5922296 -0.5350244 -0.095173575
-0.26247442 0.018978778 0.2881507 -0.010773203 -0.61854744 -0.39712566 0.26478967 -0.1958413
0.5416635 -0.00845228 0.697699 0.08394899 -0.23737104 -0.77200735 -0.18961243 -0.45660955
0.9025985 0.25472295 -0.8398399 -0.3253532 -1.0695046 0.7664355 -0.050142918 0.14607543
-0.4472154 0.11422596 -1.1520612 -0.25123635 -0.20817372 0.3657312 0.83359355 0.12948126
-0.81267804 -0.04838269 -0.77260673 0.5012598 1.383159 0.28287673 0.10934815 -0.6927204
-0.12480878 0.23659486 -0.30767095 -0.048163995 0.46236366 -0.4359801 0.30655316 -0.7463291
0.11767859 -0.52321655 0.36544916 -0.06926172 0.021080192 0.12153702 -0.5214977 -0.2916783
-0.7071568 -0.22501318 0.47435114 -0.25899327 -0.26419535 -0.13517496 -0.21868218 0.35823366
0.47076812 -0.15885642 0.36312783 -0.080048904 -0.013325812 0.55403304 -0.6995773 -0.15305398
-0.54368806 -0.30602223 0.22472538 0.4983581 -0.23256393 -0.2720127 0.32849097 0.043203004
0.27106827 -0.65488195 -0.17345561 -0.53122014 -0.48255244 -0.030412938 0.04070463 -0.044074327
-0.22548467 -0.21376571 -0.51027304 -0.3707857 0.15877011 -0.21505927 -0.66821426 -0.5239604
0.08650173 -0.38534278 -0.44876602 0.05905709 0.4155017 -0.18158546 0.1525798 0.63988334
-0.082101926 0.27167973 -0.061476264 0.19002163 0.037444588 -0.501404 0.088792406 0.1300991
-0.42901367 0.104866795 0.25419834 0.07020853 0.22866474 0.30245808 0.48326546 -0.022146309
-0.016470836 0.22195129 0.15432197 0.025010377 0.2218912 0.43254572 0.07016286 -0.28105795
-0.2383919 -0.15695138 -0.05155909 0.7227452 0.40971854 -0.12584758 0.011996138 0.38365364
0.02200188 -0.16908695 -1.6962532 -0.0030499613 -0.67117625 -0.1650045 -0.35702583 0.34669575
-0.09229205 0.56646097 0.14447461 -0.19106217 0.076846465 0.16702409 0.034317836 -0.11679995
-0.9446032 -0.5682426 0.3772964 -0.33596152 0.020692158 -0.23380086 0.045078337 -0.46159914
0.17096853 -0.6916791 0.09544672 -0.013203054 -0.1505928 -0.31962276 -0.13837217 0.22944474
0.086732 -0.1456201 0.57347405 -0.19351786 0.12414494 0.25950828 -0.13637614 -0.4539135
